.checkpoints/attention_lstm_best_model.pt (torch, 376508 bytes, 16 tensors)

lstm.weight_ih_l0 f4 [256, 19]
00000000: 27da 03bd fa30 1dbd bbdb 0dbd 1c21 19bd
00000010: 1865 71bc 6591 f8bc b635 2fbc 2b48 22bc
00000020: a4e7 abbc 3f6e 803c f7d5 7e3c fb31 833c
00000030: 51d1 d2bb 7c84 133c 8185 ed3b 9328 573c
00000040: b75a a6bc 2cd4 d9bc c7a4 893c 199e eb3c
00000050: b555 103d f611 f83c 9550 183d c565 b33c
00000060: 906a fd3c 4a0a f23c c11d bf3c 7448 d73c
00000070: 23fd 123d 3423 b43c b6f2 c53c f7b2 ec3c
00000080: 7928 f03c b2e8 e03c ab55 0a3d 0d04 243d
00000090: 6c74 253d d1fa f93c 1c20 023d 759b e23d
000000a0: e9d1 14bd 8561 0c3e 77da ba3c 1810 8c3d
000000b0: 1034 b9bd 098c 343d a8c1 953d a9f4 2abe
000000c0: 4253 1cbd 5fa8 d3bd 6015 8fbd b65c cabc
000000d0: 9617 1dbd 63cb 3c3c c403 d1bd 24a3 033e
000000e0: 49e0 a33d 1cdf 12bd 0c64 333d 60ba 95bd
000000f0: c848 dfbd 4c7b e2bd c58d bcbc 0bfd 433c
00000100: 5acd df3c 08d3 543d 9ff5 e93c d569 86bd
00000110: 505b e4bd ee33 623d 1798 b5bc 6b98 5fbd
00000120: 8f90 4ebd f99e a2bd 1e62 b5bc 1732 44bd
00000130: 5a18 68bd 32dc ac3d adcc 5abd 8dae 07bd
00000140: 8df4 5a3d 6978 f93d 3b8e f8bc f474 863d
00000150: 02e9 9bbc 0ffc 103d 28d6 bb3c 2b75 2e3d
00000160: 8e41 003e 7e72 223e d1b0 5d3d a8e0 00bd
00000170: 6358 003e e0cc 54bd b47a 88bd faf8 11bd
00000180: 9d7c 4f3d 2c0c 8bbc bedc 2cbc 7443 0d3e
00000190: 0ea5 26bc e9dd c93c 4d16 753c 5524 203e
000001a0: 5e30 473d c746 003c ce84 753d 6926 fb3d
000001b0: 66fd 18bd bcd0 16bd cdbb c43c 858c 053d
000001c0: 38ab 3e3d 2a96 12bd 2273 98bd 4560 553d
000001d0: a6b6 35bd 5ffd fb3d d78b 31bd c55f 483d
000001e0: 4c4e 64bb 3b13 b23c acd7 043d f0bb c63d
000001f0: 87e4 a4bd 3432 9cbd 0855 07bd 0244 ed3c
00000200: 0d24 4e3d 8938 13bc 2601 68bb 44d2 053e
00000210: 52ba de3d 5625 ebba 1a5a 34bc ac1b a03c
00000220: 3c03 02bd d7d7 60bd 72bb ddb9 8187 bc3b
00000230: 66de 533d f289 a53d 6eea 223d 696d 91bd
00000240: 6cb2 bd3c d947 6abd 5895 d13c c7a1 8e3d
00000250: c7ad 973d 60f8 44bd 24c1 713d f6b1 6dbd
00000260: aa13 eabb d9bb 1a3e 87d3 9ebd 9825 e6bd
00000270: f0d9 3e3d 7f30 8dbd a940 23bd 63ef cd3d
00000280: 8e6f 743c 096c 34bd 234a 6cbb 9f70 b1bd
00000290: 5469 553c 000f 92bd 808c 16be 615b bb3d
000002a0: b504 e5bd c9f7 f4bd 31e8 a7bd 85fa 953d
000002b0: 62f8 013d 4c04 45bd 0b5b 023e 074a e43d
000002c0: db54 023e d308 5fbd 8a83 643d 611e 54bd
000002d0: 9265 ba3d 8523 203d f0a6 8e3d 4d00 1d3d
000002e0: b06a 943d c37c be3d 7467 b73d 6c79 7b3d
000002f0: e4f5 c7bc 904f e3bc 6c9b 3dbd f401 303e
00000300: 59b9 94bc 59e8 84bc 82f5 4e3d 8172 d1bd
00000310: 1e79 d3bd b14b 04be 7664 ce3d c52d 15be
00000320: 1f52 f6bd 5649 b2bd f072 e03d 6f88 d33c
00000330: 5996 bc3d f1ae cdbc b00d 9abd 7a8f 993c
00000340: bd7e dc3d 83c6 df3c f74d b13c 89d1 013d
00000350: b421 413d 82b3 0dbb a214 743d 3508 543d
00000360: 5000 b53c dab8 a63c f69a 1c3d 869e 903a
00000370: 7306 02bb 8612 393d 793e 3a3d a296 1e3c
00000380: 02bc 113d 8437 253d bcd8 c83c 6af2 0f3d
00000390: b45d 9f3c ce6f 05bb 7f4c e03b ec38 8b3d
000003a0: 8b3b 243d 527a 4a3b 85af 863c 9c35 c43c
000003b0: 1720 a23d 0a7d 863d 97cb 023b 263c 433d
000003c0: 8cc2 903d 25b5 e9bb 853d 693d ef79 8d3d
000003d0: 2846 b23c a114 77bb ad33 2c3b 5b8a b33c
000003e0: c867 043d 39a1 d23c 95c3 083d 02fd 023c
000003f0: e616 153d f78b 1b3d 1e9b 133d 305a 233d
-0.03219047 -0.038376786 -0.03463338 -0.03738509 -0.014733575 -0.030342767 -0.010693958 -0.0099049015
-0.020984478 0.01567757 0.015553943 0.016015043 -0.006433644 0.009003755 0.007248581 0.013132232
-0.020306928 -0.02659043 0.016802205 0.02876191 0.035237987 0.030282002 0.037186224 0.021899113
0.030934602 0.029545922 0.023329617 0.026279666 0.03588594 0.021989442 0.024163585 0.02889393
0.029316174 0.027454708 0.033773106 0.040042926 0.04039423 0.030515106 0.031768903 0.11064807
-0.036333 0.13709076 0.02280925 0.06839007 -0.09043133 0.04407886 0.073123276 -0.16694893
-0.03816534 -0.103348486 -0.06986499 -0.024702411 -0.03835257 0.011523101 -0.10205796 0.12855202
0.080017634 -0.035857305 0.043796584 -0.07310939 -0.10902554 -0.11058673 -0.02301682 0.011962186
0.027319599 0.051959068 0.028559504 -0.065631546 -0.11150229 0.055225305 -0.022167249 -0.054588716
-0.05043083 -0.07940478 -0.022141512 -0.047899332 -0.05666385 0.084404364 -0.05341785 -0.03312545
0.053455878 0.121811695 -0.030341258 0.06565276 -0.019032005 0.03539663 0.022929266 0.04259221
0.12525007 0.15863988 0.054123703 -0.03146425 0.12533717 -0.051953197 -0.06664029 -0.035637833
0.05065595 -0.016973577 -0.010550676 0.13795263 -0.010171188 0.024641948 0.01495893 0.1563886
0.04863011 0.007829375 0.059941106 0.122631855 -0.037351035 -0.03682016 0.024015332 0.032604713
0.046550006 -0.03578774 -0.07443835 0.052093763 -0.04436364 0.12304186 -0.043346252 0.048919458
-0.0034836708 0.021737685 0.032432243 0.09703815 -0.08051401 -0.07626763 -0.033040076 0.028963093
0.05032735 -0.008985647 -0.0035401075 0.13068491 0.108753815 -0.0017940204 -0.01100781 0.019544445
-0.031741366 -0.05489334 -0.00042292062 0.005753458 0.051725768 0.080829516 0.03977435 -0.071009465
0.023156367 -0.057197426 0.025583908 0.0696445 0.07406192 -0.04808843 0.059022084 -0.058031045
-0.0071434574 0.1511072 -0.077551894 -0.11237639 0.04659456 -0.068940155 -0.039856587 0.10055425
0.014919175 -0.044048343 -0.003605493 -0.08664059 0.0130256 -0.07131767 -0.14702034 0.091482885
-0.111825384 -0.11961324 -0.08198584 0.073231734 0.031731017 -0.0480998 0.12730043 0.11146932
0.12727682 -0.054451775 0.055789508 -0.051786784 0.09101404 0.039096374 0.069654346 0.038330365
0.072469115 0.0930114 0.08955279 0.061395094 -0.024409242 -0.0277479 -0.0462908 0.17188245
-0.018154787 -0.016224073 0.050527103 -0.10226918 -0.10325836 -0.12919499 0.10077755 -0.14568241
-0.12027382 -0.08705394 0.109594226 0.025821893 0.09208364 -0.025107833 -0.07522142 0.018745173
0.10766361 0.027316337 0.021643622 0.03169397 0.047151282 -0.0021621888 0.05958999 0.05176564
0.022094876 0.020351816 0.03823372 0.0011033572 -0.001984027 0.04518368 0.045469735 0.009679468
0.03557969 0.040336147 0.02451741 0.035143293 0.01945386 -0.002036083 0.0068450565 0.06797966
0.040095847 0.0030895662 0.016441116 0.023951344 0.07916277 0.06566818 0.0019957775 0.047664784
0.07068357 -0.00713219 0.056943435 0.069080226 0.021761969 -0.0037701505 0.0026275918 0.021916559
0.032325536 0.025711643 0.033389647 0.007994892 0.03639879 0.037975278 0.036036603 0.03988093

lstm.weight_hh_l0 f4 [256, 64]
00000000: c624 7e3a f716 bfbc f745 c5bb 0834 2939
00000010: 4b75 41bd 6e48 bc3c 51b4 67bc 7eda 053b
00000020: 7b73 90bc c5f9 94bc 41b6 9f3a ba08 8c3c
00000030: fd66 7e3c 427f f2bc 9ea8 9d3c 287b fb3b
00000040: ec51 503c 0685 a53c 8cd4 0cbb 6ea7 933c
00000050: 45d0 aa3c 8500 f43c f86b 9dbc 7e24 7a3b
00000060: 683e 363d d255 a4bb 043c 163c 883f 263b
00000070: d025 913c 11b3 89bc 7c9c b1bc 027c e5bc
00000080: eef0 493c 9654 9ebc 5977 be3c 7169 7b3c
00000090: 2309 51bc 2e61 663c 949c 96bc 855c e23c
000000a0: dbc0 3cbc 4625 a53c a136 0bbb 2d5f 683c
000000b0: 6299 9a3c da3b 77bc b474 ec3c 3660 65bc
000000c0: 28cf 9eba 7925 07bc c51f 6cbc 9658 8b3c
000000d0: c075 603c ec9a 843c 45ee a43c cf6d 96bc
000000e0: d2d6 98bc 5f53 95bc fed3 c53b f526 4e3c
000000f0: 97bc b5bc 0348 8a3c 4a9b 92bc 5eea d1bc
00000100: af23 b2ba 4f2a e1b8 cc6d 22ba 0ec5 963a
00000110: 1af3 9eb9 b1d5 0139 97b9 b4b9 a6d7 5eba
00000120: 7e1a 74b8 1087 a3b9 df36 ee38 d0be a238
00000130: 920f 3f39 2039 11b9 078b 8c39 d4a3 98b7
00000140: 0110 0b39 2132 9639 1a9b 10b8 f92c c938
00000150: dc21 483a 734c 873a 3126 aab9 1ae2 6bb8
00000160: a767 09b9 982d e2b8 35cc af39 6dcf 34b9
00000170: f292 2439 d0b3 88b9 775a 33b8 7f1c 13b9
00000180: df08 80b9 b292 36b9 a8f2 7b38 5456 a939
00000190: 433f bfb8 969b c439 fcee 08b9 c3e4 6638
000001a0: ce25 27b9 6c8d 2239 a2e7 a839 d69d 843a
000001b0: 7722 b739 76bf 0fb9 fdb2 ae39 8639 a5b9
000001c0: 4f6a a0b9 a396 a6ba e9be c5b9 acd1 3d3a
000001d0: 5d30 2a39 02bb fa38 3ef2 3fb9 b6ef d1b9
000001e0: 19c9 f3b8 9571 80b9 2acd 3c3a 4b30 d839
000001f0: 18d0 96b8 9056 ce38 4df8 4eb9 6bc9 e8b6
00000200: eb5d b5bc 645f 1a3d f6df cbbb 1c00 00bd
00000210: 764f 783d 8e9b 0dbd 99d8 8d3c 02a2 ddbc
00000220: 0f1c f43b 7107 6f3d 5793 b7bb 4baa 5d3a
00000230: 024a 14be c1ee dd3d 2744 37bd 7db4 263d
00000240: 059a b23b e6b6 44bc 8c63 3e3b f584 53bd
00000250: 5f7d a9bc 422c 59bd dc0f 663d 5783 c2bd
00000260: 5a1b fa3b 93fe 943a 0e9d 5ebd e2a0 2c3d
00000270: 0150 15bd 94c3 923d 4cad 433d 8a38 993d
00000280: 3e6a 41bc 0afa 1b3d a448 d3bd 7c62 1cbd
00000290: a55b 263c c07f 84bd 3e36 0c3d 9dd9 8abd
000002a0: 0c86 733d ea75 6fbd ddaa 453b 4f53 ce3b
000002b0: a5ed 26bd 220c 913c 6e3f 3fbd c058 6a3d
000002c0: 2194 30bd 4bd5 413b 650e f03c 461e e8bc
000002d0: a4cd 283c b037 37bd a4cd 83bd 140c dd3c
000002e0: f2ef 8d3c 6592 c13c 5f03 f5bc 96b0 a0bc
000002f0: e460 943d 7c1f 4dbd ddec 833d bbb0 493d
00000300: bedb 743a 936d 0d3d 9688 5f3c 5767 6bb9
00000310: 24fd e73c 637b f0bc 9539 d33c 372b bf3a
00000320: 319c 103d 4f7d 213d 7ece b7bb 3d2b bebc
00000330: 48fc 40bc 23eb 173d 0a69 0bbd b28f 92b9
00000340: a0fa a5bc ab83 cabc 3679 6539 7674 27bd
00000350: 3dcc 30bc 3d61 90bc 0784 213d 94a1 94bb
00000360: 6305 f53b 8c7d 18bb 9592 bebc 7771 533b
00000370: 41bc b4bc ac9a f23c 09d3 833c 5ea2 e83c
00000380: 0c65 48bc 3afb 273d 9187 2fbd 6d87 61bc
00000390: a7f4 9d3c 32b6 a8bc e325 3d3d ad58 52bc
000003a0: fa1d 9e3c 765b 8dbc b7c5 683c 7a55 e7bb
000003b0: 65ed 2bbd d38d ce3c 0b51 a0bc 7f93 063d
000003c0: b7be 68bb 46f8 a63b 0b0c 113d f901 f7bb
000003d0: 0cc4 23bc 5bca dfbc 7ae2 bbbc b206 113d
000003e0: 03cf 3c3d bdc5 383d fdc5 7cbb 0f54 93bc
000003f0: 79ac f03c 81f9 1bbd 0474 273d 32ed ba3c
0.0009694811 -0.02332638 -0.0060203033 0.00016136479 -0.047231 0.022983756 -0.014142112 0.002042442
-0.01763319 -0.018185506 0.0012185053 0.017094005 0.015527484 -0.029601697 0.019245442 0.0076745935
0.012714844 0.020205032 -0.0021488992 0.018024173 0.020851264 0.029785404 -0.019216523 0.0038168724
0.04449311 -0.0050151134 0.009169582 0.0025367457 0.017718226 -0.016809018 -0.021681063 -0.028013233
0.0123255085 -0.019327443 0.023250269 0.015344963 -0.012758526 0.014061255 -0.01838521 0.027632007
-0.01152059 0.020159375 -0.0021242278 0.014182848 0.018871967 -0.015089953 0.028864242 -0.013999989
-0.0012116181 -0.00824868 -0.014411871 0.017010015 0.013699949 0.016187154 0.020133147 -0.018362908
-0.018657122 -0.018228231 0.0060372343 0.01258253 -0.022184653 0.016880041 -0.017896313 -0.02562445
-0.0013590957 -0.00010736717 -0.00061961706 0.0011502819 -0.00030317233 0.00012382005 -0.0003447055 -0.0008500762
-5.8198806e-05 -0.00031190412 0.00011358945 7.7603036e-05 0.0001822098 -0.00013849558 0.00026806464 -1.81961e-05
0.00013262035 0.00028647578 -3.4476725e-05 9.592804e-05 0.000763444 0.0010322466 -0.00032453382 -5.623894e-05
-0.00013103952 -0.00010785012 0.00033530747 -0.0001724341 0.00015695 -0.00026073912 -4.2761178e-05 -0.00014029628
-0.00024420672 -0.00017411521 6.0069055e-05 0.0003229851 -9.119373e-05 0.00037499954 -0.00013059 5.5049324e-05
-0.00015940444 0.00015502208 0.00032216037 0.001011784 0.00034930158 -0.00013708867 0.00033321223 -0.0003151411
-0.00030596784 -0.0012709688 -0.00037717007 0.00072410214 0.0001623048 0.00011955762 -0.00018305422 -0.00040042185
-0.000116246 -0.00024498688 0.00072022027 0.00041234712 -7.191318e-05 9.838969e-05 -0.0001973819 -6.937587e-06
-0.02213951 0.037688628 -0.0062217666 -0.031250104 0.060622655 -0.034572177 0.017315196 -0.02705479
0.007449634 0.058356706 -0.005602281 0.00084558566 -0.14481357 0.10836554 -0.04474273 0.04069947
0.0054504895 -0.012006497 0.0029051034 -0.05164047 -0.020689664 -0.053020723 0.05616747 -0.09497707
0.007632655 0.0011367373 -0.054348998 0.042145617 -0.03645325 0.0716621 0.04777269 0.07481487
-0.011805115 0.038080253 -0.103165895 -0.03817986 0.010153686 -0.06469679 0.034231417 -0.06779788
0.05945401 -0.05846206 0.0030161657 0.0062965523 -0.04075398 0.01770598 -0.04669135 0.057213545
-0.043110017 0.0029576595 0.029303739 -0.028334748 0.010302935 -0.044730842 -0.06435707 0.026983298
0.017326329 0.023629377 -0.029908834 -0.019615453 0.07245043 -0.050078854 0.064416625 0.04924081
0.00093406055 0.034528326 0.0136434045 -0.00022449844 0.028318949 -0.02935571 0.025784293 0.0014585023
0.035305206 0.039426144 -0.0056093326 -0.023213977 -0.011778899 0.03708948 -0.03403572 -0.0002795435
-0.020261109 -0.024720987 0.00021884296 -0.04088255 -0.010790882 -0.017624492 0.03943255 -0.004535863
0.007477449 -0.002326819 -0.023263255 0.0032263675 -0.022062423 0.029614769 0.01609184 0.028397735
-0.012231123 0.041011073 -0.042853896 -0.013765198 0.019281698 -0.02059469 0.04617871 -0.012838525
0.019301403 -0.017255526 0.014207295 -0.00705975 -0.041974444 0.025214111 -0.019569894 0.032855507
-0.0035514066 0.0050955145 0.035411876 -0.007538077 -0.009995472 -0.02731817 -0.02293514 0.035406776
0.04609586 0.045110453 -0.0038570159 -0.017984418 0.029379116 -0.038079742 0.040882125 0.022818182

lstm.bias_ih_l0 f4 [256]
00000000: eb04 a23c 105f e839 5f6b b4bd b4f1 cabc
00000010: 172e 7c3c c40c 2f3d 5c89 6cbd 9466 153d
00000020: 7789 2fbd d230 62bc 7bf0 3dbd 8c1f 02ba
00000030: 4855 183b 13f1 f839 a8e2 08bd 0f6d d83b
00000040: 5291 e33a b816 e83a f918 ac3b a763 fd3d
00000050: 4531 413d 2579 3b3d 4c50 ce3c efda 483c
00000060: 610b 423d 2c89 57bc 70d9 f1bc 9a34 3ebc
00000070: 1436 b7bc b30f b63b 890d af3d 39e6 f63a
00000080: b677 983d b2f7 983d 1f85 2abd cbcc 5c3d
00000090: 9fff 58bb 9e0f 9cbd 32a6 4abd 90f8 373d
000000a0: de29 bfbc 4ada f5b9 2261 72bd 4a1f 3c3d
000000b0: 27dc 4a3d d21d ef3c 16cc 6f3d a016 ab3d
000000c0: c6d8 f3bb 9d60 ff3c a9be f9bc f6b2 cc3b
000000d0: f09d c7bd 2c1e e439 da17 b93c 9ae1 833d
000000e0: ff1e a33d 4175 663b a96a 243c 0f5b 60bd
000000f0: 00cb df3a 35eb cb3d e895 84bc f063 47bc
00000100: 3905 b13b bfe2 3a3c ffe8 113d 9a86 98bb
00000110: 9312 14bd 5394 59bc 1201 ccbc f938 ea3c
00000120: d196 853d 0b20 b33d 0cc5 d4bb 9118 1a3b
00000130: 2cd5 a63c 9048 71bc 836e 8e3c ecdb a3bc
00000140: 4b8d b13a b35a da3c 8798 62bc 3c7c d2bc
00000150: a8c0 283d e69a 173d 014e a73d 2c35 323c
00000160: 531d ee3d b26e ce3c 53ce a0bd fc7a 1a3d
00000170: c6d3 2cbb fbe1 683d f230 68ba 5a0f cb3a
00000180: e915 cabc e4b3 b3bb 8a26 a5bd c299 6c3c
00000190: a6fb 6c39 2423 83bd 362e 0e3c 39f4 4cbd
000001a0: 45d6 403b 6ccd ddba 4eb7 16bd 9b94 0f3d
000001b0: ac34 ad3a 8cdd 313e 287f 993d 4647 d93c
000001c0: 420b 72bc ec75 db3c 86f2 8bbd 633c 003d
000001d0: 5887 6c3c 4399 073b c4a4 cbbd ed0a 0c3d
000001e0: 9bc1 d5bb 79d1 a9bc 74b7 513b 2d7a 04bd
000001f0: 0512 bf3b 6897 0c3c a43c 213c 5025 a13c
00000200: f3da 463d 84d4 77bc cc58 f7bb ac0c 5cbd
00000210: 5190 b8bd dd14 fe3c c610 4cbc 2043 513c
00000220: 9455 3b3a d25f 473a 59e5 2abd 4f82 8b3d
00000230: d901 f73a e4d9 033d cab5 14bd 250e 26bd
00000240: f9a3 403a b73c 023c d3eb 13bd acfe 6e3b
00000250: f34f 2c3b e572 df3b 52dd 5cbb 3689 16bd
00000260: 9b3a a03d b285 4b3b b922 5dbc 5e17 12bd
00000270: 62bb 95bc c16d 8dbc 3801 9abc 41a0 bebc
00000280: d8bb 0dbd 5391 c23d e366 6abd 7f3f 6cbb
00000290: 5dcc 313c d31f 953c cfbf d03b 8491 9f3d
000002a0: 02c7 933c 9af3 123b b67c 573c 7129 003b
000002b0: 159a 403b c80a 9b3c 7f26 79bd 95b0 b83b
000002c0: e61c 7e3d fe96 dabb cbfb f1bb 8858 d53a
000002d0: e1fe 813c ebcd 0d3b 9f99 203d 60f3 4b3b
000002e0: f522 3ebb 13c7 9cbb 434a 7c3c f5e8 bf3c
000002f0: 73a2 3cbc c2f2 8ebc 8df1 943c 92c3 933d
00000300: a87a 933c bfbc 203e 5fe5 f63c e2e4 c6bd
00000310: f662 ba3d 5d82 813d f6d3 163d 9d78 423d
00000320: 3cfa 6ebc 29e8 59bd ae27 6f3c 0558 2d3e
00000330: 934a 5ebd 9177 7f3c c4df a0bc 4881 94bb
00000340: 6ce9 663d 46c4 1d3e 0fbe 873c a495 a2bc
00000350: 50ed d93c c59f 7cbc 2139 b93d 3e82 c73b
00000360: 408f 9e3d 5e5a 0dbd ac3b 52bd a9ec fabd
00000370: 9891 83bd 847b 1abd 2354 443d 6162 653d
00000380: cb60 d23d 26df 8e3d 1d91 da3c a91f a0bd
00000390: 2e0b 9e3d f8e4 d53c e10b 323d a39d aa3d
000003a0: ceb8 d7bd fca0 10bd 106d abbc 0917 1d3d
000003b0: 6fcb 5b3d cd08 e4bc 44fe 983c 1ec4 44bc
000003c0: 689f c2bd 9490 143d 0343 8e3c 398e 933d
000003d0: 883a 313d a7da 2e3e 0f48 c2bd f787 b23d
000003e0: 856c d6ba 4fed 89bd 6c69 d7bd 7f66 c13d
000003f0: c94e 6c3d 3969 d2bd 50f6 b83c 558c 1f3e
0.019777736 0.00044321315 -0.08809542 -0.024773456 0.015391848 0.042736784 -0.057748184 0.03647478
-0.042855706 -0.013805585 -0.04637192 -0.00049638073 0.002324419 0.0004748186 -0.03341928 0.0066047977
0.0017362034 0.0017706966 0.0052520004 0.12372523 0.047166128 0.04576983 0.025184773 0.012259229
0.047374133 -0.013155263 -0.029522628 -0.011609221 -0.022364654 0.0055560707 0.085475035 0.0018836922
0.07444708 0.07469119 -0.04163086 0.053906243 -0.0033111346 -0.07620166 -0.049474902 0.044914782
-0.023335394 -0.0004689268 -0.059174664 0.045928277 0.04952636 0.029189024 0.05854424 0.08353925
-0.007441613 0.031173998 -0.030486422 0.0062469197 -0.09746921 0.0004351003 0.022594381 0.064395145
0.079648964 0.0035165104 0.010035195 -0.05477434 0.0017074049 0.099569716 -0.016184762 -0.012169823
0.005402234 0.0114066 0.035622593 -0.0046547176 -0.036150526 -0.013279992 -0.024902854 0.02859162
0.065229066 0.08746346 -0.0064932164 0.0023513178 0.02036532 -0.014726773 0.01738668 -0.020002328
0.0013546137 0.026654577 -0.013830311 -0.025694005 0.041199356 0.037012957 0.08169175 0.010876935
0.11626687 0.025199268 -0.07851853 0.037714943 -0.0026371344 0.056856137 -0.0008857391 0.0015492246
-0.02466865 -0.005484091 -0.08063991 0.014440956 0.0002260046 -0.06403187 0.00867801 -0.050037596
0.002942459 -0.0016922182 -0.036795907 0.03505383 0.001321455 0.1736967 0.07494956 0.026523244
-0.014773192 0.026789628 -0.06833367 0.03130759 0.014436565 0.0020690716 -0.09943536 0.034190107
-0.0065233237 -0.020729767 0.0032000216 -0.03234308 0.0058310055 0.00858102 0.009841118 0.019671112
0.04854865 -0.015126351 -0.007548427 -0.053723022 -0.09011901 0.031015808 -0.012455171 0.0127723515
0.0007146236 0.0007605526 -0.04172263 0.06811964 0.0018845155 0.03219022 -0.03630618 -0.040540833
0.00073486526 0.007949046 -0.03611357 0.0036467714 0.002629277 0.0068191164 -0.0033701253 -0.03675195
0.07823678 0.003105503 -0.013497048 -0.035666816 -0.018277828 -0.017264249 -0.01879941 -0.023269774
-0.03460297 0.09500375 -0.057227027 -0.0036048589 0.010851947 0.018203652 0.0063705216 0.07791427
0.01803923 0.002242303 0.013152292 0.001955595 0.0029388715 0.01892604 -0.06082773 0.0056362846
0.06203928 -0.0066708317 -0.0073847524 0.0016276995 0.015868606 0.002163763 0.039209004 0.0031120405
-0.0029012535 -0.0047844737 0.015398565 0.023426512 -0.01151334 -0.01744974 0.018181587 0.072150365
0.018002823 0.15697001 0.03013867 -0.09711625 0.091009066 0.06323693 0.036823235 0.047478307
-0.014586028 -0.05319992 0.014596863 0.16928108 -0.05427034 0.015592472 -0.01963795 -0.004532013
0.056374952 0.15406904 0.01657012 -0.019846745 0.026602417 -0.015418951 0.090440996 0.006088524
0.077421665 -0.03451001 -0.05132644 -0.122521706 -0.06424254 -0.03771545 0.0479318 0.056002025
0.10272368 0.06976156 0.026680524 -0.07818539 0.07716976 0.026110157 0.04346836 0.08330848
-0.105332956 -0.035309777 -0.020926028 0.038352046 0.053660806 -0.027836228 0.01867593 -0.012009649
-0.095030606 0.036270693 0.017365938 0.07204861 0.04326871 0.17075597 -0.094864 0.087173395
-0.0016359246 -0.06734716 -0.105181545 0.09443378 0.057692323 -0.10273976 0.022578388 0.15580876

lstm.bias_hh_l0 f4 [256]
00000000: af04 a23c 10f2 e739 ef94 81bd cc15 21bd
00000010: b986 e63c 718b c63c e5f7 40bd 6994 d43c
00000020: 3da5 4fbd 04d1 deba bd8e af3c 1e0d 02ba
00000030: 385c 353b b61f fa39 6808 2f3c 9261 df3b
00000040: be28 f83a eeaa 81ba 8214 35bd b2da eebb
00000050: d001 453d b0ce 8c3c 542b a23c 22ab 493c
00000060: 4506 833c 65e0 abbb 1429 efbc a4da a43c
00000070: 32a4 bfbc 40b8 afbc f249 10bd b7dd f63a
00000080: 7e09 bebd 3438 043e 1a97 3dbd 88e2 00bd
00000090: c798 58bb 631d 95bc f01e 5ebc 8db1 7ebd
000000a0: 282d bfbc 0f36 f6b9 d99a 7c3d d7aa 3c3d
000000b0: 98dc e63c 9a11 4c3d cfd0 453d 45d3 433d
000000c0: b37f f0bb f0e3 fd3c 94c5 dfbc 3bbb 1b3d
000000d0: 7a04 df3d 2829 e439 7335 e23c 7ba0 ad3c
000000e0: 80d7 bbbc 11b7 4ebc 145d 243c 93ea 25bd
000000f0: 52a7 e23a 99bc 533d 6edd 8dbc ecdd 77bc
00000100: e2e1 a13b e05d 3c3c 54a7 903d cf76 a9bb
00000110: 2d56 b63d 97f1 383c 9495 7c3d 2505 ec3c
00000120: 85f5 2c3e 07eb e33d df3f a03b 1553 213b
00000130: 29a6 7cbc e1a8 78bc 938e 383d 5efa c53c
00000140: 3257 a63a d11f e13b 42cc 92bc cfaa 67bc
00000150: 3007 293d c9a5 753d 7b0a ea3c c1fe 323c
00000160: 2ddb 333e 649e c5bb fbe7 a83d 0e46 82bd
00000170: da1c 93bb fc8b 253c e4c2 1bbc 0a01 cf3a
00000180: 614b 8c3d 982d 5e3d b309 67bd 5024 703b
00000190: 82d5 b83b 5cef 5f3c b2f9 0c3c 3b68 f53a
000001a0: 21fc 723b 7bb1 78ba 2d8d d739 69ea 0e3d
000001b0: bd56 253b 119a 083e e5e4 103e 9d32 233d
000001c0: dd53 f5bb 561f dd3c 9b53 33bd 7074 103d
000001d0: b083 fb3d 9099 073b 3e08 833d f304 503c
000001e0: caa7 213c e201 b6bb f441 523b 2822 bebd
000001f0: e6fb a33b b791 883c 1465 213c b9bb 98ba
00000200: ca39 413d 22b1 0ebd 5711 213c 7399 cf3d
00000210: 1dc6 9bbd 5c07 033d 46ca 19bc aa3e 9dbb
00000220: 8a36 e5ba a0ef 1e3a 4097 72bd 6e4a 423d
00000230: 856a c53a e083 39bb ee04 0a3d b86a a6bd
00000240: 4f50 093c 2756 0c3c 077a 56bc 02ab 523b
00000250: a45c 2c3b 0f0c f73b d3e5 58bb 5302 06bd
00000260: 20ae 483d 0391 b43d 2aa1 80bc 5cd0 053e
00000270: 0c55 96bc d1bb 9bbc 823a 4a3d 2e70 57bc
00000280: d7d2 13bd 9a44 103d bc33 3a3c a525 833c
00000290: 86b8 cebc e8c7 8c3c bc75 d93b 17d9 8e3d
000002a0: 5d9d 973c 5725 f93a 36b4 f03c 5925 f63a
000002b0: fcb9 3e3b 55d4 9a3c 6fc5 33bd 6d3b 6d3c
000002c0: afbe 91bd d3bc 15bc d850 8abb dbc0 2339
000002d0: dd62 ea3b 7c3c 433b 46e7 1ebc 459a 19bc
000002e0: 8f24 3ebb 8c3f bdbb 6c02 6d3c 70cb 203d
000002f0: 1586 32bc b285 1dbc b1c0 953c 6126 923d
00000300: 1908 843c bb52 91bc 331e 14bd 85fc a33d
00000310: e33c 34bc 70e8 4abc ac1a 66bd a570 8e3d
00000320: a695 ff3b ca56 16bd 5db3 91bb 2b02 c43d
00000330: 28f5 483d 00e6 fdbc 6a3f 85bc 33d8 b23c
00000340: 96cf 1b3d 71ac ad3d 09ac acbb a0c4 b8bc
00000350: 6a82 fd3c 0340 85bd bfdd a63c b761 bc3c
00000360: 6552 953d f27b d8bc 9f6f 3d3c 791e 29bd
00000370: a784 cd3c f8f9 a8bc ea83 adbd 5fb7 133e
00000380: 7dfe 723d c7a7 d03c f10a f2bc 635e 0c3c
00000390: 10e1 3cbd ff54 793c d32b de3d 1082 8fbb
000003a0: cb3f 05bc 8870 73bd 52ba b7bd d5f1 1c3d
000003b0: b932 3c3d c38b 4ebc 6773 f53c fdd4 e1bb
000003c0: 58a6 99bc 3ffb 173d 5e40 043c 76d5 22bd
000003d0: 2a57 68bd c992 c03d 5ec0 d83d e538 bb3d
000003e0: 753a ab3b 96e3 d73c 3d15 9e3d 422b f53d
000003f0: 6fba 41bc 984b 17ba 7f91 bb3d 95ec 24bd
0.019777624 0.00044240104 -0.06327235 -0.039327428 0.028140413 0.024236413 -0.04711141 0.025949674
-0.050694693 -0.0016999547 0.021430368 -0.0004961061 0.0027673375 0.00047707342 0.010683157 0.006817051
0.001893304 -0.000989286 -0.04420901 -0.007289254 0.04809743 0.0171884 0.019796051 0.012308868
0.0159942 -0.005245256 -0.029194392 0.020123787 -0.023393724 -0.021450162 -0.03522677 0.0018834387
-0.09279154 0.12912065 -0.04628668 -0.031466037 -0.0033050047 -0.01820249 -0.013557181 -0.062181044
-0.023336962 -0.00046961053 0.06167111 0.046061363 0.02818136 0.049821474 0.04829484 0.047808904
-0.0073394417 0.030992478 -0.027315892 0.038020354 0.10889526 0.00043518213 0.027613377 0.021194687
-0.022929907 -0.012616889 0.010031957 -0.04050691 0.0017292297 0.051693533 -0.0173175 -0.015128594
0.0049402574 0.011496991 0.07063165 -0.005171634 0.089031555 0.011288068 0.061666086 0.028811047
0.16890533 0.11128812 0.0048904265 0.002461617 -0.015420475 -0.015176983 0.045057844 0.024167236
0.0012690781 0.006870248 -0.017919663 -0.014139845 0.04126662 0.05997256 0.02856945 0.010924996
0.17564078 -0.0060308445 0.08247372 -0.06361018 -0.0044895234 0.010104176 -0.009506915 0.0015793156
0.06850315 0.0542427 -0.056405734 0.0036642738 0.0056406865 0.013667908 0.008604454 0.001872308
0.003707655 -0.0009486896 0.0004111318 0.03489152 0.0025228702 0.13340022 0.14149816 0.03984319
-0.007486804 0.026992481 -0.043780904 0.035267293 0.12280977 0.0020690896 0.063980564 0.0126964925
0.009866664 -0.0055544237 0.0032082768 -0.092838585 0.005004394 0.016671045 0.009850759 -0.0011652625
0.047174253 -0.034836896 0.009830794 0.1013669 -0.076061465 0.03198944 -0.009386605 -0.00479873
-0.0017487567 0.00060629286 -0.059226274 0.047434263 0.0015061653 -0.0028307363 0.033696108 -0.08125824
0.0083809635 0.008565462 -0.013090617 0.0032145386 0.0026300335 0.0075392793 -0.003309597 -0.03271706
0.048994184 0.08816721 -0.015701849 0.13067764 -0.0183511 -0.019010456 0.049372204 -0.013149304
-0.036089744 0.035221674 0.0113648735 0.016009161 -0.025234472 0.017185166 0.0066363495 0.06975
0.018507654 0.001900832 0.029382806 0.0018779441 0.0029102555 0.018900076 -0.04388946 0.0144795
-0.07116448 -0.0091392575 -0.004221063 0.00015616736 0.0071528987 0.002979069 -0.009698695 -0.00937516
-0.002901349 -0.0057753976 0.014465909 0.039256513 -0.010896225 -0.009614395 0.018280359 0.071362264
0.016117143 -0.017739644 -0.036161613 0.08007149 -0.011000845 -0.012384519 -0.05617778 0.06955079
0.007799822 -0.036703862 -0.0044464306 0.09570726 0.049061924 -0.030993462 -0.01626559 0.021831607
0.038039766 0.08480156 -0.0052695316 -0.022554696 0.030945975 -0.0650635 0.020369409 0.022995813
0.07291106 -0.02642629 0.011562257 -0.041288827 0.025087668 -0.020627007 -0.08472426 0.1442542
0.05932473 0.025470627 -0.029546233 0.008567425 -0.046113074 0.015218019 0.108482026 -0.0043795183
-0.008132885 -0.05943349 -0.08971085 0.038316566 0.04594681 -0.012606564 0.029962255 -0.0068918453
-0.018756077 0.03710484 0.008071987 -0.039754353 -0.05672375 0.09402997 0.10583566 0.09141711
0.0052254745 0.026353639 0.07718895 0.119711414 -0.011824234 -0.0005771457 0.091586106 -0.040264685

lstm.weight_ih_l1 f4 [256, 64]
00000000: d2d2 0c3c a1b8 893c 81ee dcbd b0b3 cc3b
00000010: db5c 9c3d 52f7 d93b 5799 85bd 5274 673c
00000020: 442c 733d 8aa8 32bd 219f 2639 e54f b63d
00000030: b248 29bd 6d28 d7bb 9437 72bd 5d6b 84bc
00000040: 2c4f c0bc b2a4 303b 1472 11bd 2e06 8a3d
00000050: b1a2 3cbd de65 b3bd d9f5 56bd 3377 17bd
00000060: 366f 523b 0053 a4bd cc4f 8739 22c5 233d
00000070: bdcf 6c3d 34ef 9ebd e02f 933c e4d2 92bd
00000080: 25eb 9b3d 65d1 af3d 58e6 50bc be19 11bd
00000090: e0ca 44bd 2f7f 4dbd f7af 9fbd 1e03 eebd
000000a0: bcb0 8a3c 28c4 aa3b a389 8fbd ee13 2cbd
000000b0: 2c4d ddbd 07cd 79bd f62b bcbd 907e 01bc
000000c0: cce4 ac3c fbcc 0e3d af1f c03b a9f2 3fbd
000000d0: 9155 a53d de83 febc ab6a 483c cfb2 45bd
000000e0: cbea 123d b7ec 4b3d c1fa 2bbd 1a7e 5e3d
000000f0: a8b8 3bbd d53f 9ebd 0adb b03d 1f08 ff3c
00000100: fc3e 0a3c 45e3 a4bd b094 ccbb e1a2 1d3c
00000110: edfd eabc c5e8 b73c bb4e eebc a7b1 0a3b
00000120: 853b 26bd 2d7c fabd 3524 4d3d 4094 163c
00000130: c6e0 c53b 3a31 69bd 9385 fd3d 0939 12bd
00000140: c2db a3ba 0143 903b c5bd 6dbb 11f4 873b
00000150: eb78 543b e1ea b93b 1103 87bd 4177 3bbc
00000160: 66dd 95bd ccd9 06bd c203 bf3d a68e eebd
00000170: 9a4e 633d c0f1 58bd 2b89 e8bc b39d a2bc
00000180: b1a6 8a3c 5af2 fdbd 3dae e43c 57bd 4e3d
00000190: 56a1 80bc 87b1 1d3e b299 17be bb78 fb3d
000001a0: 8fab d2bd 3450 c83c da02 48ba c2f4 ef3a
000001b0: 3338 ed3d a4fa 01bd 7eef 0d3e 46f9 08bd
000001c0: 59aa 6f3d 3d23 e73b 9b9b 36be 8d99 263c
000001d0: cb2a 5c3c 9a19 923d 529d 7ebd 7b23 bfbd
000001e0: ab79 4cbd 55c5 083c 9e73 4bbc 4a83 773d
000001f0: a16a 30bd d0b5 433c c554 08be 4d2a e8ba
00000200: b417 73bb 6e3c 293c e670 843d 623d 123c
00000210: 0f4a dbbd 722a 16bd 56a3 9f3d 62cf 9c3c
00000220: 9f09 2d3d 0c0c 843d ef69 05bd c9ce 4abc
00000230: 486d 82bd 96ca 423d ca00 fe3b de62 213d
00000240: dc82 a8bc 7b6a 713d dd77 0bbc a6c1 bfbd
00000250: 43b8 0fbd 5fa7 1fbd 376d acbc cc6f 02bc
00000260: bc81 d33c 2174 b13d caaa 573d 671c b6bd
00000270: ea19 b7bc f14a 833d 6363 d2bc 5e37 573d
00000280: a60a 6cbd eae0 0dbd 976f e6bd f9d7 483c
00000290: a4a9 653d 5805 4bbd 5fce 6f3d 4c47 963d
000002a0: eb47 373d 6c3b 3bbd f813 323d c570 a7bc
000002b0: 53c6 4dbd 7432 ed3d 8e32 aa3c 88c6 bc3c
000002c0: e131 b83d 0f5a 1d3c 2a65 96bd dbdd aabc
000002d0: 5aaa 84bd 13e8 24bd 1149 6ebd 52ca 9f3d
000002e0: aa34 85bd e24e dcbd 9eba 44bc 2efa d1bd
000002f0: 9982 843d f08d 0d3d dc23 debb a2cc 053d
00000300: 2690 243c 6da3 87bd 8525 d2bc 4e01 0ebc
00000310: 8165 a0bc 278e a63b d82c 2cbe c71f ec3a
00000320: c48c debc f973 5dbd 31d1 0f3d 7a99 993d
00000330: 5d52 a73c dab0 bbbc a185 df3d 5a73 24bd
00000340: 4852 80bb a22c 6d3b af79 17bd 96a6 583b
00000350: 04d7 b93b f973 e53b 8964 dabd 20f7 0a3c
00000360: dd42 afbd d98e 57bd 4c15 d23d 528f b6bc
00000370: dd51 cd3d 2d25 afbc 97ca 10be cb7b a0bd
00000380: f325 3c3c 28b1 2fbd c4ea a83d 4949 c23a
00000390: e53d 30bd fd56 a4bc 66d7 e9bd b49a fb3c
000003a0: 3ff0 87bd 2b5a 8d3c 36d4 2c3d 897f 603b
000003b0: d973 a2bc 65f7 8fbc a863 203e d27f 16be
000003c0: b071 903d c232 fd3b d393 65bc be75 263c
000003d0: 3413 273d 8d57 b33c 4ead 7c3a 7376 e5bd
000003e0: ad0a cebc e18e 90bd 27d0 70bb ebd6 a23c
000003f0: 5539 9ebd c731 053e 2f7c 52bd f314 0abd
0.008595185 0.01681167 -0.107876785 0.0062470064 0.07634898 0.0066517973 -0.06523388 0.014126854
0.059368387 -0.043617763 0.00015890274 0.089019574 -0.041329093 -0.0065660984 -0.059135035 -0.016164476
-0.023475252 0.0026953635 -0.035509184 0.0673946 -0.046053592 -0.08759664 -0.052480552 -0.03697891
0.0032109744 -0.080236435 0.0002580866 0.039982922 0.057815302 -0.07760468 0.017967165 -0.071691304
0.0761321 0.08584861 -0.012750231 -0.03542494 -0.04804504 -0.05017012 -0.077972345 -0.11621688
0.016929977 0.005211372 -0.07008674 -0.042011194 -0.10805735 -0.060986545 -0.091880724 -0.00790371
0.021105193 0.034863453 0.005863152 -0.046862278 0.08072961 -0.031068739 0.012232463 -0.04826623
0.035868447 0.049786296 -0.041987184 0.05431948 -0.0458304 -0.07727019 0.086355284 0.031131802
0.008437868 -0.08051161 -0.006243311 0.009621353 -0.028685534 0.02244986 -0.029090276 0.0021163018
-0.040584106 -0.12230716 0.050083358 0.009190619 0.006038758 -0.05693171 0.12378993 -0.035698924
-0.0012501406 0.0044025187 -0.0036276442 0.004148968 0.0032420706 0.0056737517 -0.06592382 -0.011442007
-0.07317619 -0.03292255 0.093268886 -0.11648302 0.055494882 -0.052964926 -0.02838572 -0.019850587
0.016925188 -0.123997405 0.027915115 0.050473537 -0.015701931 0.15399753 -0.14804724 0.12278887
-0.102866285 0.024452306 -0.00076298194 0.0018307196 0.11582985 -0.03173317 0.1386089 -0.03344085
0.058512066 0.0070537613 -0.17832796 0.010168445 0.013437937 0.07133789 -0.06216175 -0.09332939
-0.04992072 0.008347829 -0.012417702 0.06042794 -0.04307044 0.011945203 -0.13313587 -0.0017712802
-0.0037092986 0.010329349 0.06466846 0.008925768 -0.10707485 -0.036661573 0.07794826 0.019141857
0.042245504 0.0644761 -0.03257173 -0.012378403 -0.063685 0.047556482 0.007751559 0.039400928
-0.020570211 0.05893944 -0.008512464 -0.093631074 -0.035087835 -0.038977977 -0.021048171 -0.007961225
0.025818698 0.08664728 0.05265311 -0.08892136 -0.022351224 0.06410778 -0.025682157 0.052543037
-0.057627343 -0.034638323 -0.11251753 0.012258523 0.056069985 -0.049565643 0.05854642 0.073378175
0.04474632 -0.045710966 0.043476075 -0.020439515 -0.050237965 0.11581889 0.02077606 0.023043886
0.08993889 0.009603991 -0.07343514 -0.020857742 -0.064778045 -0.040260386 -0.05817515 0.078022614
-0.065041855 -0.10757233 -0.012007384 -0.10252796 0.06470222 0.03455919 -0.006779177 0.032665856
0.010044133 -0.06622968 -0.025652656 -0.008667303 -0.01957965 0.005082864 -0.16813982 0.0018014841
-0.027166732 -0.05406568 0.03511161 0.074999765 0.020425016 -0.022911478 0.109141596 -0.04014907
-0.0039160587 0.0036189933 -0.03698128 0.0033058277 0.005671384 0.0070023504 -0.10663707 0.008481771
-0.08557675 -0.052626465 0.10257968 -0.022285137 0.1002538 -0.021380031 -0.14139782 -0.07836112
0.011483657 -0.04289356 0.08247903 0.0014822866 -0.043027777 -0.02006101 -0.11418037 0.030713417
-0.0663762 0.01725491 0.042194568 0.0034255704 -0.019830631 -0.017574022 0.15663016 -0.14697197
0.07052934 0.007726998 -0.014012295 0.010159908 0.040789798 0.021892333 0.00096388615 -0.11204233
-0.025151575 -0.07058502 -0.0036745162 0.019877871 -0.07725779 0.1300727 -0.051387962 -0.033711385

lstm.weight_hh_l1 f4 [256, 64]
00000000: 77ff 4eba 9d27 c9bc ab15 54bd 24b7 683c
00000010: 74d0 70bb f267 a33b 1299 59bd 45e1 8bbb
00000020: 7fdb 753d 01ad c9bc 52ae 9bbb 9a84 af3b
00000030: 7c44 0ebd b809 e9bc 52a6 283d d10e 383d
00000040: 2c9e 843d 6abb 88bb ad3d c7bb 4555 123c
00000050: cd5a 5bbc 3efd 6f3c f0a8 283d 6def 2c3d
00000060: 70a3 8e3b 0498 86bc abf0 353b 1420 34bd
00000070: a4cd 54bd 5fa3 f8ba 33f9 283d 6d03 c5bd
00000080: 2627 8b3d 1525 5abc cb77 cfbc 14e1 45bc
00000090: 42ca dc3c 56cf 16bd 1467 c23c a223 543d
000000a0: 46ec df3c b437 ae3d 0b07 4e3c b311 34bd
000000b0: c7e2 10bd 9b7e 97bd fe72 82bd 225d 2fbd
000000c0: 9608 843d 23a2 9b3c 3466 2abd e66a 87bc
000000d0: 7e7b 7c3c b78a 8ebd 3dbb 70bc 2c65 83bd
000000e0: 7f7a ce3b b9a2 9dbc 7232 62bd 0baa b03c
000000f0: 6004 84bd 1319 24bd a016 16bd b773 c7bc
00000100: 1824 6dbc 7ff1 9e3c 9745 55bc aeb7 483d
00000110: 3247 ce3c f67e 1d3a 57d0 c0bb b367 a9bc
00000120: 7d7f a73b 7cfd 6fba 5d01 a43c 2768 253b
00000130: e25f 573d 8118 cb3b 4047 c1bc 9f05 86bb
00000140: 4c32 4cbc 89ee c6bb 52b4 b23c d96d 70bb
00000150: 0a00 a9bc 2731 7ebd 2dc1 42ba 37d2 753b
00000160: ab7d 0b3c f8a8 d5bc 2223 ccbb eae7 933b
00000170: 9abb 0ebb f840 d2bb d3da e4bb 455e 943c
00000180: 813c d2bc 6377 18bb e233 f1bb e7c8 40bc
00000190: b278 36bc df04 4a3c f077 93bc 299e f4bc
000001a0: 5f93 293c 9eab 54bd f2f6 90bd bf76 403d
000001b0: 094f 3a3d 6ca8 d83b b4d1 f8bb 08fd 6e3c
000001c0: d748 953c 37be 7a3c 7d07 7039 8e48 8bbc
000001d0: fa39 60bb 63a4 883d f01a 0e3c 6195 b9ba
000001e0: b858 0ebb 346a a53d 41c7 be3b 4b00 ee3b
000001f0: 9c8e 963b 8210 babc 5daa b63a fba0 653d
00000200: d50c ae3c b91b c73d 8403 b73d e1be 433d
00000210: c24a 2c3d dacd 96bc 08ff 3e3d b0b2 41bd
00000220: 7436 0d3d 37c9 8b3c 9b30 2cbc b2c8 ba3b
00000230: 682f cc3b da31 7a3c f67e 70b9 46b1 dfbc
00000240: 07af 073d 99e1 77bb 8710 8bbb ee50 393d
00000250: 7fb9 da3c ab6b 6bbd b8ff 423d 0b5d 2e3a
00000260: 1ed0 84ba 9c96 803c fc87 443d 96fa 6e3c
00000270: 4568 793d 06cc 403c 4452 11bd 12c9 a33c
00000280: b4f6 8c3d ef92 0bbd bb46 123d 8e47 b53c
00000290: fbcb 273d 6869 823c 4455 2e3d 21b8 1a3d
000002a0: 4876 3abd d83f ea3b 9f31 abbc 689a 9b3b
000002b0: 7725 bd3d a77c 9f3d 1fa2 55bc db0b 523d
000002c0: 2cdd 10ba 5f60 983c 7ef8 a23b 213f a0bc
000002d0: 3935 94bc 0d22 053e f4fa 1ebd a247 34bd
000002e0: d572 f0bb 74f8 aebd a52f 093e 86a4 903b
000002f0: 0a61 433d 06d3 fd3c 63ea 083d 5597 b83d
00000300: 2905 3fbc c914 0a3d 42c7 bc3b f63b 3a3d
00000310: f64b 2a3c 9443 d439 1586 00bc cd7b 07bc
00000320: 46ec a636 f582 f2ba ec97 ee3c 34ef 2e3c
00000330: 2692 5f3d f84d d1b9 9e18 ddbc 881b ac3a
00000340: f00e 69bc d9cc 07bb 2dbd b73c 110d d6b9
00000350: ee76 6fbc c8dc 6cbd c5b9 54bb b701 093c
00000360: 811d d23b c851 813b 9c91 a6bc 5f6a f0bb
00000370: c718 723c c605 f9ba 8398 21bd ff21 a63d
00000380: 3c88 02bd 0349 b03c 2827 fcbc 29cf 67bc
00000390: 1503 88bb fdfb 3a3c 298e 65bc 7855 41bc
000003a0: 2812 9f3c 803a 46bd 3f24 74bd ff87 d4bc
000003b0: 2e5b 26bc 2630 963b 9850 6bbc 0869 c6bb
000003c0: 20ad 593b 5b82 db3c ac12 5c3b b78f 76ba
000003d0: 8861 a93a 7b55 8b39 38be 293c 1b2e 0db9
000003e0: f416 2bbd 4b79 9a3d 6986 473c 599f d93c
000003f0: e18b fdb8 7a23 dabc 9341 263d 8c9e 903c
-0.00078963436 -0.024555022 -0.051778477 0.01420382 -0.0036745341 0.0049867565 -0.053124495 -0.0042687976
0.06002378 -0.024618628 -0.004751005 0.0053563835 -0.03473328 -0.028447017 0.04117424 0.044936005
0.064754814 -0.004172732 -0.0060803504 0.008931463 -0.013388348 0.01464778 0.041176736 0.04222052
0.0043529794 -0.016429909 0.0027761857 -0.043975905 -0.051953927 -0.0018969587 0.04125328 -0.09619794
0.06794576 -0.013314505 -0.025325676 -0.012077589 0.026951913 -0.036818825 0.023730792 0.051791795
0.027334344 0.08506718 0.012574921 -0.04396219 -0.03537252 -0.07397195 -0.06369589 -0.042813428
0.0644695 0.018998211 -0.041601375 -0.016530465 0.015410302 -0.069600515 -0.014693079 -0.064157814
0.0063012238 -0.019242631 -0.05522389 0.021565458 -0.06446147 -0.040062975 -0.03664267 -0.02434717
-0.014473937 0.019402264 -0.01301708 0.049003296 0.025180433 0.00060079934 -0.005884211 -0.02067933
0.0051116333 -0.00091548986 0.020020181 0.0025239082 0.052581675 0.0061979895 -0.023593545 -0.0040900256
-0.012463164 -0.006070916 0.021814499 -0.0036686568 -0.020629901 -0.062058594 -0.0007429298 0.003750933
0.008513848 -0.026081547 -0.006229774 0.0045137303 -0.00217793 -0.0064164363 -0.0069840937 0.018111357
-0.025663616 -0.002326452 -0.0073609212 -0.011766649 -0.011137174 0.012330263 -0.018001527 -0.029860573
0.010350077 -0.05192148 -0.07078351 0.046988245 0.04548553 0.0066118743 -0.007593358 0.014586695
0.01822321 0.01530414 0.00022890973 -0.01700237 -0.0034214244 0.06671979 0.008673415 -0.0014158898
-0.002172036 0.08076897 0.0058220928 0.0072632185 0.004594637 -0.02271295 0.001393627 0.056061726
0.021246353 0.097220846 0.089362174 0.04778946 0.042063482 -0.018408705 0.046629936 -0.04728955
0.03447576 0.01706372 -0.010509635 0.0057001943 0.006231237 0.015270675 -0.0002293548 -0.02730621
0.033125903 -0.0037823676 -0.0042439136 0.045243196 0.02669978 -0.057475727 0.047607154 0.0006651438
-0.0010132825 0.015696816 0.047981247 0.0145861115 0.060890455 0.011767393 -0.035478845 0.019993339
0.068829924 -0.034075674 0.035711985 0.022128846 0.040966015 0.015919402 0.042561784 0.037773255
-0.045522958 0.007148724 -0.020897685 0.0047486313 0.092356615 0.077874474 -0.013039141 0.051280838
-0.0005526121 0.01860064 0.0049734702 -0.019561352 -0.018091785 0.1300127 -0.038813546 -0.044013627
-0.007337908 -0.085434824 0.13397081 0.004414144 0.047699966 0.030984413 0.033426654 0.09013239
-0.011658945 0.03371123 0.005761058 0.04546734 0.010394087 0.0004048614 -0.007844468 -0.0082692625
4.9746914e-06 -0.0018502163 0.029125176 0.010677148 0.054582737 -0.00039921678 -0.026989277 0.0013130764
-0.014224753 -0.0020721464 0.022429073 -0.00040826996 -0.014615757 -0.05782774 -0.003245936 0.008362225
0.0064122085 0.0039465167 -0.020333104 -0.007336899 0.014776415 -0.0018998913 -0.039452087 0.08111953
-0.031868204 0.02151919 -0.03078039 -0.014148512 -0.004150758 0.011412618 -0.014010944 -0.0118001625
0.019417837 -0.048395634 -0.05960488 -0.025943754 -0.010153575 0.0045833765 -0.014362477 -0.006055001
0.0033214763 0.026795557 0.0033580465 -0.00094055705 0.0012922743 0.00026575834 0.010360293 -0.00013463983
-0.041769937 0.07542666 0.012178042 0.02656524 -0.000120900346 -0.026628245 0.04058988 0.017653726

lstm.bias_ih_l1 f4 [256]
00000000: 68ec 19bd 6503 413d 63fe a1bc 9108 953d
00000010: adf9 baba 174a 45bd f0a3 16bc 93f1 2c3c
00000020: 45df 653d 378d 3cbd ad1a b2bd 3d9a 393d
00000030: c175 cfbd fa0e e33a 423a 9cbc c651 3b3d
00000040: 9172 8dbc 0ccc febc 5543 8b3c 7580 e83d
00000050: 7f4d ccbd 4acb 75bd b63a 523d 5df8 38bc
00000060: 4b35 04bd 874b 893d f339 643d 87b6 a33c
00000070: f8a1 2e3d fd91 0abd ceb6 5fbb 5afe 943d
00000080: 3749 12bd 8003 523d 2c65 abbc b4f1 9bbd
00000090: 71fa a2bd 84c3 823c 1002 9a3d 1988 89bd
000000a0: a6cf 60bc a02b 4a3d 3d0e 953d b054 383d
000000b0: 52fc 413d dd54 313c 7780 6b3d 4c89 d63c
000000c0: 87fc 6fbd 73d8 b3bd 9e92 a4bc 27f7 6d3d
000000d0: 3fa9 a1bd 1dda abbc 6387 22bd eb5e b03d
000000e0: 34d2 80bd 8ba7 fe3c c82c 0c3d dbea c3bd
000000f0: b213 7bbd 8189 aabd f530 b63d e712 06bd
00000100: 1231 a43d 2d67 7f3d 98c4 253e 0bdd 0b3e
00000110: 3d5a 4d3d 5557 8cbc 8194 dbbc 64d2 77bc
00000120: 4847 9ebd c52b efb9 2e27 d1bd 3324 6c3d
00000130: 4eea 813a c13f e23d 2098 a43d fe9f a13d
00000140: 1059 b73c 8409 2a3d 1c0e 463c caa3 b23d
00000150: 3f0c 9d3d 0d9d d83a ca20 c6bc 06fb 5d3c
00000160: 7aab 8b3d 0c0a 143d 9c61 233d f355 243c
00000170: 7e6c 043e eb2d 68bc b4d6 94bc 244f ae3d
00000180: 7337 8bbd 73fe c53d e2d0 c33d 067c c93c
00000190: d31c 363d d9e4 0d3e aa33 c83b 219b c1bb
000001a0: c465 ff3c 3094 d4bc ede3 97bd a048 bebd
000001b0: cabb f53d 5396 993d ada7 7cbd 436e 543c
000001c0: 5d34 94bd 0a56 c4bd a600 ba3d 72c9 b03d
000001d0: caa6 9dbc 66d1 f83d 7125 833d e32b 9e3d
000001e0: c2d8 773d 5617 113d 4e28 153d 2e60 64bc
000001f0: be2d 4dbd 3d3d 2ebd 559e 5b3d e4c8 a73d
00000200: feff 993c 574d 57bd e8eb 843b 3b25 7b3d
00000210: c6b2 063d e9e9 413d da44 43bd c958 373d
00000220: 1c17 62bd d5b0 893d ee77 2ebd 1468 03be
00000230: b0dd ca3d 6ab8 ab3d a88b acbc 7720 edbd
00000240: 35bb 88bd 6076 d03d d637 2cbd a22e 7d3c
00000250: f666 74bd 13c4 8d3d 4db4 eabc ac10 713d
00000260: 03b6 47bd 0322 b6bb 9f4a a13d 622d d1bd
00000270: dcbb d13d 260f 1e3d 3110 643d 6781 0ebd
00000280: 69f4 a23d b95a bbbb 0ea1 ae3c ef0e 9ebd
00000290: 45e3 fbbd 80dc 8d3d e2d8 c4bd 8f11 81bd
000002a0: 5295 ea3d 8fb0 b13d 9b9d 903d 32a3 123e
000002b0: 4e78 653d d544 44bc 592a 8ebd 1c10 f23c
000002c0: 40b3 ed3d bb24 e13d cbc7 aebc b7e8 5a3c
000002d0: 0da0 adbd 55af 073d 7491 fc3d e8e0 96bd
000002e0: d65b fdbd 3f1d bf3d 806b dd3d 1119 95bc
000002f0: faf6 c53d c42d 44bd 731f eb3d 9b08 54bd
00000300: 9b01 193d f560 c33d 3755 c43d e51a 66bc
00000310: da50 243d e5a2 4cbc fcb9 523d 4932 273d
00000320: f7be 5bbd 129c 453d 001b 9cbd 806b 6fbd
00000330: 1c43 323d c2d1 c93d ae20 633d 1212 4b3d
00000340: 209b 303d cad8 c3bd b9be 093c c7ca a3bd
00000350: f40b bebc 6ae9 023d 3fa3 3f3d 451c f6bc
00000360: b44c c0bc 09ea 463c 60f4 8dbd 796a 883d
00000370: b1d7 303c 4901 8d3c 8cff cdbd 0009 e03a
00000380: 1639 1fbd 2909 18bd d59a 363c 4d50 bd3c
00000390: fff0 123d 9a23 023c 2811 083d 32cc 9fbd
000003a0: d934 e3bd dd97 1dbc 3c87 8ebd aa82 523d
000003b0: 1dcf 223c ad36 dd3d 91a5 ef3c b70a 9cbd
000003c0: 7209 bbbc e295 8abc 7e6b 5d3d b0c6 1dbd
000003d0: f7de 9d3d 2bec b8bc 641b b2bd 4abd 9fbd
000003e0: 4505 9a3c 4e15 e73d 1457 1d3e fae0 da3d
000003f0: 2630 883d 0309 81bc 642c 7abc 266c 03bd
-0.03757897 0.047122378 -0.019774621 0.072770245 -0.0014265083 -0.04816636 -0.009194359 0.010555643
0.05612113 -0.04603311 -0.08696494 0.04531311 -0.10129882 0.0017323189 -0.019070748 0.045732282
-0.017266544 -0.031103157 0.01699988 0.11352626 -0.09975719 -0.060008325 0.051325522 -0.011289683
-0.032277387 0.06703859 0.055719327 0.019984497 0.042634934 -0.03383063 -0.003413606 0.07275076
-0.035714354 0.05127287 -0.020922266 -0.076144606 -0.07957924 0.01596237 0.07519925 -0.06715412
-0.013721382 0.04935801 0.07278106 0.04500264 0.047359772 0.010823456 0.05749556 0.026188515
-0.05859044 -0.08781519 -0.020089444 0.05809703 -0.07893609 -0.020978028 -0.039679896 0.08611854
-0.06290093 0.03108575 0.034222394 -0.095662795 -0.06129808 -0.08327008 0.088960566 -0.03273287
0.08017172 0.062354255 0.16188276 0.1365854 0.050134886 -0.017131487 -0.02680421 -0.015125845
-0.077284396 -0.00045618243 -0.10212551 0.05765171 0.0009911747 0.11047316 0.08036828 0.07891844
0.022381335 0.04151298 0.012088325 0.087226465 0.076683514 0.0016526297 -0.024185557 0.013548618
0.06819816 0.036142394 0.03988801 0.0100302575 0.12932011 -0.014171104 -0.018168785 0.085111886
-0.067976855 0.09667673 0.095613256 0.024595272 0.044461083 0.1385683 0.0061096745 -0.0059083854
0.031176455 -0.025949568 -0.0741652 -0.09291196 0.119987085 0.07499375 -0.061683346 0.012965742
-0.0723655 -0.09586723 0.09082155 0.08632173 -0.01924457 0.121493146 0.06403626 0.077232145
0.06050945 0.035422646 0.03641539 -0.013938947 -0.05009245 -0.04253887 0.053617794 0.08192614
0.018798824 -0.05256399 0.0040564425 0.061314803 0.032885335 0.047342215 -0.047673084 0.044762406
-0.05519782 0.06723181 -0.042594843 -0.12832671 0.09905565 0.083847836 -0.021062687 -0.11578458
-0.06676332 0.10178828 -0.042045437 0.015453013 -0.059668504 0.06922164 -0.028650427 0.05885379
-0.048757564 -0.0055582537 0.07875561 -0.10213734 0.102409095 0.038588665 0.055679504 -0.034791376
0.07956774 -0.005717602 0.021317031 -0.07717692 -0.122992076 0.06926823 -0.096116796 -0.06302177
0.11454262 0.08676254 0.07061311 0.14320067 0.056022935 -0.011979301 -0.06941671 0.029548697
0.11606455 0.10993334 -0.021335503 0.013361148 -0.08477793 0.033126194 0.123324305 -0.07367116
-0.12371032 0.0933175 0.108115196 -0.01820043 0.09666248 -0.047895208 0.11480608 -0.05176602
0.037355047 0.095399775 0.09586566 -0.014044498 0.04011617 -0.012490009 0.0514469 0.04081944
-0.053648915 0.048244543 -0.07622337 -0.05845213 0.04352103 0.09854461 0.055451088 0.04957778
0.04311669 -0.095628336 0.008407288 -0.07997661 -0.02319906 0.031960882 0.046786543 -0.030042777
-0.023474075 0.012140759 -0.069313765 0.06660933 0.010793612 0.017212527 -0.10058507 0.0017092526
-0.0388728 -0.03711811 0.011145313 0.02310958 0.035874363 0.007943058 0.033219486 -0.07802619
-0.11094064 -0.009618727 -0.06959388 0.051394142 0.009937075 0.10801444 0.029253753 -0.07619231
-0.022831652 -0.016917173 0.05405759 -0.03851956 0.07708543 -0.022573551 -0.086966306 -0.07799776
0.01880134 0.112833604 0.15365249 0.10687442 0.066498086 -0.015751367 -0.015269373 -0.03208556
