.checkpoints/attention_lstm_best_model.pt (torch, 374396 bytes, 16 tensors)

lstm.weight_ih_l0 f4 [256, 19]
00000000: fc0c 31bc e4f1 7fbc f8e9 a23a e3be 32bd
00000010: 5fe5 f03b e0f7 88bc a848 92bd d5dd a5bd
00000020: 7df4 cbbd 8346 d2bc 07e9 85bc dbe6 37bb
00000030: f625 87bc 4ed2 d83c c5b9 2abd ccfd a2bd
00000040: 21aa c4bc 75d7 05bd a7d5 56bd a1c9 a93d
00000050: 1bf1 3b3d 1f13 5d3d bfe2 dc3d 2edc 623d
00000060: cc40 59bc d46c 713d b91b 92bc 7cee 3e3d
00000070: e773 bf3b 9cf4 de3b f082 a8bd b4bd f73d
00000080: 05c9 c5bd 1e61 493d 786e 05bb f6c7 8f3d
00000090: 3b35 7d3d 2a49 2cbd 4b73 2a3b fc9c e6bd
000000a0: 9206 0e3d b19d 87bc 4289 9d3b 996e 683c
000000b0: 890b 26bd 23f0 06bd 58a5 61bd 2380 033d
000000c0: 9d86 ac3b 08ea 28bd c0e1 fdbc ba83 6abd
000000d0: eda7 8bbc 9c71 9dbd 1ede aebd 06cb 8fbc
000000e0: a748 39bc 5210 283b 0d5d 30bc ca7e 07bc
000000f0: feea 35bc 2810 88bc 5630 a1bc ece2 10bc
00000100: f94d 35bc 8087 f2bb fd3d 70bc 4fab 4ebc
00000110: 1719 dabb 5b59 1bbc be96 de3b 8fcb de3b
00000120: 5c3e b0bb c26a 63bc 881e eabc 2fcb 0d3a
00000130: 90ee 08be 8168 00be e279 d43c 986f 1ebe
00000140: 5143 e9bc c430 b0bd 10bd e93c 0c7a dabd
00000150: 4fef 6e3c 3f34 06be a050 22be 2f4d 0cbe
00000160: 42e1 24be d77c a03c c20a 38bd b2e6 44bd
00000170: 1e5b 70bd eca4 67bd ba6b 86bc b6a1 41bd
00000180: 4134 d23c 7f82 0a3d 74d3 823d 8ecd 21bd
00000190: 5da0 563c c731 cbbc 2fe4 b2bc 2e7e 1c3b
000001a0: 9fc0 753d be88 9e3d 8c54 c6bc 1608 573c
000001b0: 5a39 133d 884f d3bc 19af 9fbc e407 a1bd
000001c0: 078b 613c c7f8 11bd 66f7 23bd ad9e c0bd
000001d0: a58c 1dbe ef51 8abd aad1 32bd 45f3 cb3c
000001e0: 126a cd3d 2ef3 b13d 675e 023d b6b3 c43d
000001f0: 613b edbd 8cc7 8bbd 8738 1abe ac85 9e3d
00000200: 58a0 bdbd 5cd3 06be 08e9 11be a090 03bd
00000210: 7d6a 4d3d 7b78 093d 46cd 9c3c 0912 bd3c
00000220: a37c ed3c 3e5d 5abd addf d2bb 8261 c73c
00000230: e2ce 563d fe33 0c3c 7280 3a3d 3be3 0fbd
00000240: 1ce1 b33d dc35 733d c249 01bd 60f6 2cbd
00000250: 18ba 7d3d 8fd9 b63c 329e 64bd 7861 46bd
00000260: 7fb0 023b 3f39 7f3d 0f9d 6f3d 8c9a a83d
00000270: 5284 7d3d 4988 873d e1eb a5bc b150 d03d
00000280: 99f5 7e3d 9e87 993c 0ddf 2ebc 5c61 08bd
00000290: 05b1 b0ba 5bdc efbc ab6e f73d 829a 6f3d
000002a0: 4259 6c3b af57 e83d 8270 99bc be7c 86bc
000002b0: 29ad a93d 631c d23d eaa3 92b8 2fda a13d
000002c0: 62be e9bc 0548 a43d 5842 c7bc eb1e 993d
000002d0: 414a aa3d 7226 ab3d 366a 33bd aca8 323d
000002e0: 823a 533d dbe7 e13d de57 fdbc 4148 983d
000002f0: f3b0 59bd 3869 b3bc 37e8 783d 412d e83b
00000300: 8e74 9ebb dcc1 903d 9ce2 3cbc f4f1 f53c
00000310: 1e46 5b3b 412f 753d 0063 8b3d e37b 9d3d
00000320: 25e2 603d 4f69 5dba 5c76 c63d c445 e53c
00000330: 34e3 76bc 2e57 c0bc 2ddd 8fba 605e 813c
00000340: 6b2f ad3c c8a3 01be 527f 43bd eb6d c53d
00000350: 70f7 953d 7bc2 70bd 0623 fbbd b34e 803d
00000360: 01e5 c4bc 3f66 c1bc cb6d 6d3d c9ad 223c
00000370: 405c a5bd 50e3 b6bd a76f 693c 0812 973c
00000380: b6dd a3bd b5dd 21bd 575a 123d 45b5 bfbd
00000390: 48ca bc3c 7ac7 e23c 82e2 ea3c 6100 e03c
000003a0: e226 bf3c 75be e53c 3d39 c53c d0b6 d63c
000003b0: ebfc d33c 00f6 c73c 1d88 9d3c c14a 903c
000003c0: f9a5 db3c e0ee e83c cea9 f03c 2aa7 bd3c
000003d0: d0d9 053d 5d37 063d 431b a93c c966 8c3c
000003e0: 4eac a13c d716 b53c 1e9d 943c 6815 7c3c
000003f0: d83a ac3c ea3f 2a3c e315 963c bf9d 883c
-0.010806318 -0.015621636 0.0012429347 -0.043639075 0.007351562 -0.016719759 -0.07142764 -0.08098952
-0.09958742 -0.025668388 -0.016346468 -0.0028061185 -0.016497593 0.026467469 -0.04168107 -0.07958564
-0.024006905 -0.03267618 -0.05244985 0.08290411 0.045884233 0.053973313 0.10785436 0.05538576
-0.013260078 0.058941677 -0.017835485 0.046614155 0.005842674 0.006804062 -0.08228099 0.1209673
-0.09657482 0.049164884 -0.0020360034 0.070205614 0.061818343 -0.042061962 0.0026008661 -0.11260411
0.034674235 -0.016554685 0.004807622 0.014186525 -0.040538345 -0.032943856 -0.055089325 0.032104623
0.0052650706 -0.041238815 -0.030991435 -0.05725453 -0.017047847 -0.07687685 -0.08538459 -0.017552864
-0.011308826 0.0025644493 -0.010764373 -0.008269975 -0.01110339 -0.016609266 -0.019676369 -0.008843165
-0.011065953 -0.0074014068 -0.014663217 -0.012614085 -0.006655823 -0.009481753 0.006792872 0.0067991684
-0.0053785276 -0.0138804335 -0.028579012 0.0005409 -0.13372254 -0.12539865 0.025937025 -0.15472257
-0.028474482 -0.08603051 0.028532535 -0.1066781 0.014583423 -0.13105868 -0.15851068 -0.13701318
-0.16101554 0.019590778 -0.044932134 -0.04807157 -0.058680646 -0.056553766 -0.01640879 -0.04727336
0.025659682 0.033815857 0.06387988 -0.039502673 0.013099757 -0.02480401 -0.021837322 0.002387892
0.05999815 0.07740925 -0.024210237 0.013124486 0.035943367 -0.02579476 -0.019492673 -0.07862833
0.013766057 -0.035637643 -0.04003086 -0.09405265 -0.15385683 -0.06753909 -0.043656982 0.024896273
0.10029997 0.08688961 0.03182831 0.0960459 -0.11583591 -0.0682517 -0.15060626 0.0774034
-0.09259099 -0.13166565 -0.1424905 -0.032120347 0.050150383 0.033562165 0.01914085 0.023079889
0.028990095 -0.05331158 -0.0064353556 0.024338488 0.052443393 0.008557318 0.04553265 -0.035128813
0.087831706 0.059377536 -0.03156448 -0.04222715 0.06194505 0.022320537 -0.05581493 -0.048432797
0.0019941626 0.062310454 0.058499392 0.082326025 0.06189377 0.06617791 -0.020254077 0.10171641
0.06224594 0.018741425 -0.010673297 -0.033295974 -0.001348049 -0.029279878 0.12081655 0.05849696
0.0036063944 0.11344849 -0.018730406 -0.016416904 0.08284981 0.102593206 -6.992354e-05 0.07902943
-0.028533164 0.08021549 -0.024323627 0.074766 0.08314944 0.08356942 -0.043802463 0.04361789
0.05156947 0.11030551 -0.030925687 0.07435656 -0.053147268 -0.021900758 0.060768332 0.007085473
-0.0048356717 0.07068226 -0.011528637 0.030022599 0.003345854 0.059859518 0.06805992 0.07689645
0.05490317 -0.0008446173 0.09690544 0.027987368 -0.015068818 -0.02347907 -0.001097595 0.015792072
0.021140775 -0.12660134 -0.047728844 0.09640106 0.073225856 -0.05877922 -0.122625396 0.06265011
-0.024034979 -0.023608325 0.057966035 0.009929129 -0.08074236 -0.08930075 0.014247811 0.018441215
-0.080012724 -0.039518077 0.035730686 -0.09360746 0.023045674 0.027683008 0.02867246 0.02734393
0.02333397 0.028044919 0.024075145 0.026210219 0.025877437 0.024409294 0.019229943 0.01761377
0.02681254 0.028434217 0.029377844 0.023151 0.032678425 0.032767642 0.020642882 0.017138856
0.019735482 0.022105617 0.018141326 0.015385963 0.021024153 0.010391215 0.018320983 0.016676782

lstm.weight_hh_l0 f4 [256, 64]
00000000: 63e3 f23b 5449 6e3c e07f 963a 2885 363c
00000010: a1ba 333b b65c f4bc f191 893c e55d 32bc
00000020: fa7f bfbc 45fe fcbb 5764 663c 943c 93bb
00000030: d2cb 953c f6f1 f53c 4cca 5b3b 9a9f 8cbc
00000040: f279 17bd a095 613c 8560 eabb c698 0ebc
00000050: df3c 763b b466 313d 5555 933c 06bf 0eba
00000060: 5986 ba3c 6e52 043c d65d 43bc 2318 b8bb
00000070: 7efe 33bc 6e0f a1bc 6e7a 9e3c 1b4c d73c
00000080: c811 61bc 5b79 be3c 61bc 3abc 69b5 913b
00000090: c12e 0fbc 0b4e acbc 6eb7 59bb 88bc adbc
000000a0: d5af 4d3d 8b86 2a3c d658 b13b c2fa 4dbd
000000b0: 2bf1 4fbc a762 813c 3922 9e3b 0535 3cbc
000000c0: 9bd3 01bc e485 5abc 52a1 39bb 101a 313c
000000d0: 8a54 bd3c 2db9 20bd af71 12bb 95cb 1e3b
000000e0: 3a41 6c3a 5774 8239 5123 5a3c 9b4a 5b3c
000000f0: 491b aa3a d56e 44bc c666 17bc c3ca 373b
00000100: 0d3f e93c 5052 2ebc b82b dc3c 9834 60ba
00000110: 9b97 d33a 88f9 103c efd4 853d 783b 66bc
00000120: 8f3b f5bc 6965 88bc 51f6 0f3d a579 163d
00000130: 3227 4d3d 07ba 8cbb 0ae8 893d c990 aa3d
00000140: d0c0 b23c c883 4f3c 8d2f 89bb 877d 04bc
00000150: 5e41 2cbd e371 77bb 18b4 e23c a89f 29b8
00000160: 0b3f a93d 8e47 09bb cd4b 193c 5e4f 343d
00000170: 7c0c aa3c b0e4 62bc f48e 0c3d 7676 083c
00000180: 397b 19bd a299 2dba 1824 80bc d618 0f3d
00000190: d68d f6bb 63ab 58ba 33b0 05bd 8f70 473d
000001a0: 8516 9dbd 7cee 063d df79 e03c 57a8 9abd
000001b0: 804e 10bd c005 d63c f2b7 14bd 386e 9ebb
000001c0: a46b 0c3d 4810 eabb 7578 b639 f3ff 69bc
000001d0: 1445 203c f800 c8bd 047a 34b8 ba0d 3638
000001e0: c153 3638 00b1 c83a 3826 1a3d dc4e e73c
000001f0: ec3f 20bd fdd6 3fbc e884 eabc 28b5 803c
00000200: 8c5c 31bd e539 f9bc 4296 8fbd 0359 7cbb
00000210: 702b e23a 871b 47bb df89 c8bc 7851 003d
00000220: 693d 123b 7ba8 f43c 1025 09bd 7148 d8bd
00000230: 1801 31bd b25b 7d3d 2bea 4abd 18a3 5cbd
00000240: 6073 97bd 7b7e bc3c b188 b53c bac0 9d3c
00000250: 6818 4f3d 9323 d83c 3afd ecbb 3f97 3dba
00000260: 726d 94bc 9e70 f6bc 418f b43c 720e 08bd
00000270: 2c18 683d 47b1 af3b b1d6 e2bc 904c 583a
00000280: 8eed 053d accb d23c 571a 153d d8a1 653b
00000290: 2a09 b9bb bc44 43bc f082 2d3d a12e fdbc
000002a0: b917 bf3d e010 f7bc e38c 7bbc 5d44 42bd
000002b0: 3fad 193d c584 d23a 2cc7 3c3e 76e5 6f3a
000002c0: f06c f6bb d3d2 4b38 23c4 c3ba 87f8 f0bb
000002d0: 89af 01bc 337d a8bc 28d6 c9ba 874f d33a
000002e0: 0faa df39 4911 243c c779 0abd d3dd 0cbd
000002f0: 808d 053e d608 0abb 0ae4 303d 4f65 d5bb
00000300: a651 623b ae2d 563a df9f ff3a aee2 4cbb
00000310: 445b 1938 825f ca3b 4d5a 423c 8215 d63a
00000320: c827 3dbb f20b a839 b3d9 1fba fa7b 153b
00000330: bfb9 bb3b f99c c3bb 2baf b33b 1e2d 5a3c
00000340: 7406 003c 5ec5 d33b 1073 e5ba 12cd 8c3a
00000350: 201e 13bb e8e7 b73a 3ada 0838 0785 87bb
00000360: 0ad9 483b 12e3 5fbc 788b 25bc ce0c 713b
00000370: 9f03 07bb 2ee2 c8bb 5cf4 0c3b cecf 3d3b
00000380: 0679 043b 22cc 2eba 754f f339 6058 9b3b
00000390: 9fc0 c73a 25c9 25bb c2b8 e1bb 20f1 a63b
000003a0: 1ecc 9cbc dcde 4739 3eeb 2d3b d054 ff3a
000003b0: d2e3 f239 d686 19bb ea4f 723c 9534 d13a
000003c0: bf36 cc3b db47 83bb 1f3c 91b9 24c9 6dba
000003d0: 64c9 31bc cf42 9bbb 18a2 87bb b330 873b
000003e0: 1297 873b 4391 24bb 6177 ceba a956 91b9
000003f0: 699c 17bb 820a 0abb 0323 04bb 029a d63b
0.0074123605 0.01454385 0.0011482202 0.011140145 0.0027424472 -0.029829364 0.016793223 -0.010886644
-0.023376454 -0.007720741 0.014062009 -0.0044933055 0.018285666 0.030022603 0.0033537326 -0.017165948
-0.03698153 0.013768584 -0.0071526193 -0.008703416 0.0037572903 0.043310836 0.017985025 -0.0005445335
0.02276914 0.008076293 -0.011924228 -0.0056181117 -0.010985969 -0.019660678 0.019345488 0.026281407
-0.01373715 0.023251226 -0.011397452 0.0044466746 -0.008739174 -0.021033308 -0.0033220905 -0.021208063
0.050216515 0.010408054 0.0054122014 -0.05028797 -0.012691776 0.015794111 0.004825857 -0.01148725
-0.007923986 -0.013337586 -0.0028324914 0.010809436 0.0231116 -0.039239097 -0.0022345593 0.002423023
0.0009012405 0.00024882212 0.013314084 0.013384487 0.0012978102 -0.011989315 -0.009240812 0.002804444
0.028472448 -0.010639742 0.026876315 -0.0008552759 0.0016143204 0.008848555 0.065347545 -0.014052264
-0.029935626 -0.016649919 0.035147015 0.036737103 0.050086208 -0.004294637 0.06733711 0.08328397
0.021820456 0.012665696 -0.0041865767 -0.008086569 -0.042054527 -0.003775709 0.027673766 -4.044143e-05
0.082639776 -0.002094719 0.009356451 0.044021003 0.020757906 -0.013848469 0.03431602 0.008329025
-0.03747103 -0.00066223193 -0.01564221 0.034935795 -0.0075242324 -0.00082652847 -0.03263874 0.04869133
-0.07670311 0.03294228 0.027401863 -0.075516395 -0.035231113 0.026125789 -0.036308236 -0.0048349164
0.03428234 -0.007143054 0.00034803493 -0.014282214 0.0097820945 -0.0976581 -4.302898e-05 4.3404965e-05
4.3470183e-05 0.0015311539 0.037634104 0.028235845 -0.03912346 -0.011708972 -0.028627828 0.015711382
-0.04330115 -0.030423114 -0.07011081 -0.0038505204 0.0017255377 -0.0030381398 -0.024479805 0.031327695
0.0022314435 0.029865494 -0.03348261 -0.10560692 -0.043213934 0.061855026 -0.049539726 -0.053866476
-0.07395053 0.02300953 0.022159906 0.019256938 0.050560385 0.02638415 -0.0072323354 -0.0007232315
-0.018118594 -0.030082997 0.022040965 -0.0332169 0.056663677 0.0053617093 -0.027690263 0.0008251155
0.032697253 0.025731884 0.036402073 0.0035039093 -0.0056468444 -0.011918243 0.0423612 -0.030906023
0.093306966 -0.030159414 -0.015353414 -0.047428478 0.037518736 0.0016061297 0.18435353 0.0009151319
-0.0075203106 4.8595317e-05 -0.0014935773 -0.0073538455 -0.007915386 -0.020567512 -0.0015398907 0.0016121723
0.00042660578 0.010013887 -0.033807542 -0.034391236 0.13042259 -0.0021062396 0.043186225 -0.006512321
0.003453353 0.0008170259 0.0019502601 -0.0031263041 3.656304e-05 0.006175936 0.01186235 0.0016333314
-0.0028862823 0.00032052357 -0.00060978084 0.0022809491 0.00572893 -0.0059696403 0.005483528 0.013316421
0.007814039 0.006462737 -0.0017505605 0.0010742268 -0.0022448376 0.0014030905 3.2628166e-05 -0.004135731
0.0030646943 -0.013664978 -0.010104053 0.0036781314 -0.0020601524 -0.0061304783 0.0021507954 0.0028962973
0.0020213737 -0.00066679914 0.00046407772 0.0047407597 0.0015239901 -0.0025296893 -0.00688848 0.0050946623
-0.0191403 0.0001906114 0.002653792 0.0019480232 0.00046327576 -0.0023426316 0.014789561 0.0015961105
0.006232112 -0.0040063686 -0.0002770135 -0.0009070805 -0.010851238 -0.004738189 -0.004139196 0.0041256784
0.004137882 -0.0025110997 -0.001575213 -0.00027721122 -0.0023134 -0.0021063392 -0.002016247 0.006549121

lstm.bias_ih_l0 f4 [256]
00000000: baae 98bc 65f2 17bd 8a41 173c 4821 043c
00000010: 6eff 29bd f778 f3bc 0f7c a83d 0050 35bc
00000020: eb02 b33a 2f0c 133c cc07 b33a 29e7 fa3c
00000030: 3272 c8ba 4032 4fba 8a90 2dbc a188 2e3d
00000040: 45f2 0a3c 0e8e c03d c511 003a 6aab 72bb
00000050: 9d65 ab3d 2868 99ba 9a0b e4bc 3247 003b
00000060: 4846 b7bd 96d2 983c 5ffc 92ba 12db f83d
00000070: a035 71bc 0260 e2bb 6503 543d a171 f4ba
00000080: 80fd 21bc 6cfc 5a39 425f 5e3c 15d1 943c
00000090: d86b 253b 65a9 ae3d cdb7 23bc 743c 8abb
000000a0: 0304 cd3b c0d5 123c ac68 3abb 7534 ee3b
000000b0: eab4 033c b3ba e8bc 7e60 c5ba 0f22 acbc
000000c0: 896b ad3c bf70 173d 8aa2 fabc 08b4 c4bc
000000d0: bd3f 963d 009c 053e be80 033a 91eb 223a
000000e0: 1e71 d73b e42a 09bb c887 15bd 5687 10bd
000000f0: a911 b53d 8f08 2fbb 5b48 73bc e1b0 b73d
00000100: 25f8 693d 5b33 393d ac56 903b 89ab a339
00000110: 555f 653d bdb3 273b 1b06 35bb 4642 d03b
00000120: cb95 60bb 4afb a5bc 0ab9 a53b 6c17 b4ba
00000130: 97a0 d938 259c 4eba 8536 04bc 95ee 6e3d
00000140: 6e55 cd3d 8756 4abd c9c0 f33a 4bf1 92ba
00000150: 78a7 c6bb fa0d 153a 230a 143c ad85 9db9
00000160: 4345 203e ae6b 823d c88f 393e bebc de3c
00000170: da4a bebc e838 3abb cc1f 043e d24b 253b
00000180: ba6e b8bb f8cc 4e3b 884b 16ba 27d6 32b4
00000190: 8a44 c039 71d3 3ebc 875f 943a 13b4 b6bb
000001a0: e1fc 913d ecd6 49bd c830 d6ba dd94 4f3d
000001b0: ca86 c7bb b74b 52bc db4f 623d fa90 3dbc
000001c0: 718f 013e d8f8 24bd 7afa debc fbf3 613c
000001d0: 7c36 0f3e 68a0 b53b ecc1 373b c821 513b
000001e0: 23b1 2a3b 8521 c23a 54b7 d5bc 1dc2 c4bb
000001f0: 249a 0d3d 0e67 323b b843 ca3c 5ae4 9bbd
00000200: d3dd bebc 60b1 b13d 9cfd 7d3c ef66 a43c
00000210: eda8 f4bb ff79 b2bc ad12 3cbd e78f f13c
00000220: 4d8a 203b 6d9f cc3c c5c3 28ba c7e3 cbbd
00000230: 77d5 80bb 20fa 3a3c c270 c63b 598d 7b3d
00000240: 8eba e5bb fc3b 2d3b af6e a73d 7b68 ddba
00000250: 116e 103b da37 23bc 4f94 c53a b4f5 b3ba
00000260: b2a5 e1ba f054 163d 56ea b4bc dd11 d13c
00000270: bd8c 8dbc b1f2 d7bb b57e 15bb 63b1 1ebb
00000280: 8608 1ebc 81d9 823a 4928 0a3d 6c84 10ba
00000290: c6d6 663c bd38 393c cf10 f0ba b31a b6bc
000002a0: d934 ffbd 04af f33a 3af5 b1bb 2f45 0a3d
000002b0: 6a2c afbb b5e5 4fbc 358b 13bd da02 e3bd
000002c0: 5315 f6bd 700b 8dbc 3d8f d53c 6a0d 50ba
000002d0: 904d b73b 8d81 c8bb 321a 0437 05fe d5ba
000002e0: dd0c c23c 3f0e b73c dc63 aebc 0fe9 36bc
000002f0: 2a1b 87b9 dea7 f83a a27e dc3c 4619 813c
00000300: 4b96 1f3a 571e a23b 5f37 65bd d88f 8cbd
00000310: 6282 863a d765 693c 06c7 8cbb 4f82 643b
00000320: b204 19bd 1463 f33b c66b 6d3d 7346 2c3c
00000330: f702 393e d93f fdbc b57c 243e df1f a3bc
00000340: 4271 863c 0724 a2bc 4e0b 883d 9a62 3ebc
00000350: 2840 7d3c d891 4a3d 82b1 b73b 700b 1b3c
00000360: 88f0 053c db97 e43c 555a d03b 891e 26bb
00000370: 48dc 86bc 8b79 1e3e 0f9c b1bb fa66 223e
00000380: a438 d0bc c1f8 99bc 79e6 97ba 6944 0fbd
00000390: d558 a0bd ed6b 9f3d 1f4a 053e 847e 853c
000003a0: e993 653d 6149 f43a e55f bd3d e142 063b
000003b0: 767d 0d3d a3cc b63d 7325 1c3d c803 8abd
000003c0: 2e21 6b3d fa79 94bc 433f 21bd 2a8a a03d
000003d0: bd78 89bc 2621 403c 9ff0 4c3b 595c 4d3b
000003e0: 8c61 f83b 7bdf 4abd 83a7 863c a622 19bd
000003f0: ff30 d23c 1fe7 063e fb2e 4a3d 2e6d c8bb
-0.018638004 -0.0370964 0.009231934 0.0080645755 -0.041503362 -0.029720766 0.08226787 -0.011066437
0.0013657486 0.008975073 0.001365894 0.030627804 -0.0015292822 -0.0007903911 -0.010593543 0.04261077
0.008480613 0.09402095 0.00048854604 -0.003702844 0.083689906 -0.0011704015 -0.027837563 0.0019573686
-0.08948952 0.018655103 -0.0011214128 0.12151159 -0.014722258 -0.0069084177 0.05176105 -0.0018649587
-0.009887099 0.00020884135 0.013572516 0.018166104 0.0025241282 0.08528403 -0.009992552 -0.0042186324
0.0062565817 0.008962095 -0.0028443737 0.007269437 0.008038739 -0.028409338 -0.0015058664 -0.021012334
0.02116944 0.036972757 -0.030595083 -0.024011627 0.07336376 0.1304779 0.00050164375 0.00062149117
0.006574764 -0.0020930106 -0.036506444 -0.035285316 0.08841259 -0.0026707982 -0.014848794 0.08969284
0.057121415 0.045214992 0.0044048633 0.00031217586 0.05599912 0.002558931 -0.0027622047 0.0063555567
-0.003426897 -0.020261426 0.0050574588 -0.001373989 0.000103772785 -0.0007881544 -0.008069639 0.058333
0.1002606 -0.049398925 0.0018596883 -0.0011210827 -0.0060624443 0.00056859816 0.00903562 -0.0003004497
0.15651421 0.063681945 0.18121254 0.027189609 -0.023229051 -0.0028415266 0.12902755 0.0025222194
-0.005628434 0.0031555276 -0.0005733301 -1.665545e-07 0.0003667216 -0.011647091 0.0011319973 -0.0055756657
0.07128311 -0.04927723 -0.0016341442 0.050679076 -0.006089066 -0.012835435 0.055251937 -0.01157021
0.12652375 -0.04027638 -0.027219046 0.01379108 0.13985628 0.0055428036 0.002803917 0.0031911004
0.0026045523 0.0014811015 -0.026088394 -0.0060045854 0.034570828 0.002722207 0.024690494 -0.07611914
-0.023299133 0.0867641 0.01550236 0.020068614 -0.0074664266 -0.021786688 -0.045916248 0.029487563
0.0024496496 0.024978364 -0.00064378633 -0.099555545 -0.003931697 0.0114121735 0.0060559222 0.061414097
-0.0070107644 0.0026433459 0.08175408 -0.00168921 0.002203826 -0.0099620465 0.0015074107 -0.0013729841
-0.0017215519 0.036702096 -0.022084396 0.025521213 -0.017279023 -0.0065902104 -0.002281112 -0.0024214617
-0.009645587 0.0009983034 0.033729825 -0.00055128965 0.014089292 0.011305031 -0.0018315556 -0.022229528
-0.12461252 0.0018591587 -0.0054308446 0.033757385 -0.0053458707 -0.012689044 -0.03602143 -0.11084528
-0.12015786 -0.017217368 0.026069278 -0.0007936569 0.005593963 -0.0061189593 7.873912e-06 -0.0016326314
0.023687774 0.02234566 -0.021287851 -0.011163964 -0.00025769445 0.0018970927 0.026915852 0.015759122
0.0006087764 0.0049474644 -0.05596101 -0.068633735 0.0010262246 0.014245472 -0.0042961864 0.003486771
-0.037357993 0.0074275825 0.05796411 0.010514843 0.18067537 -0.030914234 0.16063197 -0.019912658
0.016411427 -0.01979257 0.06642781 -0.011620188 0.015457191 0.049455494 0.0056058774 0.009463176
0.008175023 0.027904442 0.0063584247 -0.002534779 -0.01646246 0.15476052 -0.005420215 0.15859595
-0.025417633 -0.018795373 -0.0011589072 -0.03497735 -0.07829443 0.07784257 0.13016556 0.016295679
0.05604926 0.0018637591 0.09246806 0.002048664 0.034543477 0.0892575 0.03812165 -0.067390025
0.05740469 -0.01812457 -0.03936697 0.07838853 -0.016781205 0.011726653 0.003127135 0.003133556
0.007579988 -0.049529534 0.016437298 -0.03738656 0.025658129 0.13174103 0.04936121 -0.006116531

lstm.bias_hh_l0 f4 [256]
00000000: 0bf3 98bc d231 26bd a929 073c a420 043c
00000010: 48e2 1ebd 4ae6 09bd 8fd3 11bc 2d89 83bc
00000020: 0e16 af3b 6feb 4b3b 8a64 063b 6e23 e83b
00000030: 0469 c8ba 9784 4fba ef90 2dbc 6fb3 6fbc
00000040: be51 f73d c407 953d 4e1a 003a a9aa 72bb
00000050: 9319 613d be63 99ba 7f21 26bc d3e0 17bc
00000060: 2559 57bc b23c 993c 5b4f 893d 78f3 5c3d
00000070: a8cf 07bb fe5f e2bb 2ef1 983d b671 f4ba
00000080: d60d 22bc 9d6c 5b39 3c7c 14bd dcd0 943c
00000090: c66b 253b abaa 383d 51b8 23bc b634 8abb
000000a0: 03c3 b0bc 62be 853c 656a 3bbb 38f5 5bbc
000000b0: 1e80 043c 5851 e8bc 744a 643d 9db1 a2bd
000000c0: a03e d73d b54e 3d3d 73bc fabc 47c2 94bc
000000d0: c52f c63d c2d0 c03c 9c0f 033a 9036 233a
000000e0: b943 d73b f72a 09bb bae2 11bd 5683 10bd
000000f0: 8242 6b3d 5f05 2fbb 2e8e 72bc 8aed eb3d
00000100: 7a4c 003d 7f00 8f3d dec8 ee3b 3e79 a239
00000110: 216d 45bd 2e81 283b 2a81 66bd 7cc7 c53b
00000120: fedf 60bb d2c9 f7bb 01a5 9f3a 0cc0 cbbb
00000130: 0609 db38 1551 4eba ed39 04bc c0dd 6e3d
00000140: 3499 003d 2bed f53d b00a 253b 802b 96ba
00000150: 9415 233e 63a5 153a 808b fcba bd59 9eb9
00000160: 421d c9bc 2ca9 fe3d 67b9 f03c f637 093e
00000170: 6201 38bd e538 3abb 7ea3 e6bc a34b 253b
00000180: 1f64 bfbb 8871 273b 796d 3739 7e03 f234
00000190: b9ba 1a3b 12e0 9e3c 9d70 c938 f5d0 b6bb
000001a0: 1290 ef3d 3fa9 17bd cc5d aeba 037e 503d
000001b0: 7c86 c7bb 53b8 55bc a412 873d 8183 3dbc
000001c0: 2e91 0fbd 1009 0c3e e01c d0bc 3cc1 1cba
000001d0: 3342 643d cbf9 b73b 38c2 373b 3221 513b
000001e0: 1fb3 2a3b 20f3 6c3a 6120 033b 43ae c5bb
000001f0: b46c 053c 12e7 1c3b 3d29 123d 79d6 0ebd
00000200: 693f 283d ce92 123d 59ab 7e3c 6afc a83c
00000210: b3f8 07be bc37 aabc 0619 3ebd dabd f23c
00000220: aaa4 203b bcb8 d93c 4d7a 29ba b279 08bd
00000230: 7069 8ebb 7d3c 283c cf90 c03b b5ec d93c
00000240: 27eb e4bb 916d 45bb 575e ca3d c805 dcba
00000250: 5c52 103b d62d 1fbc 3bd7 9b3b bb1e 18bb
00000260: 94a2 e1ba 17f4 4c3d 9582 23bd 25a9 ca3c
00000270: 4df0 1d3b 6f08 d8bb e61c 0abb 98b0 1ebb
00000280: f537 ab3b 94cc 823a 6efb 093d 738b 49ba
00000290: 2451 633c 6b4c 75bc e0f3 17bb 938c 2fbc
000002a0: 28a9 c6bd bc9d f33a f495 a93a 3d69 ba3d
000002b0: 3aa5 b0bb 151b 4fbc 0308 243d a4d6 773c
000002c0: 88f2 2fbd b4af a0bc dc8f fa3c 3cd8 313c
000002d0: 8293 853d 687c c8bb d512 9b38 fdfd d5ba
000002e0: b53a 433c c0af 903c 5bc6 afbc 7ee1 253c
000002f0: 9bb6 87b9 f044 f83a d872 d73c 1a6b 95bc
00000300: f1fa 3fbd 2ad1 81bd a104 65bd 4000 97bd
00000310: d53a 773a b64c a8bb 3ca0 e6ba 7727 8c3d
00000320: 210c 7dbc c3ea 293c 0633 9c3d e495 cf3c
00000330: d0bd 603d bfa4 87bb dc7f c33d 15e0 3ebc
00000340: 4599 c93b 3503 ad3d 02bb 023d 4f71 683c
00000350: 2600 933c 4f4c dcbc 1281 ce3c 9909 123c
00000360: 276b c6b9 bc68 aa3c bdc3 313e 3ceb 24bb
00000370: 167a 99bc f453 113e 9b88 0f3d ad44 273d
00000380: c802 1f3d e075 08bd ff42 44bc fcaf 1c3d
00000390: c348 9d3d bec2 143d ed29 d13d 15f9 b73b
000003a0: b4a8 643d e8bb f43a 799d f03c 3587 89bc
000003b0: ad5b 103c cba1 913d f061 ef3c 052f 653d
000003c0: d07d 17bc 7334 c0bc 9739 0f3c a3a6 09bd
000003d0: 081b 5cbc 1db5 893c 7c7c 4d3b 7564 4d3b
000003e0: aca9 fc3b d4fa 153e 0f9b 923c 4648 3c3d
000003f0: e050 c93c 7620 093e b1ff 3c3c 54fe c9bb
-0.01867058 -0.040574856 0.008249679 0.008064423 -0.038790017 -0.033666886 -0.008900537 -0.016056621
0.0053432053 0.003111567 0.0020506703 0.0070843017 -0.0015290086 -0.0007916181 -0.010593637 -0.014630183
0.12076138 0.07276872 0.0004886732 -0.003702799 0.05495603 -0.0011702699 -0.010139822 -0.009269911
-0.013143812 0.0187057 0.06704589 0.053943127 -0.0020723138 -0.006908416 0.074678764 -0.0018649611
-0.009890994 0.00020925929 -0.03625129 0.018165998 0.002524124 0.045084637 -0.009992675 -0.0042177094
-0.021577364 0.016326133 -0.0028597352 -0.013425164 0.008087186 -0.0283591 0.055735067 -0.07944033
0.10509992 0.04621764 -0.030607438 -0.018159045 0.0967708 0.023537043 0.00049995794 0.0006226087
0.0065693525 -0.002093015 -0.035616614 -0.0352815 0.057436474 -0.0026706082 -0.014804406 0.11519916
0.031322934 0.069825165 0.007287129 0.0003098938 -0.048199777 0.0025711763 -0.056275524 0.0060357433
-0.0034313197 -0.0075619007 0.0012179912 -0.006217962 0.000104444145 -0.00078703585 -0.008070451 0.058316946
0.031396106 0.12008127 0.0025183372 -0.0011457056 0.159262 0.00057085435 -0.0019267648 -0.0003020297
-0.024550084 0.12434611 0.029385282 0.13400254 -0.044923194 -0.002841526 -0.028154131 0.0025222085
-0.005840793 0.0025549848 0.00017493022 4.5078554e-07 0.002360983 0.019393954 9.605403e-05 -0.005579109
0.11697401 -0.03702664 -0.00133031 0.050901424 -0.00608903 -0.013044435 0.06595352 -0.0115669975
-0.035050564 0.13675332 -0.025404394 -0.0005979722 0.055727195 0.0056144944 0.0028039347 0.0031910655
0.0026046706 0.0009038914 0.0020008313 -0.0060327365 0.008143593 0.002394144 0.03568386 -0.034872506
0.041076098 0.035784535 0.015543782 0.020628173 -0.13278465 -0.02077853 -0.046410583 0.029631544
0.002451221 0.026577346 -0.00064650626 -0.033319183 -0.004346065 0.010268328 0.0058766375 0.026602129
-0.00698604 -0.003012512 0.09881275 -0.0016786391 0.0022021746 -0.009715518 0.004755882 -0.0023211676
-0.001721459 0.05003747 -0.039919455 0.024738858 0.002409953 -0.0065928022 -0.0021074354 -0.0024214145
0.0052251765 0.0009979182 0.033687048 -0.0007688321 0.013874326 -0.014971833 -0.0023186132 -0.010714668
-0.09700233 0.0018586437 0.0012938366 0.09102104 -0.0053907903 -0.012640734 0.040046703 0.015126858
-0.042955905 -0.019615032 0.030586176 0.010854777 0.065222755 -0.006118346 7.394484e-05 -0.0016326305
0.011915852 0.01766193 -0.021456888 0.010124562 -0.00025885258 0.0018941443 0.026299879 -0.018239547
-0.046870176 -0.06338723 -0.055912618 -0.073730946 0.0009431069 -0.005136098 -0.0017595361 0.06843465
-0.015444786 0.010370913 0.076269194 0.025340028 0.05486852 -0.0041395123 0.095458716 -0.011650105
0.0061523044 0.08447877 0.031916626 0.014187171 0.017944407 -0.026891856 0.02520803 0.008913421
-0.00037845338 0.020801894 0.17359824 -0.0025164625 -0.018734973 0.14192182 0.035042387 0.04083698
0.03882101 -0.03331554 -0.011978864 0.03825377 0.07679894 0.036318533 0.10213075 0.0056144097
0.05582495 0.0018671723 0.029371964 -0.016788105 0.00881092 0.07110938 0.029221505 0.055953044
-0.009246305 -0.02346251 0.008741758 -0.033606183 -0.013434179 0.016809994 0.0031354716 0.0031340395
0.007710656 0.14646465 0.017896203 0.045967363 0.024574697 0.13391289 0.011535571 -0.0061643515

lstm.weight_ih_l1 f4 [256, 64]
00000000: dbd4 17bc 2279 aa3d cca4 363d 93a0 0bbc
00000010: 84de c3bb 6555 4ebd ea8a 1fbd 5dfc f3bc
00000020: bec4 f43c cf35 ae3d d11e 953d 7874 c43a
00000030: a085 a6bc 0e2f bbba 44eb 12bd d288 ea3c
00000040: 5f5d 3abd 8563 2b3c 447b 193d baa2 413d
00000050: e68b 743c bc11 01bd e1c6 ba3c e16f 2bbc
00000060: 0f0b 38bd 75f4 2e3d b507 8ebc 55e1 863c
00000070: 7e1f 523c 64b5 f7bb 7f45 adbb ef54 e2bb
00000080: 271d 93bd 202e a43b a102 613d 47c4 84ba
00000090: 7096 54ba 910d 503c 5154 d73c d9ae 63bc
000000a0: fadb 96bd 90f6 993d 07f2 aeba ae58 4ebb
000000b0: 19aa 513c 0c8f 95bc 8dc8 0fbd a167 9e3c
000000c0: d0e4 68bd 83be 243d 59eb b13b 1647 02bd
000000d0: bc79 8f3b 8724 173d 0d7c 31bc 576f 313c
000000e0: 6d52 313c 2b64 9e3c 520a d73c 88e5 9a3d
000000f0: 8f68 80bd c4ff 103c b59e 483d 71a6 b7bc
00000100: 219c 6a3d 1f6e 1d3d e855 4b3c 59ca a9ba
00000110: 84b2 3a3b 6807 b53b 2cfc 5b3c 2e77 43bc
00000120: d95a 23ba 3b0b babb a216 b13c c40e 333c
00000130: 4faa 073c 316d 1dbc d128 c43b 6514 a53c
00000140: 9dc5 eeba 1369 c23b 1e92 5dbc 54b8 1ebc
00000150: e696 41bc 03f8 a13c 7ec6 143c cfc2 04bb
00000160: 45cd 993c c7e1 9b3c 810a ffbc 8a9d 663c
00000170: 5179 05bd d5c1 82bc 2b94 d53c 9e05 b73c
00000180: e14b d1bb 4fb2 bcba 536d dc3b d05c a93b
00000190: 2034 4e3c 2d43 c6bb 7c96 5abc 55d6 9cba
000001a0: 660d 10bd dd4d 3cbc 15a6 b239 7f42 433c
000001b0: 5353 a1bc 863b f03b ff60 183a 1c0c 223b
000001c0: ed6e f2bb dc16 7a3c 83f6 babb 5bcc 093d
000001d0: c1bc b23b d10f fa3b e32d 0ebb dbd0 033b
000001e0: 0cb9 1b3b c4a9 253c dcb6 be3c 5f51 0e3d
000001f0: ee38 ea3a e936 ad39 bb23 0dbc 05e2 d23b
00000200: cf3c 963d b83f 963d 5bf0 83bb 9390 83bc
00000210: f99c b43b abbf 26bd 4798 91bc e35b 533a
00000220: d86b 043c c71b 21bc 8bea bd3d 9107 5f3d
00000230: f610 c8bc 7be5 abbb 1765 9cbc d8d8 843d
00000240: 4890 b5bc a5d2 9d3c 47eb b2bc 035f 4abd
00000250: 35f2 81bd 59b4 f3bb 10db 7bba 24f4 98bc
00000260: 7538 2cbb ef40 143b f68d cc3c 05b1 3d3d
00000270: e9f8 e4bc eb2f 7f3c 7582 10bc 7790 b6bc
00000280: 6910 36bd 224d 6fbb 8d1d 603c 78da 1e3c
00000290: 918a 0dbd 96d4 b23c c931 87bc b6ce 143c
000002a0: 6d19 02be 034d 3d3d a32e 4bbc 4d21 34bb
000002b0: b69e da38 1438 c83b 2db8 97bd 0da6 4bba
000002c0: bf36 adbd 9e50 0a3d 9dde 923b f09d 483d
000002d0: d846 103d 9546 173c dbdb 99bc f42c 9b3c
000002e0: ec77 953c f5e9 283d 8101 bf3d 1f52 b2ba
000002f0: 3c34 cbbd dc08 83bc 8a7b 173d f512 56bd
00000300: d6b7 b4bd be6d ae3c 2afc e2bc 3a1b cbbb
00000310: 7b20 92ba 3458 0f3c 00a6 26bd 1f77 3cbd
00000320: 8382 7e3d f06c 6cbc df0b 46bd 6baf 8ebd
00000330: 2cc9 a3bc f8ab 3e3d 1e33 52bd f5d6 463c
00000340: ddf5 5dbd 47a1 87bd af57 103d c191 3abd
00000350: 500b 24bc 9fde b4bd 72e0 b93c 15a1 06bc
00000360: adf1 d1bd 652f 84bd d621 f13c a0c0 14bc
00000370: 97b7 593d 2367 c13d 6046 28bd 6f13 99bd
00000380: 9cd9 223d a321 c93b fea4 343d 75e4 95bc
00000390: 16f3 8cbc f151 1d3c 1157 193d 73a3 64bb
000003a0: 00c9 a4bd 73eb 683b 8999 08bd f9e7 cd3d
000003b0: 9a75 603d a4e0 0dbd fcc8 19be 2368 49bd
000003c0: d127 38bd a8d5 f63c b60d 20bc 3fb1 59bd
000003d0: 0307 4abb 6395 223d 1cc1 04bc a48a 053c
000003e0: ff87 043c 12fe 4c3d 8009 8bbd 9dc1 bbbd
000003f0: dc8a d6bc 4527 073d 1b8c 843d 9d3d a6bc
-0.009267057 0.083238855 0.044590756 -0.008522171 -0.0059774537 -0.050374407 -0.03895084 -0.029783422
0.02987897 0.08506357 0.072812684 0.0014988324 -0.02032739 -0.0014280991 -0.035868898 0.028629694
-0.045499202 0.010460739 0.03747107 0.04727433 0.0149259325 -0.031511053 0.022799911 -0.010463686
-0.04493242 0.0427136 -0.01733766 0.016464869 0.012824891 -0.0075594652 -0.0052878256 -0.0069070975
-0.07183295 0.0050103813 0.054934148 -0.0010129296 -0.0008109575 0.012698547 0.026285322 -0.013896667
-0.07366176 0.07517731 -0.0013347276 -0.0031485963 0.012796902 -0.018256687 -0.03510337 0.019336523
-0.056858838 0.04022075 0.005429667 -0.031806074 0.0043785255 0.03690007 -0.010832799 0.010829768
0.0108228745 0.019334873 0.026250038 0.07563311 -0.06269943 0.008850042 0.04897948 -0.022418233
0.057277802 0.038435098 0.012410618 -0.0012953981 0.0028487751 0.0055245645 0.013426822 -0.01193027
-0.0006231494 -0.0056776083 0.021617237 0.010928813 0.008280351 -0.009608553 0.005986311 0.020151326
-0.0018216852 0.005932936 -0.013523607 -0.009687502 -0.011815762 0.019771582 0.009080527 -0.0020257717
0.018774638 0.019028557 -0.031132938 0.014075646 -0.0325864 -0.015961567 0.026071629 0.022341546
-0.0063872193 -0.0014396402 0.0067268996 0.005168535 0.01258567 -0.0060504884 -0.013341542 -0.0011965731
-0.035169028 -0.011493173 0.00034074546 0.011917709 -0.019693052 0.0073313145 0.00058127934 0.0024726456
-0.0073984773 0.015264239 -0.005705656 0.033642154 0.00545463 0.00763128 -0.002169483 0.0020113501
0.002376142 0.010111276 0.023280554 0.03474557 0.001786975 0.00033038043 -0.008614476 0.006435635
0.07335817 0.07336372 -0.0040264553 -0.01606015 0.0055118767 -0.040710133 -0.017772807 0.00080627034
0.008082353 -0.009833283 0.09273251 0.054450575 -0.02442215 -0.005245862 -0.019091172 0.06486672
-0.022163525 0.019265482 -0.021840705 -0.049407016 -0.063450254 -0.0074372706 -0.0009607533 -0.018671103
-0.0026278768 0.0022621711 0.024970036 0.046311397 -0.02795072 0.015575389 -0.008820166 -0.022285683
-0.044449244 -0.003651448 0.01367892 0.009695642 -0.034555975 0.021829884 -0.016503232 0.009082487
-0.12705012 0.046216022 -0.012401256 -0.002748567 0.00010424612 0.0061102007 -0.074081756 -0.0007768579
-0.084577076 0.03376829 0.004482104 0.048978746 0.035223812 0.009233137 -0.018781593 0.018942334
0.01824566 0.041238744 0.09326459 -0.0013604796 -0.09922072 -0.015995435 0.03698305 -0.052264173
-0.088241264 0.021292564 -0.027708132 -0.006198314 -0.0011148596 0.008749057 -0.040685654 -0.04601204
0.062136184 -0.01443027 -0.048351165 -0.06967052 -0.019993387 0.04655072 -0.05131828 0.012136211
-0.05418955 -0.06622558 0.03523987 -0.045549158 -0.010012463 -0.08831524 0.022690032 -0.008217116
-0.10251174 -0.06454352 0.02943508 -0.0090791285 0.0531536 0.094435 -0.04108274 -0.0747441
0.03975831 0.006138043 0.04410266 -0.018297413 -0.017205756 0.009602056 0.03743655 -0.0034887462
-0.0804615 0.003554073 -0.033349548 0.10054011 0.054799654 -0.034638062 -0.15018076 -0.04917158
-0.044959847 0.030131176 -0.009768894 -0.05314755 -0.0030826933 0.039693248 -0.0081026815 0.00815073
0.008089065 0.050046988 -0.06788921 -0.09167788 -0.02618926 0.032996435 0.064720355 -0.020293051

lstm.weight_hh_l1 f4 [256, 64]
00000000: 0628 793c 648f e33b 61cb 873c 9cc6 26bd
00000010: 922d 13bd ec54 efbb b0e6 0abc e4f4 d7bc
00000020: 2ffa 5c3c 7e38 db3b 58e2 8b3c b419 29bc
00000030: dba3 d2bb bdaf 10bc 3ea9 1abc 813e 66bc
00000040: 9d7e c2bc a4ec 33bd 5dfd 343c 8a99 91bc
00000050: 165c 20bb 2f3a 793c a43c 143a 383f 8abb
00000060: c4e9 143c 84e3 52b9 6d2f a23c f5f5 4b3a
00000070: 318f 1fbb 566a e9bc a522 fdbb c957 29bd
00000080: b727 9ebb 6fae fd3c 5300 54ba e4ef 1e3c
00000090: 9c93 b8bc c7e5 603b 9f49 283c ae26 81bb
000000a0: ff12 fbbc 42a4 6a3c 7dbe cb3c 9d65 4bbc
000000b0: da30 5d3b aed7 7abb ecfd d1bb 978b 9e3c
000000c0: afa3 e73c 1d74 3039 713b a4bb 8bc6 9dbb
000000d0: 4f65 f7bb 501f 5a3c ec0d ba3b 6f64 89bd
000000e0: f5ca 75bd 4fb7 e1bc f650 36bc 3b03 223c
000000f0: 9655 f5bc 70d9 293c 86a8 a33c 767b 7dbb
00000100: b525 bb3a 7a2f c339 b8d2 073c f3de c9bc
00000110: 1806 ac3b 0dae f7bb 0410 64bc 1dc3 9eba
00000120: 96ad 7f3c 1004 1ebc 0ad3 d3bb bda5 98bb
00000130: 5f65 5dba 75fd 7cb9 cae6 a6bb 921f ef3b
00000140: aeed 853a 22c7 0dbd 598f 183b 9a29 afbb
00000150: bfae c83b 0e4f 633a d6a2 e53a 7151 113b
00000160: 1557 86ba 4ed7 163a 2d59 49b9 ea8f 53bb
00000170: b163 64bb 10a2 15bb 2728 1e3c 12a1 683b
00000180: 4314 0bba bea9 f23c 9d62 6e3b bb60 693a
00000190: 34d2 68bc d6a1 643b 4502 943a 2417 c6bb
000001a0: 8a6f 003b 0876 ee3b 0baa e83b ac51 15bb
000001b0: c8b6 53bc b20a ef3b a3fe 0dbc 063a 1f3c
000001c0: a3de 643c 6b2d 213b 4936 98bb 2e03 033c
000001d0: 2cc7 00bc 556b cd3b 1e8a e53b 51c3 3bbb
000001e0: a58c 22bb 1e98 823b 0745 463c 27a0 db3b
000001f0: 8b2e 823a 650d 203c 0c08 c3b9 9f19 0abb
00000200: 926a c8bc 32ad 57bc fda1 c03c deca 63bd
00000210: 1395 03bc e00c 163c b50f 35bd bd29 c1bc
00000220: 6827 093b 5c31 633d 890a c5bc 7224 42bc
00000230: eb97 69bb 176e 09bc 908e 99bc 949b 15bb
00000240: 3306 7f3c 6678 cb3b 31f0 8abc dcbd f7ba
00000250: 2ab5 79bb 9730 17bd ad4e e53c 69e0 ffba
00000260: 9f32 6abb 9981 e03c ca39 33bb 16ef 1ebb
00000270: 6296 e83b c410 e03c b1aa bcbb 9493 9b3c
00000280: 7937 be3c 9410 b03b 7ec7 1bbc d65a 0abc
00000290: 1c61 37bb bf4c 78bc a3a9 873c ea90 f4ba
000002a0: 99a9 05bb bd69 143d 1b08 be3c 3cdd c63b
000002b0: 4a69 44bd 0740 87bc 1782 9bbc b404 38bd
000002c0: b573 3c3a 5920 5e3b 72cf 8e3c ec7c dc3c
000002d0: 01f4 143b 049b fabc 3739 13bc ba94 0dbd
000002e0: 893c fcbd 55af 1f3d b573 00bc c722 9a3c
000002f0: 3cf8 11bc 84d8 a73b 3db8 c9bc fbf4 9237
00000300: f3e9 113d 7450 dd3c 8192 e23c 3060 52bd
00000310: d5d4 a2bd a4a2 d7bc 6644 e7bb 5bd3 273d
00000320: aad0 a2ba 481c a43d 6eb9 353b a289 843d
00000330: f6dc 3fbd fadf 00bd d36b 8fbc ab63 cb3c
00000340: 17b7 c53c 9098 943c 8250 0aba c842 8bbb
00000350: 48ea 0e3c f2b4 f73c 8661 b53c d1f7 113c
00000360: 5832 46bc 77b8 2d3d 78aa ed3c afce b5bc
00000370: 2cdf a0bc ec6f 9cbd 89b9 21bc 9f8c 55bd
00000380: 6144 0cbd 1567 143c 41a7 263b 3471 963c
00000390: 0d79 e83b 7ee0 d63c 5651 4b3d 3c63 9ebb
000003a0: 7bda 4b3d 673f f83b b79b 173d 4b38 adbc
000003b0: 2dd1 5ebd 611d af3c 4896 9bbc 118a b1bd
000003c0: 12ff b53b 6603 b73c d63a 3fbc 12ee fe3c
000003d0: c10e 8ebb 7449 b2bd 73f3 84bb 6e04 c6bd
000003e0: e9c8 acbd 0fdf 3abb 19c6 5ebd f2fd 2dbd
000003f0: 30d0 0d3d b2f6 ee3c b58d 033d 60ef 56bc
0.015207296 0.0069445837 0.01657647 -0.040716752 -0.03593213 -0.0073038246 -0.008477852 -0.02636189
0.013487383 0.006690084 0.017075703 -0.0103210695 -0.0064282245 -0.008830962 -0.009439765 -0.014052988
-0.023742015 -0.04392685 0.011046735 -0.017773408 -0.002446895 0.015211626 0.0005654788 -0.004218962
0.009088937 -0.00020111917 0.019798005 0.0007780486 -0.0024346823 -0.028493088 -0.007725077 -0.041343484
-0.0048265117 0.030966965 -0.00080872065 0.009700749 -0.022531323 0.0034316645 0.010271459 -0.0039413786
-0.030648706 0.014321389 0.024871105 -0.012414363 0.0033751042 -0.0038275528 -0.0064084437 0.019353671
0.028276293 0.00016827924 -0.005011969 -0.004814928 -0.0075499187 0.01331313 0.005677929 -0.06708609
-0.060008008 -0.027553229 -0.011127701 0.0098884655 -0.029948037 0.010366783 0.01997782 -0.0038678325
0.0014278205 0.0003722867 0.008289985 -0.024642443 0.00524975 -0.0075585903 -0.013919834 -0.0012112592
0.015605351 -0.009644523 -0.006464367 -0.0046584294 -0.00084455864 -0.00024127013 -0.00509343 0.0072974646
0.0010217929 -0.034613736 0.0023278801 -0.0053455355 0.006124347 0.0008671143 0.0017519842 0.0022173787
-0.0010249341 0.0005754129 -0.00019202074 -0.0032281824 -0.003484946 -0.0022832192 0.009653128 0.0035496396
-0.00053054484 0.029621955 0.0036374696 0.00089026586 -0.014210273 0.00348865 0.001129218 -0.006045239
0.0019597732 0.007277254 0.007100349 -0.0022784276 -0.012921996 0.007294976 -0.008666667 0.009718424
0.013969096 0.0024593722 -0.004645143 0.007996364 -0.007859986 0.0062688985 0.0070049902 -0.0028650353
-0.002480307 0.003985419 0.012101418 0.0067024413 0.0009932084 0.0097688185 -0.00037199294 -0.00210724
-0.02446488 -0.013163852 0.023514742 -0.05561339 -0.0080311475 0.009158343 -0.044204433 -0.023579473
0.002092803 0.055466995 -0.024052875 -0.01184951 -0.0035643529 -0.008388064 -0.018744737 -0.0022828327
0.015565443 0.006209421 -0.016960235 -0.0018901187 -0.0038102367 -0.036911573 0.027991617 -0.0019521835
-0.003573574 0.027405547 -0.0027347677 -0.0024251393 0.007098005 0.027351744 -0.0057576527 0.01899127
0.02321981 0.00537307 -0.009508012 -0.008444509 -0.0027981466 -0.015155016 0.016560381 -0.001865891
-0.0020395278 0.036233652 0.023197224 0.0060688537 -0.047951974 -0.016510023 -0.01898293 -0.04492636
0.00071888726 0.0033893792 0.017432902 0.026915036 0.0022728445 -0.030591495 -0.008985809 -0.034565665
-0.12316234 0.03898557 -0.007840087 0.018815411 -0.008909281 0.005122246 -0.024623984 1.7518634e-05
0.035623502 0.027015902 0.02765775 -0.051361263 -0.07950751 -0.02632267 -0.0070577143 0.04097305
-0.0012421806 0.08013207 0.0027728933 0.06471564 -0.046841584 -0.0314636 -0.01750747 0.024827799
0.024135156 0.018139154 -0.0005276279 -0.0042499043 0.008722849 0.030237649 0.02214123 0.008909182
-0.012096964 0.042412248 0.02901195 -0.022193281 -0.019637667 -0.07638535 -0.009870895 -0.05213606
-0.0342449 0.00905778 0.002542928 0.018364526 0.0070945085 0.026230093 0.049638115 -0.004833607
0.049768906 0.0075759175 0.037013736 -0.021145007 -0.054398704 0.021376314 -0.018992558 -0.08668912
0.0055540884 0.022340488 -0.011671742 0.03111938 -0.004335255 -0.08705416 -0.0040573417 -0.09668814
-0.08436758 -0.00285143 -0.05438814 -0.04247851 0.03462237 0.029170368 0.032117564 -0.013118595

lstm.bias_ih_l1 f4 [256]
00000000: f0ed 4e3d 324e 53bd 5050 88ba 33b7 45bd
00000010: 2d36 023c 7b68 113d 06a5 a0ba bccb d03d
00000020: b95b 133d dbf7 d33b 5aa9 16bb 0fc3 663c
00000030: ef36 07bc f1f9 81ba ee6a 90bd 159e 09bc
00000040: 6885 efbc b6f4 89bd 20c8 923c 670c 5dbc
00000050: 6507 813d 6978 a6bd 4d54 2cbd adfe 953d
00000060: 8573 953d 9876 95bd 3879 9a3d 6d22 5fbd
00000070: 2ac1 4dbd eee5 c03c 0130 44bb 50b9 483d
00000080: 62fc 613d 43d1 563d 435e 00bd fc29 7e3c
00000090: 1bd2 9b3c 913e 6bbd e8ce a13c b986 3cbc
000000a0: 2416 26bd f25c 5abc 8513 1bbd 2666 98b7
000000b0: e436 873d 2749 b7bc fa27 c4bc 9afa 86bb
000000c0: bf30 7c3d 19fe 37bd 1077 19bd 7f72 6cbd
000000d0: ce49 123d 0262 5ebd af11 9a3d 893a d33d
000000e0: 41b3 863d 245c b13d 2c98 b33d 4837 01bd
000000f0: 3194 86bc ba4f 8b3d abd2 bc3c d91a 75ba
00000100: 9a61 603d 62bb 2cbd ae10 89bd 95d4 5f3c
00000110: f1b9 0a3e a5d5 db3c b2fa 8bbd 0065 733d
00000120: 7808 adbc ca70 a33c c155 af3d c391 00bc
00000130: e103 313d f7f5 15bd 4cbd 113d f669 d93d
00000140: 9b86 4d3d b6db 3d3e 02fa d0bc d0ce d63c
00000150: a943 873a ffa2 263d 9616 78bd a05b 78bc
00000160: 20b3 5f3d 8791 23bc f2c7 1d3e 8735 303c
00000170: c51c 1fbd 974d 833c a42f 3e3d 5f53 b83c
00000180: 433e be3d 993e 8c3c 0318 adbc 41a4 033c
00000190: b772 183e f8d3 1e3d 0247 393c 7e0b c5bc
000001a0: 88ed e03d 879f af3c 1075 703c 608c 1e3d
000001b0: f32d f23d 9be4 32bd 49a7 0c3d 447f ec3d
000001c0: f387 89bc 2281 293d 5afa 573d c19b 7e3c
000001d0: b33f cf3c f15c 62bc aa7c c13d 09e8 df3d
000001e0: 5386 493d 6ff4 143d 73f3 203d 95c4 ca3d
000001f0: d5e6 583c b52a 523d d3e7 bbbc 5c34 3b3b
00000200: 866d 1cbd f9f5 5ebc 5804 81bb 88bc 0a3e
00000210: 1448 363d 3c18 d2bc eacf 493d 76fb 343e
00000220: 3cbe 2e3d 9245 3dbd 8501 39bc d4f3 29bd
00000230: fd4f 89bd 75d1 07bd 1878 143d c162 e03c
00000240: 6d2f e6bd 7d00 143c 4c98 433d eaf6 e9bb
00000250: 1de4 593c 8656 f4bc 1e8b 5b3d fc88 383d
00000260: 84b3 a5bc c640 efbd a822 82bb 5b26 37bd
00000270: aa5b 033d c460 7c3b 0131 8dbd 5dc9 d7bd
00000280: bad7 c7bd db58 c83d 96d6 873d 784b d43d
00000290: 0b81 943c ec60 513d 2c24 e93b 12d4 463d
000002a0: 33de ae3c 19b6 dc3d 547d 9b3c 81c0 51bd
000002b0: 9253 5ebd 039b d0bd f7ac 9b3d ae96 923d
000002c0: 139c 123b fa07 763d daa4 d1bd ac4c c9bd
000002d0: e6b9 deb9 8aa8 bcbd 48d7 203d 586e 973c
000002e0: 31b8 a93d a083 dfbd 6a0d 15be 7ed2 0ebe
000002f0: 72a7 f8bd c315 05be 68c7 4e3d b277 57bd
00000300: f819 c0bd 9881 633c 2ad3 8fbd dae4 05bd
00000310: e0f4 76bd bcef a23c b848 14bd 235b f33d
00000320: 0331 67bd f9f5 313d d12b 2e3d d78a a43c
00000330: 69c3 53bd 54f2 62bd cfce 953d 9dca fe3c
00000340: 00bd 4cbd dc55 093e b5cf 6f3d 8061 b2bd
00000350: f1e2 4f3d daa7 93bc 3961 cb3a 61ae a73d
00000360: 8226 5e3c 115c 6abc 012b b1bd ce4e ddb9
00000370: edcd 213c 64c0 7fbd 7fac 7bbc a157 193b
00000380: 03be dd3d c839 ba3d 6b70 3ebc cb88 44bd
00000390: e570 b63c a8d1 cebd 3dec 9bbc f14f 69bc
000003a0: cd40 a23d fdd4 fe3c 27d7 2a3d 9e85 4dbc
000003b0: b76b e3bb 24c7 d23a bdd3 63bc 2691 84bc
000003c0: 41dd 023d 7e14 d33b 1636 d1bd 1a3c c0bc
000003d0: b403 2d3d df8c 873d ef7a a43d 34af 303d
000003e0: fe15 833d 64d3 ad3d c062 d13d 703b c73d
000003f0: c47d 70bd e578 c83c 5855 a63c 8018 c5ba
0.050519884 -0.051588245 -0.0010399912 -0.048270416 0.007947487 0.03550003 -0.0012256212 0.10195109
0.035976145 0.0064687557 -0.0022989125 0.0140845915 -0.008252843 -0.0009916407 -0.07051645 -0.008399506
-0.029238418 -0.06736128 0.017917693 -0.0134917265 0.063002385 -0.08128435 -0.042072583 0.07323966
0.07297424 -0.072980106 0.07542652 -0.05447619 -0.050233044 0.023547139 -0.002993584 0.049004853
0.05517233 0.05244566 -0.031339895 0.01551294 0.019021085 -0.057432715 0.01975198 -0.01150673
-0.04054846 -0.013327824 -0.037860412 -1.8167379e-05 0.066022664 -0.022373749 -0.023944844 -0.0041192295
0.061569925 -0.04492006 -0.037467062 -0.05772638 0.035714917 -0.054292686 0.07522904 0.10313899
0.06577159 0.086601526 0.08769259 -0.03154686 -0.016428085 0.06802316 0.023049673 -0.0009350009
0.05478058 -0.04217089 -0.066926345 0.013661523 0.13547494 0.026835272 -0.06834926 0.059422493
-0.021122202 0.019951243 0.08561278 -0.007847252 0.04321659 -0.036611523 0.03558092 0.106159136
0.050177198 0.18540844 -0.025509838 0.026221663 0.0010319847 0.04068279 -0.060568415 -0.015158564
0.054614186 -0.009983427 0.15408304 0.010754949 -0.038845796 0.016028209 0.046432152 0.022500692
0.09289219 0.017119693 -0.021129614 0.008034767 0.1488751 0.038776368 0.0113084335 -0.024053331
0.109828055 0.021438373 0.014676347 0.03870809 0.1182517 -0.043675046 0.034339223 0.115477115
-0.016788458 0.041382916 0.05272899 0.015540064 0.025298929 -0.013816104 0.09447606 0.10932929
0.049200367 0.036365923 0.03929467 0.09900776 0.013238628 0.05131026 -0.02293769 0.0028565144
-0.038190387 -0.013608449 -0.0039372854 0.13548481 0.044502333 -0.025646321 0.049270548 0.1767405
0.04266189 -0.046208926 -0.011291866 -0.0414923 -0.0670471 -0.03315874 0.036247343 0.02739084
-0.112395145 0.00903332 0.047752663 -0.00714003 0.013299015 -0.029826414 0.05359947 0.045052513
-0.020227201 -0.116822764 -0.0039714165 -0.044714313 0.03206984 0.0038509825 -0.068941124 -0.10536454
-0.097579435 0.09782573 0.06632726 0.10365957 0.018127939 0.051117823 0.0071149077 0.04854209
0.021346187 0.1077692 0.01898066 -0.051208977 -0.054278918 -0.10185816 0.0760135 0.07157646
0.002237086 0.0600662 -0.10236521 -0.09829077 -0.00042481645 -0.09211834 0.03926781 0.018485233
0.08287085 -0.10913777 -0.14555898 -0.13947484 -0.12141313 -0.12996583 0.050483137 -0.052604385
-0.09379953 0.013885878 -0.07022698 -0.032688953 -0.060292125 0.019889705 -0.036202163 0.11882617
-0.056443226 0.04344747 0.042522255 0.020085735 -0.05170003 -0.055406883 0.07314836 0.031102473
-0.049984932 0.13411659 0.058547694 -0.08710003 0.050753538 -0.018024374 0.0015516646 0.08187557
0.013558986 -0.014304177 -0.086507805 -0.0004221112 0.009875757 -0.062439337 -0.0153609505 0.0023398178
0.108272575 0.09093052 -0.011623482 -0.04798202 0.02227063 -0.100985825 -0.019033546 -0.014240251
0.07922516 0.03110742 0.04170909 -0.012544064 -0.006940331 0.0016081077 -0.013905463 -0.016182493
0.031949285 0.006441652 -0.10215394 -0.023466159 0.04223986 0.06618666 0.0803126 0.043135837
0.06400679 0.08487585 0.10223913 0.09728134 -0.05871369 0.02447171 0.020304367 -0.0015037209
