.checkpoints/bi_lstm_best_model.pt (torch, 973217 bytes, 25 tensors)

lstm.weight_ih_l0 f4 [256, 19]
0.154398 0.13516712 0.09378595 0.01886512 0.069331825 -0.053738955 0.119084634 0.02318713
0.17094575 0.15994415 -0.040933628 -0.014771414 -0.051658303 0.14182302 0.090669096 0.05666556
0.14884512 0.1484927 0.08729124 0.050892144 0.04814196 -0.007186731 0.19436911 -0.044553608
0.106720485 -0.029130675 0.16498703 0.047336467 0.14475228 0.1080015 -0.003061273 0.073876515
0.1747426 -0.021947 0.111581005 0.13924101 0.18632089 0.0008917045 -0.053274017 -0.009213808
-0.116692424 -0.010159832 -0.14836329 -0.19947238 0.013455183 0.017029028 0.021417053 0.11868594
0.029482458 0.07623411 -0.06006095 -0.0762935 -0.05068297 -0.00079162105 -0.03396035 -0.037693966
-0.05108279 -0.0599297 0.21831848 0.11641284 0.115003705 0.11200908 -0.11181633 0.05962396
-0.007816747 -0.07102625 0.11804811 0.009822788 0.044305503 0.07657151 0.044222694 -0.0071281963
0.035946377 0.053298287 0.03093999 0.08334443 -0.15268071 -0.051615186 -0.1967751 -0.0988337
0.013894742 -0.13411279 -0.12302645 -0.20141418 -0.10262168 0.010965662 -0.27789655 -0.1301925
0.08758711 -0.0042149895 0.03778022 0.013032853 -0.19534883 0.116885625 -0.001752962 0.13538553
-0.05183859 0.07461703 0.083821155 0.17729864 0.032117795 0.12456484 0.17266855 0.023324303
0.1397462 -0.03773699 0.12803112 0.14477108 0.13027981 0.089516744 0.00659178 0.17137165
0.09007272 -0.020325266 0.05417557 0.061649203 0.06622855 0.0622243 0.20277624 -0.009915856
0.20246418 -0.013139553 0.048490096 0.13859725 0.08494 0.06825093 0.15668134 0.111334905
0.09860625 0.18608332 0.02750324 0.12262633 0.054877676 0.21577519 0.06947529 0.034914687
0.059765693 -0.15650558 -0.07809035 -0.0922422 -0.18129241 -0.11143876 -0.05809942 -0.06072009
-0.16252105 0.06619737 -0.11467503 -0.16544437 0.026233396 -0.27904415 -0.24517946 -0.15214387
0.09155076 -0.0020804617 -0.11664146 -0.093666404 0.03829213 -0.08562934 0.08217576 -0.08018225
0.08974654 0.08217516 0.19452976 0.00892445 -0.13391148 0.04970563 0.17902228 -0.05635741
0.034288585 0.047204632 -0.0013352999 0.035905432 0.023845147 0.0096339295 0.06551084 0.14402983
-0.009350376 -0.0031414365 -0.06716173 0.17571402 0.104327545 0.0009725891 -0.037530027 0.16034943
0.09633162 0.17031756 0.105614275 -0.0059549883 0.12151846 0.17294973 -0.058416594 -0.15400843
-0.113075025 -0.06268389 -0.035119887 -0.1026032 0.12685713 -0.07445251 -0.15032704 -0.0399981
0.11139557 0.11756641 0.02069339 0.044608418 -0.091697 0.028443798 -0.07618419 -0.069224544
0.021597901 0.18616153 0.09156565 0.12884478 0.062336437 -0.06542416 0.079115435 0.08656011
0.11077242 -0.05668557 0.027850725 -0.08282536 -0.18995261 0.13086917 -0.0635386 -0.03732487
-0.09439673 0.082995266 0.06687483 -0.13734084 0.051757593 0.05299978 0.1186616 0.1266582
-0.003780424 -0.0058616493 0.026843585 -0.041433062 -0.045108274 0.052862294 0.051586404 0.020204263
-0.059223667 0.12404227 0.05212503 0.009214969 0.0021240695 0.116002195 -0.042846918 0.22243027
0.048546836 0.21614343 0.22616331 0.19268367 0.22338304 0.19542651 0.042419683 0.17770535
00000000: 821a 1e3e 4069 0a3e d912 c03d 068b 9a3c
00000010: d8fd 8d3d 611d 5cbd a5e2 f33d f0f2 bd3c
00000020: 670c 2f3e 66c8 233e 05aa 27bd cd03 72bc
00000030: a897 53bd 0e3a 113e b8b0 b93d 251a 683d
00000040: db6a 183e 780e 183e c0c5 b23d 4874 503d
00000050: 8130 453d ab7e ebbb b208 473e d87d 36bd
00000060: 4590 da3d 74a3 eebc 5cf2 283e e2e3 413d
00000070: f139 143e e42f dd3d a39f 48bb 924c 973d
00000080: b9ef 323e 32ca b3bc 9584 e43d 3295 0e3e
00000090: e7ca 3e3e 47c1 693a db35 5abd 83f5 16bc
000000a0: 70fc eebd 6d75 26bc 8cec 17be 7d42 4cbe
000000b0: 2173 5c3c 7680 8b3c d172 af3c 9d11 f33d
000000c0: 3285 f13c a120 9c3d 7902 76bd c43f 9cbd
000000d0: f298 4fbd ca84 4fba 021a 0bbd fd64 1abd
000000e0: 303c 51bd d878 75bd e18e 5f3e db69 ee3d
000000f0: 1087 eb3d 0465 e53d f6ff e4bd 4138 743d
00000100: d011 00bc 3676 91bd 35c3 f13d c2ef 203c
00000110: b079 353d 86d1 9c3d db22 353d a593 e9bb
00000120: 823c 133d 4e4f 5a3d dd75 fd3c 7cb0 aa3d
00000130: 5558 1cbe 726a 53bd 697f 49be 5369 cabd
00000140: c6a6 633c dd54 09be 4bf5 fbbd 853f 4ebe
00000150: 512b d2bd 52a9 333c 7548 8ebe 2f51 05be
00000160: df60 b33d e51d 8abb 6fbf 1a3d bf87 553c
00000170: 8609 48be bb61 ef3d a5c3 e5ba 81a2 0a3e
00000180: b454 54bd d0d0 983d 6daa ab3d c68d 353e
00000190: f38d 033d da1b ff3d 06d0 303e 9c12 bf3c
000001a0: a119 0f3e 1a92 1abd 971a 033e df3e 143e
000001b0: 1268 053e 8e54 b73d dcff d73b 0d7c 2f3e
000001c0: 0c78 b83d 2c81 a6bc 34e7 5d3d e083 7c3d
000001d0: d6a2 873d e8de 7e3d 93a4 4f3e 1d76 22bc
000001e0: c552 4f3e 4847 57bc 8d9d 463d 70ec 0d3e
000001f0: 06f5 ad3d 25c7 8b3d 1371 203e 8e03 e43d
00000200: 13f2 c93d a08c 3e3e 7a4e e13c 8323 fb3d
00000210: 6ac7 603d 2cf4 5c3e 1049 8e3d b402 0f3d
00000220: dfcc 743d 0043 20be d5ed 9fbd 7be9 bcbd
00000230: b8a4 39be 013a e4bd a8f9 6dbd a1b5 78bd
00000240: eb6b 26be 7d92 873d beda eabd 406a 29be
00000250: 6be7 d63c e0de 8ebe 5310 7bbe 9acb 1bbe
00000260: f77e bb3d 5b58 08bb b8e1 eebd 2cd4 bfbd
00000270: 35d8 1c3d 6f5e afbd c44b a83d 9736 a4bd
00000280: 09cd b73d 734b a83d cf32 473e db37 123c
00000290: 1720 09be 2198 4b3d 9e51 373e 07d7 66bd
000002a0: 3072 0c3d a559 413d 3b05 afba 9311 133d
000002b0: e656 c33c a1d7 1d3c 8c2a 863d 8e7c 133e
000002c0: 5232 19bc 8fe0 4dbb 178c 89bd 60ee 333e
000002d0: aea9 d53d 5af5 7e3a 16b9 19bd a432 243e
000002e0: 8349 c53d ba67 2e3e 4c4c d83d 1022 c3bb
000002f0: acde f83d bc19 313e 3d46 6fbd 63b4 1dbe
00000300: e193 e7bd 6960 80bd dfd9 0fbd a021 d2bd
00000310: d6e6 013e 8f7a 98bd 55ef 19be 0cd5 23bd
00000320: 5c23 e43d a8c6 f03d 2f85 a93c 51b7 363d
00000330: a3cb bbbd f802 e93c 7506 9cbd 99c5 8dbd
00000340: 15ee b03c 21a1 3e3e c686 bb3d e3ef 033e
00000350: 7e54 7f3d 1afd 85bd 4607 a23d 6d46 b13d
00000360: a7dc e23d 212f 68bd 3427 e43c 58a0 a9bd
00000370: f082 42be 9102 063e 8720 82bd f6e1 18bd
00000380: 1353 c1bd 6cf9 a93d acf5 883d 14a3 0cbe
00000390: c5ff 533d 4c16 593d da04 f33d b0b2 013e
000003a0: fdc0 77bb 1413 c0bb 14e7 db3c b7b5 29bd
000003b0: 74c3 38bd 2286 583d 444c 533d 6983 a53c
000003c0: 8494 72bd e009 fe3d 0e81 553d 62fa 163c
000003d0: f933 0b3b 8f92 ed3d 4080 2fbd c3c4 633e
000003e0: 0cd9 463d b454 5d3e 5b97 673e de4e 453e
000003f0: 86be 643e e31d 483e 43c0 2d3d 64f8 353e

lstm.weight_hh_l0 f4 [256, 64]
-0.022374943 -0.04347801 -0.028457366 0.015879715 0.009421868 0.014201606 0.15576708 -0.14423542
-0.07643834 0.16330075 -0.14682285 -0.02658927 0.2375136 0.14895527 -0.15161075 -0.077027425
0.07150045 -0.093931355 0.15912785 0.134932 0.1396459 -0.06536057 -0.048100673 0.03244816
-0.014852752 -0.012961171 0.04767619 -0.1615517 0.14090401 -0.044223722 -0.051216215 0.18079196
-0.063320264 0.15088154 0.16871755 -0.030437114 -0.05020697 0.12701382 -0.15915681 0.007655421
0.008294808 -0.051803086 0.10127898 0.089303136 0.07120662 -0.07816624 -0.031820755 -0.16681136
0.033531744 -0.051721413 -0.054565195 -0.075514376 -0.08586765 -0.04435711 -0.0112131 -0.017525278
0.02344643 -0.034864727 -0.14479399 -0.021790802 -0.030523598 -0.009157755 0.05382117 0.06757558
0.033656877 -0.06546999 0.12105284 -0.2418455 -0.05255853 0.14454108 0.14481749 -0.003845298
0.074547544 -0.042808067 -0.06362336 -0.17151988 0.17921811 0.13294321 -0.13579988 0.039982963
-0.062170688 -0.18329085 0.20357956 -0.048229095 0.059191734 -0.058252193 0.14659515 -0.14679359
0.08392428 -0.13781424 0.019739944 -0.13536903 0.20188163 -0.056721702 -0.12436423 0.031064924
0.028942473 0.088612944 0.04929078 0.071601234 0.13447933 0.15131342 -0.03659881 0.16744114
0.030901061 -0.198582 -0.023240753 0.07286001 0.069048814 0.0087331785 0.09021656 -0.0102819055
0.08281575 0.01359289 0.089700036 -0.019993477 -0.12218283 0.08740059 -0.1712023 -0.14228937
-0.009091135 0.056727722 -0.121984504 -0.15721305 0.019658126 -0.06059857 0.023791883 0.0035515486
-0.039813157 0.03068401 0.054803934 0.092478484 0.21695486 -0.5209804 -0.29136726 -0.043180823
0.058341388 -0.35999563 -0.13122362 0.45550233 0.032175276 -0.4030881 0.24030323 0.66939324
0.35132498 -0.19023608 0.7874028 -0.1915815 0.11394512 0.02242572 -0.0066195065 -0.025574705
0.2278685 0.40095955 -0.04248682 -0.17040224 0.20264627 0.28663835 -0.03147801 -0.096463256
-0.48499227 -0.347273 0.03425336 0.52691734 0.029911958 0.10001443 0.08689225 -0.2088529
0.027152728 0.60304534 0.08036599 -0.029560074 0.4417486 -0.18138655 -0.23296414 0.49779406
0.17192791 0.4047979 -0.40046838 0.6466143 0.18408261 0.11693422 -0.12043338 0.17955689
-0.14640178 -0.16878448 -0.22748782 0.028350277 -0.0034961922 -0.17421317 0.42076656 -0.10316382
0.028853696 -0.065344006 0.13512377 -0.051097315 0.06009549 -0.322344 -0.17395978 -0.018599942
-0.049193513 -0.2074682 -0.12130277 0.0015017603 0.2497259 -0.091677055 0.1696957 0.5477589
-0.039901834 -0.14956014 0.32777306 -0.094659306 0.44222954 0.26143897 0.19598483 0.08008661
-0.007847433 -0.027685324 -0.26159286 -0.083062984 0.21006598 0.18351045 0.008533421 -0.06611247
-0.38931155 -0.23436457 -0.0030061016 0.29279715 0.082171716 0.051942725 -0.14275476 -0.0077333143
0.09109106 0.11331181 -0.12132943 -0.08998226 0.29012424 -0.33913124 -0.077254854 0.24410067
0.019994505 0.3391461 -0.21868081 0.47922492 0.08439776 0.07392764 -0.18872178 0.18454169
0.0125041725 0.065750845 -0.06263801 -0.06526983 -0.024307081 -0.02388396 0.26123312 -0.09652705
00000000: a84b b7bc ff15 32bd 6c1f e9bc 2d16 823c
00000010: 2e5e 1a3c daad 683c 6881 1f3e 73b2 13be
00000020: b48b 9cbd 5038 273e bb58 16be bed1 d9bc
00000030: c436 733e bb87 183e d93f 1bbe 8ec0 9dbd
00000040: d46e 923d 155f c0bd 69f2 223e 9d2b 0a3e
00000050: 56ff 0e3e c3db 85bd 3605 45bd 5de8 043d
00000060: f558 73bc 175b 54bc 1c48 433d cf6d 25be
00000070: 2449 103e ef23 35bd 18c8 51bd 8721 393e
00000080: 0eae 81bd b180 1a3e 4bc4 2c3e 4157 f9bc
00000090: d3a5 4dbd e90f 023e 01fa 22be 53da fa3b
000000a0: f2e6 073c 792f 54bd 5b6b cf3d 90e4 b63d
000000b0: c7d4 913d 9f15 a0bd 7b56 02bd 99d0 2abe
000000c0: 9558 093d d5d9 53bd c17f 5fbd 48a7 9abd
000000d0: 61db afbd cdaf 35bd 26b7 37bc 2c91 8fbc
000000e0: ba12 c03c 51ce 0ebd e044 14be a082 b2bc
000000f0: a00c fabc 690a 16bc 9673 5c3d 1165 8a3d
00000100: cbdb 093d 2115 86bd 8dea f73d 59a6 77be
00000110: 9d47 57bd 9402 143e 094b 143e 6501 7cbb
00000120: 62ac 983d 8357 2fbd f74c 82bd e8a2 2fbe
00000130: f484 373e 4422 083e 200f 0bbe 2dc5 233d
00000140: b1a6 7ebd 99b0 3bbe 2977 503e df8b 45bd
00000150: 0873 723d da99 6ebd 0a1d 163e 0f51 16be
00000160: 7ee0 ab3d 2d1f 0dbe aab5 a13c 2e9e 0abe
00000170: 0fba 4e3e 0455 68bd acb2 febd de7b fe3c
00000180: c418 ed3c b47a b53d 21e5 493d aba3 923d
00000190: f3b4 093e e8f1 1a3e a2e8 15bd b175 2b3e
000001a0: 3924 fd3c 1459 4bbe 6463 bebc a137 953d
000001b0: 7769 8d3d 9b15 0f3c 76c3 b83d 7075 28bc
000001c0: 4e9b a93d b7b4 5e3c a7b4 b73d 5cc9 a3bc
000001d0: fe3a fabd 15ff b23d a84f 2fbe 4eb4 11be
000001e0: fcf2 14bc 545b 683d 03d3 f9bd 75fc 20be
000001f0: 140a a13c 3536 78bd 32e7 c23c 19c1 683b
00000200: 1f13 23bd 085d fb3c 177a 603d 5c65 bd3d
00000210: 6a29 5e3e f95e 05bf 172e 95be 60de 30bd
00000220: 61f7 6e3d 5951 b8be 7c5f 06be 9a37 e93e
00000230: 39ca 033d 9061 cebe 0d12 763e 5b5d 2b3f
00000240: dee0 b33e 3fcd 42be 3b93 493f f12d 44be
00000250: 0f5c e93d 25b6 b73c 72e8 d8bb 0b82 d1bc
00000260: 5c56 693e 924a cd3e a906 2ebd ed7d 2ebe
00000270: 8182 4f3e 43c2 923e 16ef 00bd 878e c5bd
00000280: e850 f8be c4cd b1be 404d 0c3d 0ee4 063f
00000290: ec09 f53c 5ed4 cc3d 90f4 b13d 89dd 55be
000002a0: 666f de3c 2e61 1a3f ed96 a43d f827 f2bc
000002b0: df2c e23e 65bd 39be 278e 6ebe ddde fe3e
000002c0: df0d 303e ac41 cf3e 310a cdbe 8488 253f
000002d0: 2780 3c3e 357b ef3d c7a5 f6bd c3dd 373e
000002e0: 59ea 15be d7d5 2cbe 91f2 68be d73e e83c
000002f0: 5f20 65bb f064 32be b76e d73e 8e47 d3bd
00000300: 965e ec3c 14d3 85bd e35d 0a3e 6b4b 51bd
00000310: b026 763d 460a a5be 8322 32be e85e 98bc
00000320: 237f 49bd 8b72 54be 966d f8bd b7d6 c43a
00000330: 25b8 7f3e 2ec1 bbbd b6c4 2d3e ed39 0c3f
00000340: 1b70 23bd 4b26 19be dfd1 a73e bddc c1bd
00000350: e96b e23e 54db 853e 3fb0 483e 7304 a43d
00000360: 8592 00bc 55cc e2bc 80ef 85be ed1c aabd
00000370: 891b 573e 2aea 3b3e c3cf 0b3c fa65 87bd
00000380: d853 c7be 44fd 6fbe 0402 45bb 82e9 953e
00000390: a549 a83d e5c1 543d 4e2e 12be be67 fdbb
000003a0: f38d ba3d 0610 e83d 907b f8bd 9e48 b8bd
000003b0: 2a8b 943e 9ca2 adbe cb37 9ebd 87f5 793e
000003c0: 84cb a33c 8fa4 ad3e dded 5fbe f85c f53e
000003d0: bcd8 ac3d 6067 973d 4840 41be 7ff8 3c3e
000003e0: 4dde 4c3c 61a8 863d 5b48 80bd 30ac 85bd
000003f0: a51f c7bc 4ba8 c3bc 59c0 853e f9af c5bd

lstm.bias_ih_l0 f4 [256]
-0.098106414 0.020897007 -0.061072458 -0.17089157 -0.024513926 -0.019387158 0.11301592 -0.13935275
0.17768449 0.06202515 -0.088639036 0.043376356 0.06825304 -0.0005451172 0.07640929 0.007926446
0.053618785 -0.11312548 -0.08274208 0.033100463 -0.0131773865 0.2191236 0.19530617 0.095201835
-0.14250268 0.055959582 0.25866735 -0.056373946 -0.18678509 0.14326671 -0.034388155 0.0081867445
-0.056784652 0.0034205618 0.031414732 -0.41066128 0.06593522 0.01550216 0.0997628 -0.054443914
0.14746441 0.012191747 0.031233946 0.06595791 -0.15480687 -0.024989454 0.12614343 0.03978894
-0.040873274 -0.17065176 -0.082633674 0.0077598994 0.06837425 -0.08680597 -0.03499267 -0.15555368
0.16903085 0.06145061 -0.030627664 -0.0020047182 -0.055225316 -0.10113361 0.08342236 -0.04119895
-0.02631367 0.073807836 0.13760157 -0.018462287 0.15678589 -0.08499823 0.14416581 0.041384567
0.06955635 -0.06301262 -0.098649144 0.06100672 0.06548316 -0.042293083 -0.0761098 0.047285657
0.22401881 0.03506559 0.08649807 0.11278093 0.036386292 -0.0034093717 0.17398332 -0.011767359
-0.047259115 0.091924146 0.032883897 -0.060496558 -0.031890422 -0.038040176 -0.075883865 0.062063202
0.123681284 0.062437303 0.041837133 -0.021006366 -0.013730504 -0.16736713 0.012922996 -0.008282282
0.020970643 0.10290321 -0.06891949 0.004649748 -0.02909539 0.02528844 0.063889876 0.019386109
0.18861812 -0.059901275 0.06996983 0.113408335 -0.014571801 0.108928084 0.23061858 -0.071878046
-0.10416475 -0.021596534 0.036152244 0.13633151 0.05126017 0.008673722 0.012055872 0.099572144
0.035440054 -0.099789634 -0.085526 0.07488 -0.10197196 0.10333964 0.022489155 -0.00092919066
-0.048483185 0.082722455 0.07856125 0.123003386 -0.15486301 -0.0070783133 -0.15980847 -0.04439621
0.07436411 0.16276775 -0.003993578 0.05245066 0.16147076 0.04692511 0.07706144 0.024235237
-0.011013666 -0.15781817 -0.026851034 0.061758727 0.11928247 -0.071087636 -0.025332248 -0.07839761
-0.07367612 -0.018516261 0.09619616 -0.04865057 -0.02416702 0.02568595 -0.11744861 -0.008799567
0.082614146 0.051508732 0.11884579 0.06816191 0.089155845 -0.03587388 0.08679258 -0.029476548
-0.019031553 -0.028629662 0.149204 -0.046171322 -0.018922606 0.119546294 -0.15837437 0.110603236
0.055368714 -0.08215373 -0.072066106 -0.14783011 0.08760998 0.08432771 -0.0069127604 -0.02212003
0.04763107 -0.003104059 0.0032497824 0.20038792 0.015868967 0.15924951 0.08070855 0.11699774
-0.0051726396 0.108224325 -0.1557269 -0.13259052 0.16396715 0.16583508 -0.023160638 0.08196721
-0.113726586 -0.09683513 0.07227519 0.056182615 0.029731495 0.19045402 -0.09543532 -0.10672513
-0.08062112 0.11783386 0.13159738 0.21749328 -0.042756863 0.06015871 -0.010054703 0.11428495
0.055302355 0.009499874 0.10068732 0.0732776 0.13792671 0.045366228 -0.0083773 0.013291137
0.14518349 0.030752482 -0.05595151 -0.068760544 0.13814469 0.12393272 0.079975344 0.11123665
-0.0026047188 0.10519319 -0.0022555636 0.087944396 0.18929058 -0.07514047 0.050310697 0.1300563
-0.011880094 0.047625322 -0.087591834 0.05309952 0.026659293 0.010530224 -0.046860892 0.04584317
00000000: 04ec c8bd 3330 ab3c 1d27 7abd 33fe 2ebe
00000010: 6ed1 c8bc d1d1 9ebc e474 e73d 7db2 0ebe
00000020: ecf2 353e 150e 7e3d 6288 b5bd 68ab 313d
00000030: 40c8 8b3d 32e6 0eba 797c 9c3d eddd 013c
00000040: 5f9f 5b3d 55ae e7bd ae74 a9bd 5a94 073d
00000050: f7e5 57bc f061 603e 57fe 473e 2ef9 c23d
00000060: 39ec 11be e035 653d 0c70 843e 5ee8 66bd
00000070: 9744 3fbe 82b4 123e 98da 0cbd b221 063c
00000080: 0697 68bd 812b 603b bcac 003d 3242 d2be
00000090: 0b09 873d c6fc 7d3c 7050 cc3d 9500 5fbd
000000a0: e900 173e e5bf 473c 55de ff3c f114 873d
000000b0: b185 1ebe afb6 ccbc be2b 013e baf9 223d
000000c0: bc6a 27bd 56bf 2ebe d83b a9bd c146 fe3b
000000d0: cc07 8c3d 54c7 b1bd 7954 0fbd 7749 1fbe
000000e0: 6c16 2d3e a3b3 7b3d dee6 fabc 9761 03bb
000000f0: f133 62bd 231f cfbd 58d9 aa3d 3bc0 28bd
00000100: c48f d7bc 9028 973d 6de7 0c3e 393e 97bc
00000110: 7b8c 203e 8d13 aebd 34a0 133e dd82 293d
00000120: 8f73 8e3d c30c 81bd 9008 cabd 2fe2 793d
00000130: 091c 863d 833b 2dbd 74df 9bbd 9bae 413d
00000140: 3065 653e f0a0 0f3d e625 b13d b0f9 e63d
00000150: cb09 153d c46f 5fbb af28 323e e2cb 40bc
00000160: c692 41bd ba42 bc3d 44b1 063d 3dcb 77bd
00000170: 889f 02bd 04d0 1bbd 0069 9bbd fc35 7e3d
00000180: 9d4c fd3d 42be 7f3d 6a5d 2b3d 8b15 acbc
00000190: e8f5 60bc 4a62 2bbe f9ba 533c 69b2 07bc
000001a0: a0ca ab3c ebbe d23d a925 8dbd ea5c 983b
000001b0: 7559 eebc b429 cf3c b2d8 823d 9ecf 9e3c
000001c0: 1c25 413e 0a5b 75bd 584c 8f3d a142 e83d
000001d0: 90be 6ebc b015 df3d 4727 6c3e cc34 93bd
000001e0: 5454 d5bd 37eb b0bc 6014 143d 7d9a 0b3e
000001f0: 2ff6 513d 3a1c 0e3c fe85 453c 7bec cb3d
00000200: 9729 113d 825e ccbd 4128 afbd af5a 993d
00000210: add6 d0bd bca3 d33d 2d3b b83c ee94 73ba
00000220: 4e96 46bd 646a a93d b8e4 a03d 33e9 fb3d
00000230: 6994 1ebe 32f1 e7bb d5a4 23be cdd8 35bd
00000240: 364c 983d 97ac 263e 8fdc 82bb 81d6 563d
00000250: 9758 253e 8b34 403d 63d2 9d3d fa88 c63c
00000260: aa72 34bc 169b 21be b3f6 dbbc b8f6 7c3d
00000270: 5e4a f43d 6596 91bd 9385 cfbc ed8e a0bd
00000280: 81e3 96bd 6aaf 97bc 7e02 c53d d245 47bd
00000290: eaf9 c5bc 576b d23c e688 f0bd 0f2c 10bc
000002a0: 9b31 a93d d2fa 523d 6c65 f33d 7998 8b3d
000002b0: 5797 b63d 7df0 12bd 4fc0 b13d cd78 f1bc
000002c0: 0fe8 9bbc c188 eabc efc8 183e 241e 3dbd
000002d0: 9503 9bbc b0d4 f43d e42c 22be f383 e23d
000002e0: 4eca 623d 3740 a8bd 6597 93bd c760 17be
000002f0: dc6c b33d 02b4 ac3d 7084 e2bb 1135 b5bc
00000300: cc18 433d 786d 4bbb 4dfa 543b 7e32 4d3e
00000310: a3ff 813c 4e12 233e 864a a53d 839c ef3d
00000320: 3f7f a9bb b7a4 dd3d df76 1fbe cfc5 07be
00000330: 01e7 273e acd0 293e 61bb bdbc 6dde a73d
00000340: 7ce9 e8bd 7f51 c6bd 0405 943d be1f 663d
00000350: 778f f33c 6106 433e 9873 c3bd b492 dabd
00000360: b01c a5bd e152 f13d 77c1 063e 8fb6 5e3e
00000370: d221 2fbd fb68 763d 7bbc 24bc 3a0e ea3d
00000380: b984 623d 5ca5 1b3c 2735 ce3d 9112 963d
00000390: a93c 0d3e f0d1 393d f140 09bc 12c3 593c
000003a0: fbaa 143e a1ec fb3c 692d 65bd 54d2 8cbd
000003b0: cd75 0d3e 70d0 fd3d 1dca a33d 0ad0 e33d
000003c0: eeb3 2abb 876f d73d 14d2 13bb 311c b43d
000003d0: 64d5 413e 3fe3 99bd 9712 4e3d 7b2d 053e
000003e0: baa4 42bc c512 433d 5963 b3bd e27e 593d
000003f0: 9764 da3c f686 2c3c 35f1 3fbd 0cc6 3b3d

lstm.bias_hh_l0 f4 [256]
-0.02998317 0.06254109 -0.25805676 -0.049424842 0.09940909 0.07140435 0.0696959 -0.14772023
0.067412764 0.0017313891 0.0064992867 -0.011629876 0.063458115 0.17351091 0.17907022 -0.14757174
0.07724706 -0.057970073 0.013835879 0.07905922 -0.12921134 0.18115315 0.056112174 0.16968505
-0.15858135 -0.06763545 0.33117843 0.102501296 -0.09706713 0.023816476 0.071405195 -0.111198924
-0.12525482 0.15295427 0.09890376 -0.19891097 -0.06701873 -0.1674207 0.09050674 0.009566397
-0.08279111 0.1120857 0.1441918 -0.046005312 -0.014714939 -0.09231051 -0.011162125 0.17687017
0.06699045 -0.2214419 -0.034915302 0.14611854 -0.0049127983 -0.11964898 0.10438352 -0.15639862
0.1643225 -0.06917524 -0.16440038 0.12156334 0.07726439 0.10851269 0.035900712 0.023434548
0.15746069 0.05842518 -0.004927464 0.111483686 0.04619234 -0.07885017 -0.024191624 0.042766996
-0.060427163 0.08919218 -0.1309282 -0.05132291 0.052612875 -0.058550775 -0.038144432 0.06901005
0.21502548 -0.07069092 -0.023193263 0.0006172238 0.12665087 -0.058135755 0.26816773 0.12947157
-0.0018515555 0.16320387 0.17354456 0.032423355 0.08678624 0.05139444 0.082646176 -0.07297895
-0.02291634 0.08332146 0.111741275 0.085031375 -0.05182139 -0.002153593 0.15350136 0.018955922
0.052763063 0.21825907 0.008991453 -0.17571403 0.018866172 0.0553368 0.011727706 -0.040301803
0.03704463 0.05894375 0.12735796 0.12482949 0.13077717 0.103033625 0.20432146 0.13147937
-0.008483556 -0.047224574 -0.07018972 0.16076478 0.0039731767 -0.033561587 -0.052250564 -0.04038045
0.02695108 -0.047432695 -0.03187416 -0.042580552 -0.06713056 -0.046224322 0.026180705 0.0152090555
0.009447267 0.15157796 0.06839347 0.014899431 -0.19275689 0.010109043 0.0005879985 -0.028052328
-0.0014665201 0.1797186 0.010527022 0.14838181 0.039783906 -0.010703535 -0.06628825 0.017310726
0.00081091246 -0.040378414 0.00641184 0.19957274 -0.0105819 0.09904731 0.061008573 0.164582
0.06444956 0.006307167 0.121132016 -0.057467237 0.049694892 0.07973114 -0.012787289 -0.08879576
0.023770478 -0.15590613 -0.073647045 0.10194815 0.101183556 -0.0365444 0.07609596 0.014455598
-0.086486205 0.10755075 0.011995054 -0.024942635 0.08653518 -0.055841636 0.026675237 -0.0117579885
0.037167456 -0.054777436 0.07509211 -0.06921777 0.08981658 -0.06533103 -0.06833398 -0.11437448
0.18056267 0.14423156 -0.014328589 0.021658706 0.16232844 0.06783191 0.03131404 -0.11946425
-0.0150431115 0.11111239 -0.15696716 -0.12026861 0.05200388 0.11410353 -0.11074409 0.045270186
-0.082552575 -0.108071215 -0.08944935 0.044944447 0.02153416 0.19362937 -0.1396928 -0.07572203
-0.06219245 -0.044581883 0.08270132 0.032128196 0.044918835 -0.054484043 -0.014231646 0.04186572
0.0812663 0.19581509 -0.0663298 -0.041927066 0.1313469 -0.04248409 0.13765593 0.018530603
0.04399862 0.037859574 -0.17643037 -0.14573881 -0.062121708 0.0976945 0.15371977 0.11934743
0.17345123 0.16746756 0.20563234 0.151858 0.01214715 0.023632104 0.05329856 0.016112255
-0.03203159 0.10973876 0.09671921 0.097740166 0.04428807 -0.11308251 -0.0005507347 -0.06964817
00000000: 449f f5bc 8b15 803d 0420 84be b471 4abd
00000010: fe96 cb3d 723c 923d b9bc 8e3d f943 17be
00000020: b40f 8a3d c7ef e23a f8f7 d43b 3c8b 3ebc
00000030: 54f6 813d d8ac 313e 2f5e 373e 0c1d 17be
00000040: b533 9e3d 0772 6dbd e2af 623c cde9 a13d
00000050: fa4f 04be 3680 393e e1d5 653d ebc1 2d3e
00000060: 2663 22be 7484 8abd 3890 a93e 33ec d13d
00000070: 22cb c6bd c51a c33c e33c 923d 43bc e3bd
00000080: cd42 00be 0ba0 1c3e 0e8e ca3d 51af 4bbe
00000090: 1e41 89bd 5570 2bbe 995b b93d 61bc 1c3c
000000a0: 638e a9bd 308d e53d 04a7 133e 1170 3cbd
000000b0: ed16 71bc 4b0d bdbd 58e1 36bc 741d 353e
000000c0: 4a32 893d aac1 62be 5903 0fbd 19a0 153e
000000d0: 8afb a0bb 860a f5bd 07c7 d53d f626 20be
000000e0: 2844 283e c0ab 8dbd 9358 28be 33f6 f83d
000000f0: cb3c 9e3d e73b de3d a00c 133d cff9 bf3c
00000100: 603d 213e 3e4f 6f3d 9076 a1bb 8f51 e43d
00000110: 2e34 3d3d 337c a1bd 832d c6bc 722c 2f3d
00000120: 7982 77bd 64aa b63d 0b12 06be f937 52bd
00000130: 9980 573d f0d2 6fbd 563d 1cbd 2455 8d3d
00000140: a42f 5c3e 67c6 90bd ccff bdbc 30cd 213a
00000150: c4b0 013e c21f 6ebd 484d 893e 3294 043e
00000160: e5af f2ba ea1e 273e aab5 313e 5ace 043d
00000170: fcbc b13d fa82 523d 6642 a93d fd75 95bd
00000180: 0cbb bbbc 71a4 aa3d 9cd8 e43d ee24 ae3d
00000190: aa42 54bd 4c23 0dbb 762f 1d3e 7349 9b3c
000001a0: 151e 583d 4e7f 5f3e e350 133c 61ee 33be
000001b0: 3b8d 9a3c d7a8 623d 9025 403c 8113 25bd
000001c0: 1cbc 173d 006f 713d 206a 023e 9ba6 ff3d
000001d0: 73ea 053e 4b03 d33d a539 513e 87a2 063e
000001e0: 9dfe 0abc 8e6e 41bd a1bf 8fbd 869f 243e
000001f0: 6c31 823b e077 09bd b004 56bd f965 25bd
00000200: 83c8 dc3c c948 42bd 7b8e 02bd f268 2ebd
00000210: bf7b 89bd b755 3dbd eb78 d63c 672f 793c
00000220: b6c8 1a3c 4137 1b3e e011 8c3d be1c 743c
00000230: 1062 45be 66a0 253c e923 1a3a ffcd e5bc
00000240: 4038 c0ba 2708 383e 8879 2c3c 67f1 173e
00000250: 73f4 223d e15d 2fbc 22c2 87bd 39cf 8d3c
00000260: 6a93 543a d663 25bd 6a1a d23b cc5c 4c3e
00000270: b55f 2dbc 51d9 ca3d 20e4 793d 2f88 283e
00000280: 22fe 833d 5aac ce3b 1014 f83d c462 6bbd
00000290: df8c 4b3d 144a a33d c781 51bc 8dda b5bd
000002a0: 4eba c23c dba5 1fbe 43d4 96bd 31ca d03d
000002b0: 5339 cf3d 95af 15bd 33d8 9b3d 2cd7 6c3c
000002c0: ae1f b1bd 9143 dc3d e786 443c 7f54 ccbc
000002d0: 5b39 b13d 33ba 64bd 0786 da3c 94a4 40bc
000002e0: e73c 183d 4e5e 60bd e4c9 993d 0cc2 8dbd
000002f0: c1f1 b73d 46cc 85bd b0f2 8bbd 2b3d eabd
00000300: 6ce5 383e 70b1 133e 75c2 6abc 996d b13c
00000310: 6d39 263e 75eb 8a3d 2743 003d aca9 f4bd
00000320: 6277 76bc e58e e33d 00bc 20be 644f f6bd
00000330: 0502 553d 1daf e93d cccd e2bd 3b6d 393d
00000340: 5311 a9bd 7154 ddbd 3931 b7bd ab17 383d
00000350: 6868 b03c c746 463e a10b 0fbe 2714 9bbd
00000360: 83bd 7ebd 7e9b 36bd 4f5f a93d db98 033d
00000370: d0fc 373d a92a 5fbd da2b 69bc 647b 2b3d
00000380: f26e a63d c083 483e ebd7 87bd b7bb 2bbd
00000390: cd7f 063e cc03 2ebd adf5 0c3e 7ecd 973c
000003a0: e637 343d a412 1b3d 2aaa 34be 8e3c 15be
000003b0: 5573 7ebd 0e14 c83d b768 1d3e 6d6c f43d
000003c0: 339d 313e 9e7c 2b3e 4991 523e aa80 1b3e
000003d0: d704 473c 1d98 c13c 974f 5a3d d9fd 833c
000003e0: 8e33 03bd b7be e03d b914 c63d ff2b c83d
000003f0: 6867 353d ce97 e7bd 2e5f 10ba b3a3 8ebd

lstm.weight_ih_l0_reverse f4 [256, 19]
-0.05949339 -0.19621632 -0.03324946 0.01847379 -0.1555655 -0.048328236 -0.080088034 -0.039384075
-0.17883849 0.13362242 0.07259314 0.09451696 -0.14581725 -0.17111027 -0.00041047225 -0.068417326
-0.03514888 -0.18324332 -0.090766154 0.09370998 0.10639604 -0.1392695 0.03653003 -0.14318316
-0.056512807 -0.08392247 0.11263173 0.028445218 0.062031187 0.13150729 -0.028204734 0.09079146
0.057418585 -0.00011720734 0.13994102 -0.05280291 -0.14823839 0.030374777 0.06701671 0.19720064
0.07734303 0.15385896 0.083125316 0.057534292 0.11701126 -0.061316874 0.11947202 0.13601302
-0.0002408088 0.11534695 0.008377184 0.10604618 0.109568425 0.1341983 0.16614878 0.018173639
-0.0022569413 0.23022929 0.17718458 0.14027251 0.064426206 0.13927677 0.085425496 0.22291343
0.07964176 0.13979986 0.15178461 0.21687816 0.22189474 -0.017939908 0.2423487 0.1530794
0.08652837 0.14293486 0.1412125 0.19387408 0.15776393 0.00064473285 -0.1211799 0.102228254
0.032261778 0.1569537 0.014398616 0.020934286 -0.032215238 -0.03894061 -0.046528257 0.26220593
0.019154983 0.22657956 0.07595283 0.17586322 0.16174684 -0.06322104 0.022416633 0.10249541
0.027913582 -0.066817686 -0.2065058 -0.13333556 -0.1339142 -0.058243003 -0.016250983 0.051477846
-0.06175905 -0.17456499 -0.22468477 -0.022151042 -0.12479273 0.14486791 0.028721087 0.02804419
-0.017803177 -0.06470033 0.20254388 0.12293867 0.050632164 0.044989496 0.13131519 0.15249214
0.2311938 0.041982237 0.2292917 0.20515826 -0.012993057 0.22949472 0.023950417 0.1834439
0.090377055 0.22997177 -0.052687205 0.21856636 -0.024441741 -0.15684609 -0.012954811 -0.12084265
-0.06757734 -0.12607506 -0.14678113 0.040706225 0.029971546 0.027907945 -0.06388816 0.039342605
-0.12621674 -0.15952653 0.050576575 0.054242373 -0.15246911 -0.011998319 -0.16976331 -0.11518542
0.2249622 0.23424129 0.01976663 -0.113964364 -0.02248373 0.112916976 -0.08686937 -0.012570198
0.09703349 0.025014104 -0.16281787 0.02510379 0.06507822 0.07272859 -0.06342292 -0.09982061
0.024624642 0.05660203 0.17567082 -0.014933673 -0.15539771 0.030497275 0.058302302 -0.006882553
-0.018386794 -0.28104258 -0.045893785 -0.18879448 -0.25546584 -0.021659736 -0.17191741 0.06507662
0.011887333 -0.14341517 0.03431061 -0.102148145 -0.26234442 -0.18478733 -0.16433626 0.028699202
-0.13809584 -0.08682916 -0.106762916 -0.016434504 0.20021667 0.17137523 0.16148289 0.26680258
0.2425628 0.16618921 0.12117333 0.14359699 -0.08324839 -0.040913105 0.028340695 0.15143323
0.31355274 -0.109921485 -0.21730469 0.004440136 -0.0498082 -0.17667764 -0.18006214 -0.029196944
-0.12000688 -0.16242947 -0.09357818 -0.03491637 0.024710083 -0.014893685 0.1003575 -0.0436999
0.00573649 -0.04377695 -0.361604 -0.15472439 0.08704672 0.1552951 0.068441145 -0.010977427
0.007977037 0.07087361 0.20625323 0.20444247 0.19806112 0.043441158 0.082074024 0.07874547
0.12961395 0.0885723 0.081179574 0.17312531 0.10716405 0.055516616 0.022511818 -0.02758975
-0.1350712 -0.05274814 -0.038449287 -0.10643692 -0.0070550954 -0.12536418 -0.06271356 0.020885445
00000000: 57af 73bd eeec 48be 9630 08bd 5856 973c
00000010: 904c 1fbe d4f3 45bd 3205 a4bd 3251 21bd
00000020: 7021 37be 51d4 083e b6ab 943d 1c92 c13d
00000030: 1e51 15be 8837 2fbe a734 d7b9 621e 8cbd
00000040: 46f8 0fbd 23a4 3bbe 9be3 b9bd 05eb bf3d
00000050: 2be6 d93d aa9c 0ebe 83a0 153d 9b9e 12be
00000060: f979 67bd 8bdf abbd 77ab e63d f205 e93c
00000070: 6a14 7e3d d9a9 063e 9d0d e7bc dff0 b93d
00000080: c02f 6b3d 36cd f5b8 b34c 0f3e dd47 58bd
00000090: cecb 17be 86d4 f83c 0f40 893d f7ee 493e
000000a0: 0666 9e3d 348d 1d3e 9b3d aa3d 14a9 6b3d
000000b0: 99a3 ef3d 6727 7bbd bfad f43d ff46 0b3e
000000c0: 9f81 7cb9 063b ec3d 7540 093c bd2e d93d
000000d0: 6965 e03d 476b 093e e822 2a3e e2e0 943c
000000e0: 31e9 13bb 3ac1 6b3e e06f 353e 99a3 0f3e
000000f0: e3f1 833d 929e 0e3e 90f3 ae3d 6b43 643e
00000100: 381b a33d b227 0f3e 6d6d 1b3e 4f15 5e3e
00000110: 6038 633e b7f6 92bc 422a 783e d9c0 1c3e
00000120: c935 b13d 845d 123e 029a 103e ed86 463e
00000130: de8c 213e 4a03 293a 2b2d f8bd 0c5d d13d
00000140: ed24 043d 79b8 203e 2ce8 6b3c 617e ab3c
00000150: 20f4 03bd 3080 1fbd 6a94 3ebd db3f 863e
00000160: e9ea 9c3c 7904 683e 288d 9b3d 7d15 343e
00000170: f7a0 253e 087a 81bd 16a3 b73c 1de9 d13d
00000180: 06ab e43c b6d7 88bd 4276 53be 1e89 08be
00000190: ce20 09be 3790 6ebd c820 85bc 6fda 523d
000001a0: 0ff7 7cbd 2ac1 32be c413 66be 1a76 b5bc
000001b0: 5593 ffbd 4158 143e 7c48 eb3c eebc e53c
000001c0: f8d7 91bc 9b81 84bd aa67 4f3e 45c7 fb3d
000001d0: ac63 4f3d e846 383d 7d77 063e e626 1c3e
000001e0: 11be 6c3e 91f5 2b3d 72cb 6a3e 0215 523e
000001f0: d5e0 54bc aa00 6b3e aa33 c43c b8d8 3b3e
00000200: 9b17 b93d b87d 6b3e 8ace 57bd dccf 5f3e
00000210: 0c3a c8bc 439c 20be 6a40 54bc 5a7c f7bd
00000220: fd65 8abd d219 01be cb4d 16be 92bb 263d
00000230: e386 f53c 349f e43c ccd7 82bd b625 213d
00000240: f63e 01be ec5a 23be 6229 4f3d 402d 5e3d
00000250: dd20 1cbe 9994 44bc 6fd6 2dbe 55e6 ebbd
00000260: 7e5c 663e f3dc 6f3e a1ed a13c 2666 e9bd
00000270: cd2f b8bc 0441 e73d 91e8 b1bd 3bf3 4dbc
00000280: 7fb9 c63d 61ea cc3c bab9 26be 77a6 cd3c
00000290: bb47 853d baf2 943d e0e3 81bd bf6e ccbd
000002a0: 9eb9 c93c 88d7 673d 0de3 333e 5dac 74bc
000002b0: 9420 1fbe 6cd5 f93c 65ce 6e3d 0a87 e1bb
000002c0: e79f 96bc d0e4 8fbe 1ffb 3bbd 5753 41be
000002d0: 6bcc 82be c26f b1bc 1e0b 30be e446 853d
000002e0: 17c3 423c 6ddb 12be 4889 0c3d 0c33 d1bd
000002f0: 0252 86be e438 3dbe c447 28be 971a eb3c
00000300: ff68 0dbe 7dd3 b1bd 84a6 dabd a7a1 86bc
00000310: 9905 4d3e fd7c 2f3e c55b 253e 599a 883e
00000320: 6262 783e 812d 2a3e b929 f83d 170b 133e
00000330: 227e aabd 8094 27bd bf2a e83c 5011 1b3e
00000340: fc89 a03e 841e e1bd 1f85 5ebe 8f7e 913b
00000350: af03 4cbd fcea 34be 3662 38be 6e2e efbc
00000360: 2bc6 f5bd e953 26be eba5 bfbd 7804 0fbd
00000370: cd6c ca3c a404 74bc 3c88 cd3d abfe 32bd
00000380: 2af9 bb3b 764f 33bd 2924 b9be 1270 1ebe
00000390: 8d45 b23d ae05 1f3e df2a 8c3d aada 33bc
000003a0: 1eb2 023c 2f26 913d 0c34 533e 5e59 513e
000003b0: 89d0 4a3e 5bef 313d 6d16 a83d 4e45 a13d
000003c0: 85b9 043e 6565 b53d 7a41 a63d c347 313e
000003d0: d378 db3d 6465 633d b46a b83c e603 e2bc
000003e0: 1b50 0abe 6f0e 58bd 007d 1dbd 9afb d9bd
000003f0: 6e2e e7bb 785f 00be f86f 80bd f417 ab3c

lstm.weight_hh_l0_reverse f4 [256, 64]
0.36742467 0.34568596 -0.34566158 0.37636027 0.22751178 -0.17576268 -0.38128453 0.35992578
-0.08508403 0.6385416 0.31713444 0.6806094 -0.3151101 -0.05994 0.22856215 -0.2909807
-0.1534403 0.0112769725 0.30774048 0.12102544 0.124164216 -0.2706081 -0.2671993 0.17817497
0.2279182 0.22904082 0.36897087 -0.04512834 -0.072209075 0.37406114 0.23467524 0.12236748
0.18637471 -0.21879733 -0.13577381 -0.08303746 -0.022455791 -0.22484651 0.054235708 -0.26775244
0.42577386 0.3742437 0.0775329 0.06803592 0.19672713 0.00535913 -0.028750636 -0.0100189075
-0.28409776 -0.08519968 0.39712968 0.2471219 -0.048202865 -0.09350963 -0.091467604 -0.18419667
-0.38637376 0.46721908 0.42775565 -0.17346156 -0.23902358 -0.32384324 -0.5936256 0.39702702
0.1629909 -0.2467422 -0.12730554 -0.08656819 -0.06483688 -0.018396717 0.121658884 -0.03431122
0.084297016 0.2221801 0.20005448 0.25290135 -0.000298697 0.059272837 0.12286648 -0.028780032
-0.21329525 0.05405216 -0.022206178 0.046684977 0.06134986 -0.13362604 -0.07871004 -0.08722228
-0.10935106 0.01035892 -0.07087509 0.10064531 -0.22144553 0.010489246 0.062292915 0.08609162
0.06304951 -0.1574724 0.03797193 -0.24664293 0.092671 -0.16141997 0.019977253 -0.030371936
0.23306496 0.08866118 0.07887792 0.06167505 0.006438914 -0.060854018 0.1507563 0.018614342
-0.044674966 0.056066792 0.14935763 0.12835974 -0.044680495 -0.033026073 -0.04781618 -0.17693134
-0.042666946 -0.003645096 0.101567425 0.052011166 0.16524887 -0.047071006 0.09211427 0.087302305
-0.05330193 0.2737368 0.0047825966 -0.078246415 0.07564935 0.013260262 -0.13645092 0.15091766
0.07574103 0.06574528 0.04611304 -0.022047285 0.05493091 -0.14824457 -0.09722171 0.037794523
0.0011017291 -0.101324365 0.29381862 -0.0146474065 0.050549276 -0.27165943 -0.051402166 0.11779224
0.2586137 -0.022319369 -0.11199242 -0.08096865 -0.057697844 -0.08272047 -0.050925724 0.0712887
0.13581023 0.044956733 -0.15287295 0.066663615 -0.045821603 -0.1343671 -0.10654485 0.08016269
0.036984395 0.006666857 -0.00939013 0.007572533 0.13059138 0.11076241 -0.09970679 -0.08073014
-0.11909638 -0.0061886716 0.080557086 0.08797617 -0.047295675 0.08659628 0.027466804 0.018845137
-0.097193666 0.19380543 0.11535185 0.05669263 0.0074008745 -0.014681725 -0.09207956 0.08270039
0.0040635043 -0.055559736 0.08605445 0.07615163 0.02022708 -0.053664718 0.052284677 0.041393276
0.09272553 0.030942602 0.04719752 0.08266057 0.039317172 0.030899247 0.0595161 -0.07272087
-0.0030738693 -0.18030041 -0.1086555 -0.08509147 0.10727101 -0.0042107026 0.07830422 0.021951715
-0.0019803022 -0.10236158 -0.056552153 -0.08716133 -0.034853756 0.15078945 0.022293126 0.07332453
0.033778198 -0.089953244 -0.050389882 0.0933369 0.053349238 0.030836426 -0.08644873 0.00096813566
0.042721387 -0.078775056 0.08329995 -0.053524558 -0.029347014 -0.020892845 -0.118096374 -0.08371774
0.01261814 -0.007337485 0.10957329 0.057715256 0.026541313 0.092696466 0.064973556 0.086826295
-0.12945375 0.07628238 -0.05848018 0.054098345 -0.107343614 -0.11179229 0.006573174 0.15468149
00000000: 161f bc3e c0fd b03e 8efa b0be 4bb2 c03e
00000010: d9f8 683e 22fb 33be ba37 c3be 3148 b83e
00000020: 8940 aebd 7677 233f 725f a23e 6b3c 2e3f
00000030: 1c56 a1be a583 75bd 320c 6a3e 6cfb 94be
00000040: 741f 1dbe 0dc3 383c 2990 9d3e 30dc f73d
00000050: cf49 fe3d 258d 8abe 59ce 88be 8073 363e
00000060: 6363 693e ad89 6a3e c0e9 bc3e 7fd8 38bd
00000070: 5ae2 93bd f184 bf3e b54e 703e cd9b fa3d
00000080: 03d9 3e3e 680c 60be 4a08 0bbe 8b0f aabd
00000090: 35f5 b7bc 2a3e 66be 4326 5e3d d916 89be
000000a0: 08ff d93e df9c bf3e 92c9 9e3d 6b56 8b3d
000000b0: d672 493e a49b af3b 7486 ebbc 5826 24bc
000000c0: 4375 91be 2b7d aebd 9554 cb3e 860d 7d3e
000000d0: 5e70 45bd fa81 bfbd 5e53 bbbd 0d9e 3cbe
000000e0: c8d2 c5be 5737 ef3e ca02 db3e e89f 31be
000000f0: 99c2 74be c8ce a5be d9f7 17bf 2047 cb3e
00000100: 16e7 263e fda9 7cbe 625c 02be aa4a b1bd
00000110: 33c9 84bd b6b4 96bc 4b28 f93d ec89 0cbd
00000120: eaa3 ac3d 2e83 633e 15db 4c3e 497c 813e
00000130: 6f9a 9cb9 13c8 723d 6ca1 fb3d 1ac4 ebbc
00000140: 126a 5abe cc65 5d3d bbe9 b5bc bf38 3f3d
00000150: fe49 7b3d 44d5 08be bb32 a1bd 98a1 b2bd
00000160: 73f3 dfbd 76b8 293c f626 91bd 211f ce3d
00000170: 9ec2 62be 16db 2b3c db26 7f3d ce50 b03d
00000180: 1a20 813d 7240 21be 7488 1b3d f78f 7cbe
00000190: 4bca bd3d 474b 25be 56a7 a33c 91ce f8bc
000001a0: 95a8 6e3e fe93 b53d bf8a a13d fa9e 7c3d
000001b0: 87fd d23b 1042 79bd dc5f 1a3e 1b7d 983c
000001c0: 19fd 36bd 4ba6 653d 35f1 183e bc70 033e
000001d0: e502 37bd 5946 07bd e6da 43bd 7d2d 35be
000001e0: 89c3 2ebd 90e2 6ebb 9502 d03d a909 553d
000001f0: 0037 293e 87cd 40bd 68a6 bc3d 8dcb b23d
00000200: 2053 5abd 3b27 8c3e 54b7 9c3b a83f a0bd
00000210: 0cee 9a3d 9241 593c cab9 0bbe 298a 1a3e
00000220: 1d1e 9b3d 76a5 863d 07e1 3c3d 829c b4bc
00000230: 3cff 603d 6dcd 17be 2d1c c7bd 6ece 1a3d
00000240: e567 903a 2683 cfbd 656f 963e adfb 6fbc
00000250: c20c 4f3d f216 8bbe 148b 52bd 0f3d f13d
00000260: 0469 843e 1cd7 b6bc 485c e5bd e4d2 a5bd
00000270: 9354 6cbd 5a69 a9bd 7e97 50bd cfff 913d
00000280: d611 0b3e 8d24 383d ba8a 1cbe ef86 883d
00000290: 6faf 3bbd 8797 09be 3034 dabd 562c a43d
000002a0: f37c 173d a675 da3b 0fd9 19bc 0323 f83b
000002b0: bfb9 053e 67d7 e23d 1333 ccbd d855 a5bd
000002c0: cee8 f3bd 57ca cabb 1dfb a43d da2c b43d
000002d0: 1cb9 41bd 6459 b13d 1002 e13c 1e61 9a3c
000002e0: 790d c7bd ee74 463e 973d ec3d 8836 683d
000002f0: 0983 f23b 9e8b 70bc 3594 bcbd d25e a93d
00000300: 2527 853b 9b92 63bd 513d b03d 63f5 9b3d
00000310: 43b3 a53c 89cf 5bbd 7528 563d ff8b 293d
00000320: e2e6 bd3d 577b fd3c 3052 413d f249 a93d
00000330: 0b0b 213d 6b20 fd3c 27c7 733d aeee 94bd
00000340: f872 49bb aca0 38be c686 debd 7044 aebd
00000350: e7b0 db3d eff9 89bb f75d a03d 15d4 b33c
00000360: f5c7 01bb f3a2 d1bd 3ba3 67bd a481 b2bd
00000370: d0c2 0ebd 8d68 1a3e 13a0 b63c 2c2b 963d
00000380: 025b 0a3d 6839 b8bd 9f65 4ebd 6b27 bf3d
00000390: bb84 5a3d ac9c fc3c 080c b1bd 7cca 7d3a
000003a0: 9ffc 2e3d d154 a1bd 2a99 aa3d 913c 5bbd
000003b0: 2669 f0bc 7927 abbc 83dc f1bd 3574 abbd
000003c0: 51bc 4e3c 496f f0bb f667 e03d d566 6c3d
000003d0: 2b6d d93c a5d7 bd3d db10 853d fcd1 b13d
000003e0: 868f 04be f039 9c3d ea88 6fbd 3a96 5d3d
000003f0: f8d6 dbbd 5bf3 e4bd c863 d73b d364 1e3e

lstm.bias_ih_l0_reverse f4 [256]
-0.020226918 0.17758656 0.12943141 0.15304284 -0.11606442 0.03640037 0.15829697 -0.046604354
-0.07288799 -0.12962177 0.013766457 0.1364548 -0.02446875 -0.08186102 -0.014166556 0.055374786
0.119075015 0.1594352 0.16118014 0.12657756 -0.035222903 0.09367341 -0.05804336 0.1516594
0.16950628 0.22052947 0.067576945 0.24200775 0.04518163 0.10750175 -0.05719685 0.2200285
-0.0851957 0.04463518 0.17665935 0.0313833 0.2194592 0.11938995 0.0013849223 -0.006849409
0.032488488 0.05503965 -0.07708877 -0.03674421 -0.013046453 0.15478356 0.051484253 -0.09136404
0.0037185147 0.07272886 0.02865495 -0.09486865 -0.041496284 0.054777097 0.05891034 0.08834965
0.05157341 0.18368705 -0.00307134 0.22045489 -0.17317042 0.12233385 -0.009946393 0.025306044
0.057843953 -0.1247439 0.01763085 0.10807854 -0.039031167 -0.12594458 -0.00041810205 -0.06792339
-0.048870802 0.12335331 0.13443953 0.25475076 0.06918503 0.13501655 -0.031583715 0.21056405
-0.09157268 0.1352588 0.07317731 0.056736674 -0.06393092 0.04944195 0.134562 0.06574866
0.036643557 0.09155105 0.017870218 0.16424239 0.035070263 0.12226241 -0.08604157 0.07986877
0.002994715 0.16577105 0.08786363 0.18780924 0.0055987816 0.08730798 0.1249888 0.03159153
0.103721 -0.10025466 0.014307021 -0.05230442 0.03752166 0.049895234 0.027038401 0.038132835
0.11585229 -0.017499173 0.16674069 -0.0013292731 -0.09250968 0.06844161 0.021044513 -0.069969594
0.25129405 0.055494964 0.042702634 -0.10185149 -0.092322595 0.21029115 0.202631 0.22756821
0.020443853 -0.20729996 -0.1423666 -0.029983126 -0.08175421 0.021035405 0.069177546 0.16969298
0.022203008 -0.067466736 0.056754395 0.12858398 -0.045370042 0.12482948 0.1311826 -0.02372722
-0.1549572 -0.06637843 0.08878139 -0.10201391 -0.11581799 0.13015066 0.060843144 0.007881756
-0.011631175 0.06658452 -0.094517745 -0.14596389 -0.081351176 0.035739016 -0.20230712 0.07455992
-0.030381862 -0.055277403 -0.08848661 0.0036659834 0.1772366 -0.0390343 0.3051136 -0.089768045
-0.15913495 0.034168083 -0.010966295 -0.0055053574 -0.095186315 0.105838664 0.1608027 0.027764367
-0.060625166 -0.029404508 0.037726805 -0.10851365 0.061651792 -0.027803771 -0.056936026 -0.0712023
0.04971521 0.08245889 0.11991657 0.042648837 0.08503841 -0.03281662 -0.0026359425 -0.13052954
0.19508478 -0.04573266 0.056017302 -0.011457746 0.2499258 0.011190577 0.025559986 0.1940116
0.025041092 0.16055588 0.08943626 0.024539154 -0.030224057 0.06018155 0.03562998 0.035244558
-0.027106233 0.10209411 0.10922368 -0.08227888 -0.011133952 0.23943873 -0.043832753 0.23637383
0.027819071 0.2439049 0.06256118 -0.063475795 0.07178836 0.18910658 0.102286056 0.2337782
0.15606198 0.039929926 0.14180703 0.15698276 0.1597043 0.09887397 0.015509873 0.07656066
0.011513581 -0.13053977 0.16494635 -0.06197701 0.123660356 -0.11720365 0.07217001 0.021480067
0.022688104 -0.10837336 0.07231075 0.031823847 -0.08074014 0.11705078 0.12954228 0.08772058
0.18583791 0.075990975 0.19347754 0.04491811 -0.044761747 -0.03293359 0.0041959337 0.17124411
00000000: ecb2 a5bc 40d9 353e ab89 043e 43b7 1c3e
00000010: 2fb3 edbd 8e18 153d 9a18 223e 35e4 3ebd
00000020: 4c46 95bd 92bb 04be b58c 613c cfba 0b3e
00000030: b072 c8bc c0a6 a7bd d81a 68bc acd0 623d
00000040: 9add f33d fb42 233e 680c 253e 8c9d 013e
00000050: e445 10bd d8d7 bf3d e0be 6dbd 9a4c 1b3e
00000060: 0e93 2d3e 7ad2 613e c865 8a3d e1d0 773e
00000070: 5f10 393d e129 dc3d 3f47 6abd 274f 613e
00000080: 157b aebd 61d3 363d 30e6 343e c68b 003d
00000090: eab9 603e b882 f43d 4886 b53a 0271 e0bb
000000a0: a612 053d 4271 613d b8e0 9dbd 1981 16bd
000000b0: cac0 55bc 957f 1e3e 27e1 523d 121d bbbd
000000c0: 53b2 733b def2 943d c9bd ea3c 7f4a c2bd
000000d0: 02f8 29bd f35d 603d f84b 713d a9f0 b43d
000000e0: a43e 533d 7518 3c3e 8948 49bb edbe 613e
000000f0: 9653 31be 2b8a fa3d 32f6 22bc 9f4e cf3c
00000100: c8ed 6c3d bb79 ffbd 936e 903c 4858 dd3d
00000110: 25df 1fbd 9ef7 00be b534 dbb9 6b1b 8bbd
00000120: c02c 48bd a9a0 fc3d 84aa 093e b16e 823e
00000130: e2b0 8d3d c741 0a3e ed5d 01bd 1a9e 573e
00000140: 758a bbbd 4881 0a3e fcdd 953d b764 683d
00000150: 37ee 82bd a483 4a3d 9fca 093e 3ca7 863d
00000160: 8e17 163d 1e7f bb3d 9064 923c 282f 283e
00000170: d6a5 0f3d b764 fa3d 9036 b0bd 3d92 a33d
00000180: fb42 443b e3bf 293e d9f1 b33d 1151 403e
00000190: fc75 b73b 87ce b23d 21fa ff3d 1f66 013d
000001a0: ad6b d43d 5152 cdbd ff67 6a3c 293d 56bd
000001b0: 50b0 193d f25e 4c3d a37f dd3c 2d31 1c3d
000001c0: f743 ed3d 6d5a 8fbc 12be 2a3e 013b aeba
000001d0: b775 bdbd 1d2b 8c3d 8b65 ac3c 384c 8fbd
000001e0: 9da9 803e b04e 633d f5e8 2e3d 8497 d0bd
000001f0: a113 bdbd 9056 573e 807e 4f3e a407 693e
00000200: de79 a73c 7146 54be 8dc8 11be 2c9f f5bc
00000210: c06e a7bd 7152 ac3c f5ac 8d3d ffc3 2d3e
00000220: 15e3 b53c 002c 8abd 4c77 683d 85ab 033e
00000230: f0d5 39bd 99a6 ff3d bb54 063e 965f c2bc
00000240: 1aad 1ebe 6af1 87bd 04d3 b53d abec d0bd
00000250: fb31 edbd 3746 053e a936 793d 7b22 013c
00000260: af90 3ebc 775d 883d 8592 c1bd 8f77 15be
00000270: 729b a6bd 1363 123d 9929 4fbe dfb2 983d
00000280: 62e3 f8bc 8f6a 62bd 7838 b5bd ff40 703b
00000290: 837d 353e 6ee2 1fbd da37 9c3e 4fd8 b7bd
000002a0: 46f4 22be d5f3 0b3d faab 33bc 4966 b4bb
000002b0: 0bf1 c2bd f1c1 d83d 77a9 243e 1972 e33c
000002c0: 1852 78bd b9e1 f0bc 6c87 1a3d 683c debd
000002d0: 9786 7c3d bcc4 e3bc c035 69bd 83d2 91bd
000002e0: 2da2 4b3d 35e0 a83d d296 f53d 8cb0 2e3d
000002f0: 9e28 ae3d b86a 06bd c7bf 2cbb 89a9 05be
00000300: 4ec4 473e 2b52 3bbd 6672 653d 45b9 3bbc
00000310: 8dec 7f3e af58 373c 2d63 d13c faaa 463e
00000320: fa22 cd3c c368 243e 5c2a b73d 5606 c93c
00000330: 7198 f7bc ee80 763d bef0 113d 995c 103d
00000340: e40d debc b716 d13d aab0 df3d d481 a8bd
00000350: 2e6b 36bc 6d2f 753e f989 33bd fb0b 723e
00000360: d2e4 e33c 35c2 793e 1320 803d 99ff 81bd
00000370: c705 933d 28a5 413e 5a7b d13d 8d63 6f3e
00000380: b6ce 1f3e 908d 233d dd35 113e 17c0 203e
00000390: 8689 233e 707e ca3d 1f1d 7e3c d6cb 9c3d
000003a0: 75a3 3c3c 38ac 05be b2e7 283e 9bdb 7dbd
000003b0: a441 fd3d 7808 f0bd dfcd 933d f7f6 af3c
000003c0: 67dc b93c daf2 ddbd a917 943d b959 023d
000003d0: 165b a5bd 52b8 ef3d bba6 043e d9a6 b33d
000003e0: 4b4c 3e3e 28a1 9b3d fa1e 463e 0dfc 373d
000003f0: 1858 37bd 5fe5 06bd 0b7e 893b 9e5a 2f3e

lstm.bias_hh_l0_reverse f4 [256]
0.20362796 0.15997873 0.069526 0.21029603 -0.08989634 0.012572309 0.06770709 0.015377483
0.018372959 -0.013876826 0.10780197 0.058303796 0.20568697 0.05359507 0.16104665 0.026420308
-0.029950961 0.18038876 0.120661154 0.024269275 0.029812945 0.1527 -0.1281522 0.109806925
0.11532941 0.025689768 -0.013810873 0.23675495 -0.11318009 0.02190208 0.008238898 0.077565245
-0.074813604 0.11072132 0.06483276 0.11268104 0.23301212 0.22077505 0.04853323 0.062664166
-0.02075552 0.106276326 -0.08639331 -0.063375294 -0.013040138 0.054679364 0.15576586 0.13149345
0.08412338 0.04608023 0.1052678 -0.08633561 0.045320354 0.11821936 0.14028962 0.11413555
-0.031059604 0.20424636 0.015006707 0.19785258 -0.1281433 0.0052648163 -0.0077861175 -0.03223668
0.086604014 -0.13896242 0.009463054 0.17598732 0.024330696 -0.069202475 0.106354184 0.054437064
-0.0818537 0.1494944 0.0866454 0.12964746 -0.062350098 0.115482956 0.015121101 0.2722322
-0.09658213 0.08825658 -0.00785143 0.048960786 -0.019263426 0.112439476 0.09373981 0.16798458
-0.017049698 0.033055045 -0.11622907 0.0055969055 -0.020751638 0.0001894387 -0.078617565 0.14475821
-0.056454554 0.06593993 -0.073147066 0.009847209 0.007577816 0.10828099 -0.009139252 -0.17202924
0.12451741 -0.12546863 -0.06467896 0.089053385 0.106840834 0.17045777 0.12768215 0.054162223
0.17858623 0.040006943 0.11009714 0.12110776 -0.12320215 -0.030518435 0.019193443 -0.03703588
0.19459435 -0.08558594 -0.083028406 -0.09432519 -0.043839704 0.11549794 0.12727933 0.11247623
0.11356215 -0.27130094 0.002777093 0.0051323907 -0.13561963 -0.03524154 0.03764259 -0.03614385
0.0002098474 -0.030193115 -0.015961621 0.20186715 0.0474756 -0.056852065 -0.054620776 0.065682754
-0.022842214 -0.06274967 -0.007940355 0.01905079 -0.1110476 0.007864481 0.07394609 0.0012024419
-0.12929387 -0.056074534 0.1298347 -0.14602426 -0.083778955 0.10437826 -0.1993792 0.1984668
0.038620953 -0.096740894 -0.019552361 -0.06339151 0.09390346 -0.046838548 0.14020705 0.04741567
-0.08886474 0.022294933 -0.04681587 -0.05407761 0.10570892 0.13745964 0.11598591 0.052229382
0.07789404 0.03847121 -0.03620636 -0.036474556 0.021624094 -0.20573373 0.051536683 0.0057241204
-0.006425348 0.16231886 -0.06584235 0.04683762 0.016988143 -0.06512577 -0.09460911 -0.16726865
0.14493166 -0.046750437 0.081852175 0.11013975 0.086370885 0.11268584 0.025979929 0.017804418
0.019884242 0.1204327 0.069867544 0.18009846 -0.020706095 -0.050843827 0.11786003 0.063216604
0.11701833 0.17496045 0.10335715 -0.02785269 -0.1013661 0.3646204 0.08360699 0.14473307
0.19159772 0.20404331 0.07811026 0.03534488 0.1578427 0.105847344 0.058666904 0.20696439
0.13638495 -0.040543523 0.0024542739 0.07428374 0.21655075 0.30355194 -0.10713444 0.056296363
0.08456379 -0.04126 -0.057320513 -0.024047865 -0.0020572478 -0.01930362 0.14743666 0.039484076
0.030752096 -0.10879604 0.032233384 0.06915616 0.12036658 0.07299071 0.055762876 0.06603508
0.09451569 0.018281315 0.26342887 0.070286065 0.07458274 -0.031171396 -0.046001717 -0.055271167
00000000: d983 503e 77d1 233e a663 8e3d d857 573e
00000010: 931b b8bd 16fc 4d3c 04aa 8a3d d7f1 7b3c
00000020: e382 963c a05b 63bc 47c7 dc3d f6cf 6e3d
00000030: 9b9f 523e 8186 5b3d 6ae9 243e 676f d83c
00000040: b85b f5bc d5b7 383e 321d f73d 5cd0 c63c
00000050: 473a f43c 645d 1c3e 553a 03be 74e2 e03d
00000060: d331 ec3d 5973 d23c 0047 62bc e46f 723e
00000070: f7ca e7bd fe6b b33c 71fc 063c 87da 9e3d
00000080: e037 99bd dcc1 e23d 0ac7 843d 51c5 e63d
00000090: bb9a 6e3e db12 623e c8ca 463d 1256 803d
000000a0: 7b07 aabc 67a7 d93d faee b0bd e8ca 81bd
000000b0: 4ea6 55bc 78f7 5f3d 1681 1f3e 38a6 063e
000000c0: e148 ac3d a0be 3c3d a596 d73d b9d0 b0bd
000000d0: d6a1 393d fe1c f23d 15a8 0f3e e6bf e93d
000000e0: b670 febc f525 513e b1de 753c de99 4a3e
000000f0: ff37 03be 7b84 ac3b b022 ffbb 9c0a 04bd
00000100: 725d b13d 2a4c 0ebe ed0a 1b3c 0536 343e
00000110: 2b51 c73c 07ba 8dbd 39d0 d93d 66f9 5e3d
00000120: eaa2 a7bd 0f15 193e 2573 b13d 4ec2 043e
00000130: d162 7fbd 5482 ec3d 7fbe 773c 0562 8b3e
00000140: dacc c5bd debf b43d 49a3 00bc 1b8b 483d
00000150: 55ce 9dbc ab46 e63d a8fa bf3d 2604 2c3e
00000160: cfab 8bbc ba64 073d 8209 eebd 3f66 b73b
00000170: 57ff a9bc 10a4 4639 3f02 a1bd 7f3b 143e
00000180: e43c 67bd 840b 873d 21ce 95bd 3056 213c
00000190: 544f f83b 6cc2 dd3d cdbc 15bc 6f28 30be
000001a0: fc02 ff3d d97a 00be 6776 84bd 9f61 b63d
000001b0: 5ecf da3d 7b8c 2e3e 1cbf 023e 35d9 5d3d
000001c0: 4fdf 363e 52de 233d 9c7a e13d 5807 f83d
000001d0: 6951 fcbd cc01 fabc 913b 9d3c efb2 17bd
000001e0: be43 473e ae47 afbd cc0a aabd 912d c1bd
000001f0: 4391 33bd 2f8a ec3d 8355 023e f059 e63d
00000200: 4693 e83d f5e7 8abe e4ff 353b 9d2d a83b
00000210: dfdf 0abe 6f59 10bd 1e2f 1a3d 930b 14bd
00000220: 7c0a 5c39 8d57 f7bc f2c1 82bc 43b6 4e3e
00000230: c675 423d b6dd 68bd 09ba 5fbd ae84 863d
00000240: 981f bbbc e682 80bd 4318 02bc 6710 9c3c
00000250: ed6c e3bd 06da 003c 0c71 973d 419b 9d3a
00000260: 9d65 04be 69ae 65bd 63f3 043e 6287 15be
00000270: 4d94 abbd 45c4 d53d 102a 4cbe e13a 4b3e
00000280: 0131 1e3d 1720 c6bd 462c a0bc 68d3 81bd
00000290: 7550 c03d c7d9 3fbd 7092 0f3e ef36 423d
000002a0: b8fe b5bd dda3 b63c ffc1 3fbd 7c80 5dbd
000002b0: eb7d d83d 38c2 0c3e 058a ed3d 7aee 553d
000002c0: e986 9f3d fd93 1d3d 1f4d 14bd 5866 15bd
000002d0: 0325 b13c ddab 52be 2118 533d 6791 bb3b
000002e0: ba8b d2bb ea36 263e 5bd8 86bd ced8 3f3d
000002f0: b82a 8b3c a960 85bd 6cc2 c1bd 7948 2bbe
00000300: f768 143e 637d 3fbd 1da2 a73d f390 e13d
00000310: 38e3 b03d d5c7 e63d dcd3 d43c 92da 913c
00000320: 47e4 a23c 6ba5 f63d b716 8f3d bb6b 383e
00000330: d49f a9bc 9e41 50bd 9960 f13d b577 813d
00000340: 4ea7 ef3d d528 333e eaac d33d 532b e4bc
00000350: 0899 cfbd 86af ba3e 243a ab3d e834 143e
00000360: 3132 443e bbf0 503e 46f8 9f3d cbc5 103d
00000370: 84a1 213e 7ec6 d83d b54c 703d 79ee 533e
00000380: 7fa8 0b3e f710 26bd e2d7 203b 1322 983d
00000390: 7bbf 5d3e 296b 9b3e 4d69 dbbd 0497 663d
000003a0: c82f ad3d 3f00 29bd eac8 6abd 0700 c5bc
000003b0: e4d2 06bb a022 9ebc a3f9 163e 0eba 213d
000003c0: d2eb fb3c 75d0 debd 2707 043d bfa1 8d3d
000003d0: c182 f63d 277c 953d 9d67 643d 663d 873d
000003e0: 7191 c13d b2c2 953c 26e0 863e 24f2 8f3d
000003f0: d6be 983d 285b ffbc 4c6c 3cbd 0564 62bd
