.checkpoints/bi_lstm_best_model.pt (torch, 975777 bytes, 25 tensors)

lstm.weight_ih_l0 f4 [256, 19]
0.07035394 -0.021219516 0.08277537 0.0069583827 -0.11641628 0.092857935 -0.19048113 -0.16522717
-0.11954559 -0.16443957 -0.12162775 -0.09036394 -0.055789866 0.056550644 0.0068848333 -0.0044593224
-0.10145988 0.05914429 -0.1745338 0.017769035 0.05398736 0.10443539 -0.02742101 -0.006039344
0.08899362 0.027376078 -0.10620109 -0.08528468 -0.012783405 0.018151874 -0.006841774 0.009477168
-0.031046541 0.060195263 -0.1545999 -0.02929379 0.054630786 0.046352368 0.0957018 -0.017734705
-0.05259865 0.13655096 -0.010827515 0.051386207 -0.06702004 0.0401411 0.10993633 0.11644705
0.03949659 -0.08424709 0.07283831 -0.09136358 -0.08995624 0.14412758 0.09599792 -0.05602119
0.051860455 -0.06365865 -0.12716435 -0.059305258 -0.039173625 -0.027160453 -0.09340081 0.06918883
-0.14292708 -0.15022905 -0.048884254 0.074661046 -0.12513398 -0.045777846 0.06084063 0.098595336
-0.10752262 0.03043525 -0.07722428 -0.11500152 0.11470123 -0.031025067 0.08997813 -0.088053204
-0.10273602 0.12609349 -0.098242365 0.10641808 0.070880175 0.021833127 -0.034033112 -0.016209317
-0.100493394 -0.09597768 -0.06731876 0.08490805 -0.036410935 0.06413183 -0.043995976 -0.103253916
-0.0088979155 0.07464046 -0.020745093 -0.00019837926 0.02146696 -0.07845736 -0.040791605 0.08128846
-0.12789465 -0.14749739 -0.06879544 0.11742712 0.08385944 0.026374929 0.09665765 -0.13056117
-0.15078807 -0.09319465 -0.024063926 0.1282567 -0.077022895 0.016362093 -0.043407697 0.023880051
0.08897328 0.11891969 0.016987173 -0.02080481 0.112649575 0.08193323 -0.040310245 0.13780668
0.092153534 -0.0038341268 0.11315275 0.012140804 -0.042524986 -0.0019001578 0.092854254 0.12962827
-0.0012736926 0.13810033 0.10318731 0.109241925 0.005426026 -0.00026805687 0.028514452 -0.11234741
0.08841994 -0.025754202 0.049999647 -0.015507419 -0.076111466 0.024207154 0.09208069 -0.0181639
0.14947107 0.06397333 0.15518767 0.122513905 0.07617299 0.025835242 0.067299746 0.011675534
0.10374382 0.09602351 -0.08562202 -0.05824713 0.14731143 -0.06997947 0.08222486 -0.06430709
0.0011480805 -0.0647566 -0.015925959 0.041715097 -0.08029977 0.12312823 -0.094324596 -0.10763525
-0.12123562 -0.10829885 -0.11946408 0.051332027 0.06703386 -0.015157774 -0.014518899 0.090293884
-0.010260242 -0.04580637 -0.11269467 0.021583503 0.043798946 -0.001321132 -0.08608169 -0.012664482
-0.03680302 -0.08347388 -0.08872538 0.018915398 -0.014538673 -0.033841595 -0.07365921 -0.070078015
0.11997976 -0.072987914 -0.07496078 0.057292856 0.049468186 0.07656766 0.030365048 -0.07630459
-0.09444398 0.12084953 -0.053590905 0.05983331 -0.12663797 0.042114012 0.015857637 0.037061334
-0.08519746 -0.051434398 0.1013356 0.052463617 -0.064138845 0.10548743 0.03857125 0.049736403
-0.052280888 -0.046895433 0.0047024046 0.031135919 0.04871187 0.057579547 -0.018108224 0.102121286
-0.074966386 -0.034335904 -0.056211397 -0.17296526 -0.055931687 -0.038623262 -0.006538746 -0.15756057
0.08407041 -0.13671176 -0.033435695 0.024843285 -0.1316188 0.08833803 0.08299369 0.0718311
0.10561803 -0.027208898 -0.15655269 -0.07297424 0.07895462 -0.14350584 -0.10655369 -0.09502715
00000000: ba15 903d 8dd4 adbc 2286 a93d 2503 e43b
00000010: a96b eebd 4d2c be3d 7c0d 43be 5031 29be
00000020: 51d4 f4bd d962 28be f817 f9bd bb10 b9bd
00000030: ea83 64bd a6a1 673d 2b9a e13b 821f 92bb
00000040: 33ca cfbd 4841 723d fdb8 32be 5e90 913c
00000050: da21 5d3d 39e2 d53d 07a2 e0bc b0e5 c5bb
00000060: 4942 b63d cc43 e03c f57f d9bd bca9 aebd
00000070: 7d71 51bc 3db3 943c f630 e0bb 2046 1b3c
00000080: 5155 febc 4f8f 763d 704f 1ebe 88f9 efbc
00000090: 88c4 5f3d fbdb 3d3d 4eff c33d 5f48 91bc
000000a0: af71 57bd 04d4 0b3e e465 31bc 587a 523d
000000b0: cd41 89bd fe6a 243d 4c26 e13d ca7b ee3d
000000c0: 2dc7 213d bd89 acbd 402c 953d d41c bbbd
000000d0: fa3a b8bd 2e96 133e 8f9a c43d 7a76 65bd
000000e0: a16b 543d 775f 82bd 5f37 02be 12ea 72bd
000000f0: 8674 20bd 997f debc ed48 bfbd e0b2 8d3d
00000100: 7a5b 12be a5d5 19be db3a 48bd e4e7 983d
00000110: 1f23 00be 8d81 3bbd 0634 793d 5aec c93d
00000120: d234 dcbd 5853 f93c c327 9ebd eb85 ebbd
00000130: 7ae8 ea3d 4828 febc 7446 b83d 3d55 b4bd
00000140: 4367 d2bd a71e 013e 4b33 c9bd b9f1 d93d
00000150: a029 913d 63db b23c 4e66 0bbd 67c9 84bc
00000160: 7bcf cdbd f28f c4bd 6bde 89bd 46e4 ad3d
00000170: a223 15bd 8d57 833d 2035 34bd ca76 d3bd
00000180: 90c8 11bc 19dd 983d 9df1 a9bc 0704 50b9
00000190: 7adb af3c 41ae a0bd 1915 27bd 907a a63d
000001a0: d1f6 02be 8e09 17be a0e4 8cbd a17d f03d
000001b0: 80be ab3d 3c10 d83c 72f4 c53d d4b1 05be
000001c0: 3068 1abe d6dc bebd b621 c5bc b955 033e
000001d0: 2ebe 9dbd cc09 863c 45cc 31bd 19a0 c33c
000001e0: 9f37 b63d 2b8c f33d af28 8b3c d96e aabc
000001f0: d2b4 e63d 9ccc a73d 5b1c 25bd 321d 0d3e
00000200: feba bc3d f945 7bbb a1bc e73d 39ea 463c
00000210: ae2e 2ebd b70e f9ba 5f2a be3d 46bd 043e
00000220: 08f2 a6ba 2c6a 0d3e de53 d33d 3bba df3d
00000230: cecc b13b fc89 8cb9 2497 e93c 6616 e6bd
00000240: 8315 b53d 7afa d2bc 6ecc 4c3d d412 7ebc
00000250: 54e0 9bbd 154e c63c cd94 bc3d 76cc 94bc
00000260: f20e 193e 7304 833d 84e9 1e3e 92e8 fa3d
00000270: 9600 9c3d 6ea4 d33c 73d4 893d bd4a 3f3c
00000280: a477 d43d f9a7 c43d 995a afbd 8b94 6ebd
00000290: cfd8 163e 6551 8fbd 8265 a83d 70b3 83bd
000002a0: 307b 963a 1c9f 84bd 2877 82bc 73dd 2a3d
000002b0: 3574 a4bd a72a fc3d 412d c1bd df6f dcbd
000002c0: 614a f8bd cacb ddbd 95a9 f4bd 8841 523d
000002d0: 0c49 893d 5058 78bc ade0 6dbc 00ec b83d
000002e0: 931a 28bc 769f 3bbd 77cc e6bd e3cf b03c
000002f0: 8666 333d d529 adba 994b b0bd b07e 4fbc
00000300: c3be 16bd 5bf4 aabd a7b5 b5bd 77f4 9a3c
00000310: 9d33 6ebc 7c9d 0abd a4da 96bd 1085 8fbd
00000320: f3b7 f53d b07a 95bd 0a85 99bd eaab 6a3d
00000330: 279f 4a3d 81cf 9c3d 1fc0 f83c 9545 9cbd
00000340: d86b c1bd f57f f73d 2382 5bbd c613 753d
00000350: 62ad 01be be7f 2c3d e0e7 813c a0cd 173d
00000360: 027c aebd e0ac 52bd 0a89 cf3d 17e4 563d
00000370: 3a5b 83bd cb09 d83d e3fc 1d3d 66b8 4b3d
00000380: 7c24 56bd 6d15 40bd a116 9a3b c110 ff3c
00000390: 1986 473d 88d8 6b3d b357 94bc f724 d13d
000003a0: fa87 99bd cea3 0cbd ec3d 66bd ce1d 31be
000003b0: a018 65bd 6d33 1ebd fa42 d6bb 8f57 21be
000003c0: 1b2d ac3d 2bfe 0bbe def3 08bd 2584 cb3c
000003d0: 14c7 06be 92ea b43d 99f8 a93d 2f1c 933d
000003e0: 444e d83d 32e5 debc 594f 20be 8573 95bd
000003f0: f6b2 a13d 32f3 12be d238 dabd 989d c2bd

lstm.weight_hh_l0 f4 [256, 64]
-0.1869645 -0.1062598 -0.07259464 0.052420795 0.09651488 -0.06698163 0.123179555 -0.06097057
0.06729063 0.23096006 -0.1460326 0.09336635 0.10671004 0.19079828 -0.1120452 0.10738987
-0.025005693 -0.069112405 -0.123686574 0.013748169 -0.08525591 0.12267132 -0.020307647 -0.05261675
-0.17108972 -0.061843183 0.06374497 -0.021552483 -0.050811168 0.038094375 0.32293686 -0.09293155
0.06715774 0.12924221 -0.088833064 0.089457095 0.038756 -0.017041374 0.004883814 0.089266725
-0.04858776 -0.056734167 -0.010727074 -0.0014961043 -0.01020691 0.08027893 0.22114445 0.13971832
-0.00047528822 -0.007609009 -0.08055701 -0.08271741 0.05027945 -0.13173431 0.024068935 0.053900708
-0.057655454 0.049106047 -0.0068313093 0.14670664 -0.07913146 -0.14804363 -0.12936519 0.02699942
-0.019650327 0.02515932 0.020429619 0.105144165 -0.030073965 0.10208479 -0.07176183 -0.05179188
-0.048774503 0.12445999 -0.011506078 0.17747633 0.14457533 -0.08405649 -0.11249433 -0.013185602
-0.0664222 0.10811979 -0.080503464 -0.023877196 -0.08270059 0.14911519 0.018381381 0.05528407
-0.012221174 -0.14956148 0.055393733 0.07591418 0.041678794 0.018267732 0.08900158 -0.027540406
0.06858678 0.15641972 -0.038136587 -0.056893744 -0.059941635 0.024918636 0.069068745 -0.06294319
-0.06082851 0.105331026 0.0242897 0.10986133 -0.03267694 0.06567778 0.21138027 -0.10987404
0.12176691 -0.075393416 0.08850733 -0.030867813 -0.053215895 0.11318611 -0.07748572 0.018413303
-0.029005062 -0.07980407 0.0107204495 0.036421873 0.080265135 0.114011124 0.05935804 0.13829893
0.066672795 -0.022743607 -0.10704744 0.028420437 -0.086676024 0.08200305 -0.085508905 -0.03987723
0.03553751 0.042801473 -0.15331645 0.04894292 0.123008765 0.036565874 0.027709642 -0.021323742
-0.11650144 -0.01228592 -0.04787318 0.000111665475 -0.12968168 0.08091986 -0.072007135 0.097647645
-0.004743249 0.123748854 -0.018907402 0.15028833 0.08014876 0.040288907 -0.07515219 0.032909784
-0.037330132 -0.055608656 0.08059642 0.04752872 0.16351093 -0.11366682 0.008728955 -0.10591725
-0.13384743 0.028113198 -0.016625617 -0.0782629 -0.0851085 -0.07618161 -0.03654039 0.1290948
0.042451262 -0.007894296 0.067728035 -0.097499564 0.046741735 -0.0045478856 0.03271259 0.021867622
-0.093877904 0.07332213 -0.081728436 -0.00898509 -0.0765899 0.035441674 -0.078076504 0.05637997
-0.052337006 0.06356954 -0.067815244 0.09117914 0.004597399 -0.13707778 0.0030676695 -0.040081777
-0.0793118 -0.08820837 -0.014225632 0.07833716 0.044244975 0.00093307596 -0.08037861 -0.032078747
0.12938209 0.04475196 0.033475824 0.020083543 -0.0069905547 0.114595786 0.0056954427 0.0863355
-0.10006196 -0.023228435 -0.09454343 0.025032064 -0.006948136 0.102884114 -0.072467744 -0.13488165
-0.039204955 -0.047483377 -0.00026225724 -0.0786572 0.03656482 -0.06576391 -0.10120745 0.12591413
-0.021625085 -0.08897794 -0.1058667 0.10086699 -0.020516863 -0.04999084 0.12286187 0.13030441
0.040963113 -0.008231963 -0.09011197 0.11531374 0.07577008 -0.13441864 -0.12006539 0.032028783
-0.083659284 -0.023088463 0.04883543 -0.034824833 -0.020981926 -0.13445473 0.037959535 -0.09853209
00000000: 9f73 3fbe bd9e d9bd 80ac 94bd 30b7 563d
00000010: 98a9 c53d aa2d 89bd 9045 fc3d 47bc 79bd
00000020: abcf 893d cb80 6c3e 9289 15be db36 bf3d
00000030: cb8a da3d a060 433e f477 e5bd 38ef db3d
00000040: bdd8 ccbc ce8a 8dbd 634f fdbd 0040 613c
00000050: a79a aebd 1a3b fb3d 395c a6bc a984 57bd
00000060: 2532 2fbe 474f 7dbd b98c 823d d58e b0bc
00000070: 5f1f 50bd d908 1c3d fb57 a53e e652 bebd
00000080: ff89 893d 1258 043e 1cee b5bd 4835 b73d
00000090: 9dbe 1e3d 5a9a 8bbc 6708 a03b 79d1 b63d
000000a0: f603 47bd 1662 68bd 9cc0 2fbc ee18 c4ba
000000b0: e23a 27bc 4869 a43d b173 623e 5212 0f3e
000000c0: 1b30 f9b9 fe54 f9bb 13fb a4bd bf67 a9bd
000000d0: d3f1 4d3d 5ce5 06be 372c c53c fdc6 5c3d
000000e0: 2028 6cbd 6c23 493d 2dd9 dfbb 443a 163e
000000f0: ad0f a2bd c098 17be 4f78 04be e32d dd3c
00000100: b9f9 a0bc eb1a ce3c 045c a73c d355 d73d
00000110: ad5d f6bc d511 d13d def7 92bd b923 54bd
00000120: c6c7 47bd e1e4 fe3d fd83 3cbc 5bbc 353e
00000130: 8e0b 143e cf25 acbd 6d63 e6bd 6c08 58bc
00000140: 5d08 88bd e96d dd3d 00df a4bd 1c9a c3bc
00000150: ed5e a9bd a7b1 183e 8d94 963c 8d71 623d
00000160: 523b 48bc a526 19be 8ae4 623d e578 9b3d
00000170: 62b7 2a3d 36a6 953c 7646 b63d 6b9c e1bc
00000180: 3a77 8c3d 7e2c 203e 1c35 1cbd 6a09 69bd
00000190: 5c85 75bd 2b22 cc3c ea73 8d3d 5ce8 80bd
000001a0: 5127 79bd cbb7 d73d 31fb c63c fafe e03d
000001b0: 41d8 05bd 1282 863d 1274 583e a405 e1bd
000001c0: ee60 f93d dd67 9abd 5543 b53d 7fde fcbc
000001d0: e9f8 59bd 1fce e73d d5b0 9ebd 7fd7 963c
000001e0: 069c edbc 5170 a3bd d3a4 2f3c 1a2f 153d
000001f0: 0c62 a43d aa7e e93d 6b21 733d 3c9e 0d3e
00000200: bf8b 883d cd50 babc b03b dbbd fad1 e83c
00000210: 3383 b1bd 37f1 a73d 4b1f afbd 4e56 23bd
00000220: c88f 113d 9950 2f3d fdfe 1cbe 5f78 483d
00000230: 05ec fb3d 19c6 153d 55ff e23c 21af aebc
00000240: 4f98 eebd e24a 49bc ab16 44bd f22d ea38
00000250: 46cb 04be 50b9 a53d 7a78 93bd 7dfb c73d
00000260: 426d 9bbb 0a70 fd3d b2e3 9abc 2fe5 193e
00000270: 0825 a43d fb05 253d 64e9 99bd 69cc 063d
00000280: 7be7 18bd e7c5 63bd bc0f a53d 7aad 423d
00000290: 696f 273e 26ca e8bd e403 0f3c 25eb d8bd
000002a0: 4d0f 09be a64d e63c 7232 88bc 4d48 a0bd
000002b0: 5e4d aebd 1b05 9cbd 60ab 15bd 6d31 043e
000002c0: 60e1 2d3d 1457 01bc ffb4 8a3d daad c7bd
000002d0: 4374 3f3d 6e06 95bb a3fd 053d ba23 b33c
000002e0: 0f43 c0bd ea29 963d 3d61 a7bd 3336 13bc
000002f0: 2adb 9cbd 4a2b 113d 93e6 9fbd afee 663d
00000300: 545f 56bd bf30 823d b8e2 8abd 21bc ba3d
00000310: c7a5 963b 1e5e 0cbe f40a 493b ca2c 24bd
00000320: 3a6e a2bd 97a6 b4bd a012 69bc 3c6f a03d
00000330: 383a 353d ab99 743a 8a9d a4bd 0165 03bd
00000340: bd7c 043e d54d 373d f21d 093d 3e86 a43c
00000350: 0611 e5bb 32b1 ea3d d6a0 ba3b abd0 b03d
00000360: 49ed ccbd 8f49 bebc fc9f c1bd 0b10 cd3c
00000370: 30ad e3bb e8b4 d23d f869 94bd 6a1e 0abe
00000380: 6095 20bd ee7d 42bd 927f 89b9 0717 a1bd
00000390: fec4 153d 3baf 86bd da45 cfbd a2ef 003e
000003a0: 1727 b1bc 113a b6bd a4d0 d8bd 5a93 ce3d
000003b0: fb12 a8bc 32c3 4cbd 019f fb3d 856e 053e
000003c0: f0c8 273d 5bdf 06bc a08c b8bd 9c29 ec3d
000003d0: 582d 9b3d 0aa5 09be d8e4 f5bd 9d30 033d
000003e0: 8f55 abbd 0424 bdbc a907 483d 7ca4 0ebd
000003f0: 4ae2 abbc 80ae 09be 757b 1b3d 31cb c9bd

lstm.bias_ih_l0 f4 [256]
-0.13874242 0.011149219 -0.0100251995 -0.028912155 0.049533725 0.15630578 0.2504873 0.022151407
0.08880112 -0.07943398 -0.13964415 -0.010661144 0.1028188 0.10935975 0.016522612 0.065691695
0.10924263 -0.11019871 -0.045347728 -0.023226539 -0.072720386 0.11460397 -0.08132138 -0.09910578
-0.105199665 -0.029989656 0.12067239 0.032405835 0.028899875 -0.12386174 0.034623615 0.10441031
-0.067814186 0.13629735 -0.02453326 0.061623745 0.0072125657 0.117904045 0.013292477 0.10737062
-0.041000664 0.060101695 0.10901017 -0.014648392 -0.026103368 0.10278144 0.048711486 0.098884895
0.13103579 0.00019193359 -0.047052015 -0.00017070153 -0.06677736 0.08289406 0.0069974074 0.010615087
-0.102650024 0.09709568 -0.0031955955 0.116086505 0.08046121 0.1472812 -0.0508224 0.07140334
0.010615046 -0.10075175 0.08356603 -0.010403687 -0.012644412 -0.041538466 0.14912054 0.07502772
0.008062976 -0.02463582 0.06434763 -0.101155594 0.034225628 0.018523537 0.08086252 -0.014122204
0.13714465 0.052699596 0.025730636 -0.09625675 0.14640968 0.1585216 -0.076246135 0.11468079
0.034811724 -0.028875595 0.07219166 0.101033054 -0.044349577 0.10838161 0.03617623 0.023811309
0.10159102 0.12665182 0.1087331 0.12883064 0.10050722 -0.053603295 -0.09773721 -0.1008088
0.14477324 0.02163762 -0.057293322 -0.01687674 -0.08899458 -0.097691335 0.05712464 0.11677828
0.12909308 0.0670914 0.08825796 -0.11076022 0.09608782 0.056862324 -0.009016421 -0.10668527
0.10682333 -0.01741547 -0.031345993 -0.005170855 0.09425453 0.12348872 -0.03536243 0.064442724
0.011523794 0.041175697 -0.11894966 -0.095302746 0.120193146 -0.10666595 -0.051359683 0.11398026
0.043652274 0.020412091 -0.049809035 -0.0108631905 -0.09326656 0.030853273 -0.08316626 -0.1282352
-0.076931454 -0.013596578 0.096191876 -0.051531192 0.041066203 0.09094875 -0.005405421 -0.10159648
-0.09278035 -0.025554724 0.06776077 0.0015078066 -0.13261753 -0.09587768 0.11011448 -0.028762257
-0.044364244 -0.111455515 0.037985153 0.10501662 0.1626247 -0.0017539046 0.021401947 0.08152531
0.016623694 0.15721025 0.07782172 -0.03271744 0.08165711 0.03943635 -0.0019422922 0.08236437
0.041668102 0.035315134 -0.03592273 -0.020163022 -0.054230705 0.068626136 -0.012280224 0.019948686
0.046414375 -0.01892683 0.048490554 0.1154587 -0.22074081 -0.054848287 -0.038912192 0.049394246
0.026713533 0.08706078 -0.07022928 -0.08508252 0.14050227 -0.07267825 0.18691958 -0.07344172
-0.12826487 0.18567592 0.070572205 0.01165796 -0.002595127 0.11402352 0.10266334 -0.05779558
0.061686262 0.15399182 0.10838719 0.0019342704 0.03785858 0.1222405 -0.011977631 -0.06914325
-0.10056475 0.09956172 -0.10160862 -0.08320616 0.12680238 -0.10479584 -0.005814882 0.09750999
0.025294958 0.062836446 -0.022175672 0.05966829 0.055512454 -0.046031147 -0.11916123 0.024250094
-0.041653078 -0.051934965 -0.06103077 0.06453378 0.04125401 -0.018692488 0.0021765833 0.07215837
0.16479878 0.060766663 0.095549695 0.09602296 0.1527071 0.06111769 -0.13276613 0.09156539
0.0029510518 -0.025085745 0.028845228 0.074556366 0.06661912 0.02743316 0.04365459 0.05145101
00000000: 7e12 0ebe 37ab 363c bc40 24bc 2fd9 ecbc
00000010: e0e3 4a3d 9f0e 203e df3f 803e de76 b53c
00000020: 5ddd b53d 48ae a2bd e0fe 0ebe 14ac 2ebc
00000030: aa92 d23d 01f8 df3d 6e5a 873c 5e89 863d
00000040: 9aba df3d dcaf e1bd 8abe 39bd 9545 bebc
00000050: 6dee 94bd 7cb5 ea3d d38b a6bd f9f7 cabd
00000060: ec72 d7bd deac f5bc 1623 f73d fbbb 043d
00000070: 6ebf ec3c 39ab fdbd 7ed1 0d3d 13d5 d53d
00000080: 2ae2 8abd 8891 0b3e faf9 c8bc 2e69 7c3d
00000090: 6357 ec3b ad77 f13d b0c8 593c 21e5 db3d
000000a0: 50f0 27bd 322d 763d b940 df3d cfff 6fbc
000000b0: bbd6 d5bc 137f d23d b285 473d 2a84 ca3d
000000c0: 3f2e 063e c841 4939 9db9 40bd 58fe 32b9
000000d0: 92c2 88bd 5cc4 a93d 824a e53b e7ea 2d3c
000000e0: 2d3a d2bd 1ada c63d 326d 51bb c3be ed3d
000000f0: d9c8 a43d e2d0 163e 262b 50bd ea3b 923d
00000100: bbea 2d3c ef56 cebd ab24 ab3d 3a74 2abc
00000110: 822a 4fbc 3d24 2abd 0eb3 183e 22a8 993d
00000120: 931a 043c 0fd1 c9bc b1c8 833d aa2a cfbd
00000130: 2c30 0c3d acbe 973c 409b a53d d160 67bc
00000140: a66f 0c3e 88db 573d 0ec9 d23c 4222 c5bd
00000150: 6bec 153e 7c53 223e ef26 9cbd c3dd ea3d
00000160: bd96 0e3d 838c ecbc 39d9 933d 6bea ce3d
00000170: e7a7 35bd 2df7 dd3d 872d 143d ef0f c33c
00000180: f40e d03d 04b1 013e 76af de3d 2eec 033e
00000190: bbd6 cd3d 218f 5bbd 722a c8bd d874 cebd
000001a0: 703f 143e 6141 b13c 67ac 6abd 1741 8abc
000001b0: ca42 b6bd 6512 c8bd 87fb 693d 7329 ef3d
000001c0: fa30 043e 3767 893d 97c0 b43d 41d6 e2bd
000001d0: b1c9 c43d 78e8 683d 9cb9 13bc cf7d dabd
000001e0: 31c6 da3d e3aa 8ebc a864 00bd 4770 a9bb
000001f0: 8508 c13d a7e7 fc3d 32d8 10bd 8cfa 833d
00000200: 4cce 3c3c d9a7 283d e19b f3bd 162e c3bd
00000210: d327 f63d ad73 dabd 885e 52bd 7c6e e93d
00000220: bacc 323d 4237 a73c 8f04 4cbd 86fb 31bc
00000230: 8a02 bfbd 01c0 fc3c 1253 aabd 1750 03be
00000240: 3d8e 9dbd 2ec4 5ebc 3f00 c53d 5f12 53bd
00000250: 0935 283d 5743 ba3d f51f b1bb d111 d0bd
00000260: a003 bebd 2458 d1bc 29c6 8a3d 98a1 c53a
00000270: e4cc 07be 845b c4bd b383 e13d d39e ebbc
00000280: 48b7 35bd ca42 e4bd 5296 1b3d f412 d73d
00000290: 1787 263e 46e3 e5ba 2353 af3c bef6 a63d
000002a0: 6a2e 883c b9fb 203e fe60 9f3d b902 06bd
000002b0: d83b a73d 0388 213d 8394 feba a7ae a83d
000002c0: 2cac 2a3d 9aa6 103d b623 13bd ec2c a5bc
000002d0: 0421 5ebd dc8b 8c3d fe32 49bc 6d6b a33c
000002e0: 001d 3e3d 700c 9bbc 089e 463d 9c75 ec3d
000002f0: e109 62be 99a8 60bd 6462 1fbd 9f51 4a3d
00000300: 57d6 da3c ec4c b23d 5ed4 8fbd bf3f aebd
00000310: d4df 0f3e 56d8 94bd d967 3f3e 9d68 96bd
00000320: de57 03be d421 3e3e 2988 903d 0701 3f3c
00000330: 0213 2abb 2a85 e93d 2841 d23d 0fbb 6cbd
00000340: bcaa 7c3d 08b0 1d3e 1afa dd3d 5887 fd3a
00000350: 9911 1b3d 3a59 fa3d d33d 44bc fa9a 8dbd
00000360: e4f4 cdbd 04e7 cb3d 2e18 d0bd fe67 aabd
00000370: 7cd8 013e 349f d6bd c48a bebb 51b3 c73d
00000380: 5f37 cf3c 65b0 803d c1a9 b5bc bd66 743d
00000390: 0761 633d 288b 3cbd ce0a f4bd 22a8 c63c
000003a0: 6b9c 2abd c2b9 54bd 67fb 79bd 492a 843d
000003b0: f7f9 283d fd20 99bc 02a5 0e3b c4c7 933d
000003c0: 03c1 283e 77e6 783d 8faf c33d b0a7 c43d
000003d0: 405f 1c3e 8b56 7a3d d8f3 07be a386 bb3d
000003e0: 6f66 413b 9f80 cdbc d44c ec3c 02b1 983d
000003f0: 9b6f 883d 82bb e03c 28cf 323d 4bbe 523d

lstm.bias_hh_l0 f4 [256]
0.10631896 -0.15796886 0.034686394 0.012601481 -0.11715645 0.10416269 0.12127579 -0.08735465
0.03812215 0.08182223 0.02959209 -0.10461796 0.07558265 -0.028855816 -0.060792327 0.08206019
0.115811154 -0.039293144 -0.06709382 -0.07594598 0.08678027 0.0650597 -0.10945592 -0.18481128
-0.053390916 0.020632567 -0.0848791 -0.013036656 -0.14498742 0.11937826 -0.006023912 -0.018271813
-0.10657984 -0.043457855 -0.09496717 0.09220546 0.03555212 -0.04047659 -0.0009404115 -0.047757138
0.10999392 0.08463 0.057435647 0.08600772 0.041643195 -0.029892009 -0.0031268487 -0.10751434
0.0036105225 0.007093309 0.115070745 -0.020862477 -0.04292912 0.12849131 0.007634393 0.085047424
0.02760944 0.009843139 0.071639165 0.054649465 0.05662257 0.14869764 -0.12591106 0.020152124
-0.06634073 0.06557438 0.07131872 -0.1291466 0.068848364 0.10922195 -0.043090817 0.099702254
0.09492264 0.09385296 0.04703342 0.0065999054 -0.0146700395 0.059992474 -0.089197874 -0.047333565
0.010880002 -0.06957173 0.14149117 -0.048999783 0.08026238 0.06996313 0.1302323 -0.051671084
0.014858683 0.06884202 -0.12562661 -0.07293893 0.1106406 -0.07991376 0.05596894 0.09424213
0.04312776 -0.0030492577 0.15611535 0.023131775 0.13484189 0.01688641 -0.0021609322 0.07998596
0.009383766 -0.09798033 0.043928377 0.003519608 0.13371143 -0.11731698 0.19575311 0.022361176
0.029642971 0.058881756 -0.008956161 -0.019167667 0.006074864 0.08734775 0.056678753 0.06296436
0.05736765 -0.06994645 0.042961683 0.13182671 0.0595233 0.039523814 -0.053698823 -0.013800233
0.04554145 -0.051437 0.0040797675 -0.12299605 -0.029789753 -0.10232156 -0.07282458 -0.035795115
0.011552502 -0.059551187 0.111318745 0.053761326 -0.058508903 -0.085957155 0.028124442 0.017350132
-0.091403164 -0.1028637 -0.1315 0.13704203 0.018466728 -0.07987132 -0.102806695 -0.085532166
0.04349286 0.03407532 -0.05034607 -0.06673137 -0.07977855 -0.14218776 -0.002636835 0.06595169
0.12172377 0.0061946297 0.008114478 0.13896972 -0.021804547 -0.033903882 0.123618975 -0.042199515
-0.07301179 0.13293429 -0.04553387 0.07392477 -0.026253186 0.06171286 0.02622794 -0.05138393
0.016070835 0.018802188 0.031698544 -0.039573375 0.078900866 -0.13142264 -0.077620514 -0.085982226
0.086563565 0.13110211 0.14398468 -0.068319894 -0.2578397 0.078355044 0.09088341 0.032600813
-0.030996906 -0.077220045 -0.07284701 0.11178059 -0.0035093625 -0.08145436 0.21702 -0.064649925
-0.14449227 0.027177392 0.1812283 0.1492868 -0.089341134 -0.11355506 0.037562076 0.04882412
0.08896173 0.062767416 0.04357936 0.08422952 0.06472118 -0.02763252 -0.07560298 0.030131035
0.08278939 0.08582887 0.038494077 0.1396494 0.035170924 0.037804008 -0.043794453 0.00014379653
0.06750821 -0.11803333 0.017668722 0.1180074 -0.033506185 0.109934315 0.03596796 -0.094297245
0.10558088 -0.12506586 -0.053302176 0.099573985 -0.02421704 0.09820588 -0.014604696 0.016638203
0.1465427 -0.106821515 0.0006001954 0.15679826 0.16293386 0.07387852 0.0036098985 0.11762972
0.08748317 0.08442631 -0.07712535 0.059095677 -0.08573985 0.026340073 -0.010167988 0.05612777
00000000: c1bd d93d 97c2 21be 5213 0e3d 7176 4e3c
00000010: b9ef efbd 4053 d53d 715f f83d ffe6 b2bd
00000020: f925 1c3d 6a92 a73d 1c6b f23c f141 d6bd
00000030: 14cb 9a3d 0863 ecbc 6001 79bd 2c0f a83d
00000040: 662e ed3d d9f1 20bd 7c68 89bd 9189 9bbd
00000050: dbb9 b13d 053e 853d 6d2a e0bd 2b3f 3dbe
00000060: 6fb0 5abd a105 a93c 18d5 adbd b397 55bc
00000070: 9577 14be 977c f43d 3d64 c5bb c5ae 95bc
00000080: 8846 dabd dd00 32bd 267e c2bd 37d6 bc3d
00000090: 1a9f 113d c8ca 25bd f385 76ba fd9c 43bd
000000a0: 7e44 e13d 7e52 ad3d a441 6b3d d124 b03d
000000b0: 0e92 2a3d 16e0 f4bc d1eb 4cbb 7a30 dcbd
000000c0: 849e 6c3b fd6e e83b 36aa eb3d c9e7 aabc
000000d0: 72d6 2fbd 3a93 033e ee29 fa3b 582d ae3d
000000e0: 312d e23c 1e45 213c 8eb7 923d 1ed8 5f3d
000000f0: 11ed 673d 3244 183e d4ee 00be 1116 a53c
00000100: a6dd 87bd dc4b 863d 8d0f 923d 023f 04be
00000110: 5f00 8d3d c2af df3d ff7f 30bd b230 cc3d
00000120: cd66 c23d fb35 c03d 1ea6 403d 0544 d83b
00000130: 9b5a 70bc abba 753d 60ad b6bd d7e0 41bd
00000140: 0942 323c a07b 8ebd 10e3 103e ffb3 48bd
00000150: 9a60 a43d d448 8f3d 9e5b 053e 0fa5 53bd
00000160: d571 733c 0cfd 8c3d 43a4 00be 0161 95bd
00000170: 8a97 e23d d3a9 a3bd b03f 653d 0502 c13d
00000180: bca6 303d 0ed6 47bb b4dc 1f3e d97e bd3c
00000190: fe13 0a3e 5e55 8a3c 6d9e 0dbb aecf a33d
000001a0: 5ebe 193c e9a9 c8bd 3eee 333d 39a9 663b
000001b0: a6eb 083e e343 f0bd 8173 483e c92e b73c
000001c0: d1d5 f23c ff2d 713d ddbc 12bc 8305 9dbc
000001d0: a70f c73b 61e3 b23d fb27 683d 75f3 803d
000001e0: 57fa 6a3d 1640 8fbd 97f8 2f3d 95fd 063e
000001f0: b4ce 733d b9e3 213d 4cf3 5bbd 5f1a 62bc
00000200: ac89 3a3d 9baf 52bd 92af 853b 5ae5 fbbd
00000210: a409 f4bc f78d d1bd 0e25 95bd e69d 12bd
00000220: b546 3d3c f2eb 73bd 15fb e33d d634 5c3d
00000230: 08a7 6fbd 4e0a b0bd 3b65 e63c dd21 8e3c
00000240: 9531 bbbd 34aa d2bd f0a7 06be bf54 0c3e
00000250: 8947 973c 9393 a3bd 518c d2bd 7d2b afbd
00000260: 9225 323d 9092 0b3d ae37 4ebd 75aa 88bd
00000270: f062 a3bd ab99 11be c0ce 2cbb ae11 873d
00000280: 504a f93d 52fc ca3b 96f2 043c 144e 0e3e
00000290: 739f b2bc ccde 0abd f22b fd3d 66d9 2cbd
000002a0: 3587 95bd ed1f 083e b981 3abd df65 973d
000002b0: ec10 d7bc a0c6 7c3d fadb d63c f577 52bd
000002c0: fca6 833c 0c07 9a3c 55d6 013d b117 22bd
000002d0: c796 a13d a893 06be 81f7 9ebd 7317 b0bd
000002e0: 3d48 b13d a23f 063e b870 133e 4deb 8bbd
000002f0: 9103 84be 9c78 a03d 1521 ba3d 6e88 053d
00000300: 39ed fdbc 8b25 9ebd d030 95bd 39ed e43d
00000310: 55fd 65bb 8bd1 a6bd 7e3a 5e3e 2e67 84bd
00000320: c8f5 13be 1fa3 de3c e993 393e a4de 183e
00000330: 7cf8 b6bd 8e8f e8bd b1da 193d cdfb 473d
00000340: 9131 b63d 348c 803d 4580 323d 8780 ac3d
00000350: 8a8c 843d 985d e2bc bcd5 9abd 5cd5 f63c
00000360: 7c8d a93d 0cc7 af3d f7ab 1d3d 4100 0f3e
00000370: 630f 103d 60d8 1a3d d061 33bd 16c8 1639
00000380: bf41 8a3d 75bb f1bd ffbd 903c ddad f13d
00000390: c83d 09bd 3e25 e13d 2453 133d ea1e c1bd
000003a0: ca3a d83d 4411 00be 6253 5abd 72ed cb3d
000003b0: d062 c6bc 2a20 c93d 8948 6fbc d74c 883c
000003c0: 4a0f 163e 3dc5 dabd 6e56 1d3a b98f 203e
000003d0: 22d8 263e 9f4d 973d 0c94 6c3b dae7 f03d
000003e0: 602a b33d b4e7 ac3d e5f3 9dbd 4f0e 723d
000003f0: 6098 afbd 23c7 d73c a297 26bc 3ce6 653d

lstm.weight_ih_l0_reverse f4 [256, 19]
0.09800803 0.07755957 0.11351965 0.10113078 0.0016955999 0.16175213 -0.039979383 -0.05092848
-0.067626804 0.14543793 0.037577815 -0.05686755 0.14970954 0.02383231 0.09919875 0.116226785
-0.062643304 0.10716381 0.07197482 0.12178885 0.08108726 0.1446396 0.011215343 -0.07294963
0.08439606 2.4309935e-05 -0.06389227 -0.15752119 -0.050816704 0.12677106 -0.059669435 0.011381245
-0.13179623 -0.070494935 -0.17988336 -0.017884405 0.035394333 -0.16105713 0.0849657 0.13027364
0.09785514 -0.0268363 0.16427612 0.015230863 -0.047752798 0.14027 0.06433195 0.18106924
0.14061621 0.17481649 -0.012326476 0.030476201 0.17689422 0.088334404 0.08192919 0.053008042
0.13442864 -0.02548776 -0.06915414 -0.043827727 -0.006472593 -0.082543366 -0.038979992 -0.17671165
0.01815597 -0.13053969 -0.11248354 0.073587865 0.10188755 -0.17815018 -0.104071535 0.09046833
0.099936455 0.0403487 -0.15930822 -0.27957252 -0.03029827 -0.01987248 0.045844547 -0.06993957
0.009184388 0.087469324 0.14570254 -0.023387022 -0.07189549 0.011689534 0.01084005 -0.10367924
0.00095048983 0.005719995 0.0025239887 0.08431579 0.10170176 0.110352255 0.12205053 0.07802181
0.029033206 0.067247115 0.028462473 -0.08418641 0.08775819 -0.10311918 0.039326835 0.039740387
-0.12657233 0.10780435 0.096117854 -0.059303906 -0.12965038 -0.052817278 0.034174126 0.072653554
0.06295968 -0.18304858 -0.1409138 -0.15182076 -0.14344066 0.01976612 -0.03246249 -0.043982755
0.047862045 -0.13039435 0.038519096 -0.029022576 0.10715672 0.13125645 0.010747511 -0.10717357
0.071426354 0.012852515 0.07187527 -0.10746232 -0.03527315 0.06437463 0.062354323 -0.06121094
0.040813603 -0.07157586 -0.0967096 -0.07481204 -0.11928576 -0.099274516 -0.09709795 -0.044583812
-0.038432434 0.07537655 0.079966076 -0.09053833 0.028961873 0.09731183 -0.096665025 -0.08902846
0.09678958 -0.05948957 0.05213639 0.011560186 -0.066377185 -0.09336342 0.043159045 0.09606912
0.085353665 0.06402027 0.12612416 0.0042735157 0.012009986 0.049120784 -0.019503126 0.05705278
-0.10130717 0.09267808 0.12580873 -0.11848356 -0.0432977 -0.0790004 -0.00256102 0.03242922
0.051662073 0.13250439 -0.019174038 -0.019962281 0.0995281 -0.07709954 -0.004090592 -0.08182545
0.06640293 -0.01505134 0.19999711 0.0464795 -0.003228818 0.11903158 0.05995779 -0.08988914
-0.06727771 -0.073818654 0.08382445 -0.112517215 0.034011517 -0.02866285 0.069417454 -0.13675997
-0.1274622 0.07260056 0.03180111 -0.029587356 -0.098699026 -0.19122785 -0.083136015 -0.06504478
-0.047829393 0.0414192 -0.0005778003 0.017974447 0.048326343 0.02434409 0.013415585 0.024312012
-0.057547074 -0.02181813 -0.09403698 -0.0041915393 0.05216566 -0.1018542 -0.059174377 0.026032489
-0.09551025 0.098405935 -0.030681554 -0.08547548 -0.056700036 -0.12887609 -0.060176767 0.03564297
0.09041026 0.08086499 0.022799447 0.06910392 0.06180182 -0.07219779 -0.15129912 0.099452734
0.055487443 -0.115951 0.15238874 -0.018638853 -0.11622779 -0.06023009 -0.0050596767 0.085761756
0.008348658 0.06106297 -0.101097405 0.07654205 -0.114284456 0.019176086 0.0047899103 -0.11226587
00000000: 6fb8 c83d 8dd7 9e3d fe7c e83d a81d cf3d
00000010: e43e de3a 5aa2 253e 6cc1 23bd 629a 50bd
00000020: ec7f 8abd aeed 143e 32eb 193d f3ed 68bd
00000030: 754d 193e fa3b c33c b728 cb3d 4f08 ee3d
00000040: 224b 80bd b378 db3d 8967 933d 6f6c f93d
00000050: 1411 a63d 671c 143e 8fc0 373c 9e66 95bd
00000060: d7d7 ac3d 30ed cb37 f3d9 82bd 3c4d 21be
00000070: 2d25 50bd 46d0 013e f067 74bd 6778 3a3c
00000080: 97f5 06be a65f 90bd 5833 38be 5182 92bc
00000090: a6f9 103d 29ec 24be 7f02 ae3d 7466 053e
000000a0: 4768 c83d cdd7 dbbc 0038 283e df8a 793c
000000b0: 7098 43bd f0a2 0f3e 78c0 833d 376a 393e
000000c0: b2fd 0f3e 1803 333e fdf4 49bc 3aa9 f93c
000000d0: c223 353e abe8 b43d 7eca a73d f61e 593d
000000e0: a9a7 093e b5cb d0bc b0a0 8dbd b484 33bd
000000f0: 0c18 d4bb 7f0c a9bd 7ca9 1fbd e6f3 34be
00000100: d4bb 943c 32ac 05be c55d e6bd 3cb5 963d
00000110: 6baa d03d 006d 36be 7523 d5bd 7647 b93d
00000120: 7cab cc3d ae44 253d b221 23be 2124 8fbe
00000130: 1434 f8bc 9ccb a2bc 7ec7 3b3d 7a3c 8fbd
00000140: 1e7a 163c 1e23 b33d 0c33 153e 2496 bfbc
00000150: f13d 93bd 7685 3f3c 779a 313c c855 d4bd
00000160: 4b2a 793a cc6e bb3b 8169 253b c2ad ac3d
00000170: 0349 d03d 5d00 e23d a1f5 f93d e6c9 9f3d
00000180: 0cd7 ed3c dbb8 893d 222a e93c ed69 acbd
00000190: 91ba b33d 2630 d3bd 2d15 213d d1c6 223d
000001a0: 2d9c 01be 87c8 dc3d 70d9 c43d a7e8 72bd
000001b0: 12c3 04be ee56 58bd 2bfa 0b3d 63cb 943d
000001c0: 01f1 803d 1671 3bbe b54b 10be e776 1bbe
000001d0: 1ce2 12be 8fec a13c 63f7 04bd 4327 34bd
000001e0: fe0a 443d 1986 05be 33c6 1d3d c1c0 edbc
000001f0: fb74 db3d 1768 063e 5416 303c d17d dbbd
00000200: fb47 923d 5b93 523c 5733 933d 3415 dcbd
00000210: 947a 10bd d9d6 833d 3f67 7f3d 53b8 7abd
00000220: 2a2c 273d 5d96 92bd af0f c6bd 0e37 99bd
00000230: 184c f4bd 7050 cbbd 4adb c6bd 849d 36bd
00000240: 546b 1dbd 055f 9a3d 41c5 a33d 296c b9bd
00000250: 7341 ed3c 6d4b c73d 50f8 c5bd 8e54 b6bd
00000260: 9e39 c63d 56ab 73bd f88c 553d ef66 3d3c
00000270: c3f0 87bd 5235 bfbd 8ac7 303d e3bf c43d
00000280: e7cd ae3d 0f1d 833d b126 013e d908 8c3b
00000290: 88c5 443c e032 493d 05c5 9fbc 2db0 693d
000002a0: 227a cfbd 01ce bd3d 01d4 003e 82a7 f2bd
000002b0: ee58 31bd f6ca a1bd c9d6 27bb 80d4 043d
000002c0: 9c9b 533d 3baf 073e df12 9dbc f087 a3bc
000002d0: 63d5 cb3d 5de6 9dbd 5f0a 86bb 1a94 a7bd
000002e0: 42fe 873d e599 76bc 0bcc 4c3e 4a61 3e3d
000002f0: 949a 53bb d4c6 f33d 4d96 753d cc17 b8bd
00000300: e5c8 89bd 3c2e 97bd 27ac ab3d 6d6f e6bd
00000310: a94f 0b3d 5ace eabc bd2a 8e3d ce0a 0cbe
00000320: 7385 02be 9aaf 943d e141 023d 2f61 f2bc
00000330: b722 cabd 3cd1 43be 3743 aabd 3336 85bd
00000340: c1e8 43bd 2ea7 293d 8677 17ba 263f 933c
00000350: d8f1 453d 426d c73c 0bcd 5b3c fc29 c73c
00000360: 7bb6 6bbd efbb b2bc 7696 c0bd 2e59 89bb
00000370: a9ab 553d ef98 d0bd d560 72bd 1642 d53c
00000380: e19a c3bd 0d89 c93d e257 fbbc c50d afbd
00000390: 4c3e 68bd 18f8 03be ea7b 76bd 5dfe 113d
000003a0: 0429 b93d 8b9c a53d e8c5 ba3c 5b86 8d3d
000003b0: e823 7d3d 6fdc 93bd 28ee 1abe e0ad cb3d
000003c0: cd46 633d b877 edbd cb0b 1c3e 82b0 98bc
000003d0: d608 eebd d4b3 76bd a5cb a5bb dca3 af3d
000003e0: cfc8 083c 2a1d 7a3d 280c cfbd 14c2 9c3d
000003f0: f80d eabd 2b17 9d3c aef4 9c3b a6eb e5bd

lstm.weight_hh_l0_reverse f4 [256, 64]
0.08697837 0.029707992 -0.0729031 -0.056804195 0.06725858 0.055371467 -0.039530378 0.048377667
0.14499982 0.1478662 0.08760328 0.12735732 0.054770138 -0.08949589 -0.008854913 0.049116857
0.103096545 -0.09475138 -0.015431261 -0.025554838 -0.07832707 -0.03746994 -0.045382068 0.016818745
0.011541653 0.06981376 0.104206994 0.08204646 0.020550245 -3.506519e-05 0.0473067 -0.037428778
-0.070298426 -0.106522635 0.0021376242 0.10532594 0.03596709 -0.01704346 0.12497456 -0.031423833
-0.10501085 -0.09181748 -0.16280349 0.033158105 -0.033556838 -0.091469444 -0.042312596 -0.088265695
0.009560167 -0.049301237 -0.06261218 -0.047789663 0.039822467 0.11611233 -0.15061133 0.027440377
0.0714312 0.011974993 -0.0057448684 0.025326043 -0.065165125 0.10157215 0.061177798 0.020510776
-0.12827912 0.08368739 -0.026798273 -0.09475901 -0.026945623 -0.035098694 -0.003056279 0.07167303
0.03315756 -0.11782388 0.11353373 -0.08996755 0.057247315 -0.105293736 -0.07164219 0.08420598
0.025162226 -0.077641904 -0.029678024 -0.05825045 0.11014966 0.02539791 -0.043003034 -0.079649515
0.22067176 -0.15077074 0.06403707 0.024517424 -0.0009307809 -0.10558654 -0.069821835 0.0005147365
0.047306947 0.044637367 -0.009787396 -0.1587115 0.0120722065 -0.12131719 0.04208224 0.16749074
-0.0147098685 0.19699985 -0.014296536 -0.068598025 0.112049654 0.12521495 0.11817224 0.11134824
0.11834871 -0.14823537 -0.13392161 -0.19825347 0.12888895 0.0020119562 0.02665643 0.070443705
0.16853955 0.05324177 -0.068432204 -0.04518177 0.065561794 -0.024248196 -0.092172034 -0.10760858
0.04079039 -0.07315998 -0.007524733 -0.13586752 -0.023050172 -0.09876118 -0.060039178 0.11499829
0.07292447 0.14026862 -0.059961475 0.055956755 0.058992855 0.08816876 -0.073331565 -0.15308207
0.08351331 0.07140386 0.015931621 0.109951966 0.02951449 -0.19157772 -0.079491585 -0.062380984
0.09509358 -0.038470298 0.012515621 -0.058457885 -0.004454435 0.10917817 -0.09618326 0.19930783
-0.17686655 0.050530273 0.12777834 -0.1354777 -0.030716207 0.011296485 -0.08751636 0.06721121
-0.057506267 -0.1072204 -0.04141324 0.028374419 -0.07806453 0.047499955 -0.09206634 -0.023612307
0.013528989 0.25724718 -0.05146529 0.19185568 0.18170987 -0.13586894 0.011071451 -0.029069804
-0.052020643 0.13557044 -0.08671642 0.16440314 -0.080329634 0.012984228 -0.16034085 0.07046587
-0.21118967 0.1877281 -0.045129098 -0.131416 0.06685971 -0.03295291 -0.21081434 0.37049347
-0.31729823 0.10014626 -0.11149257 0.06415733 0.16305591 -0.1420884 -0.098497584 -0.3911473
-0.20982808 0.1083254 -0.03946484 0.033155486 0.15828243 -0.13020761 -0.10644829 0.29017904
0.083199844 0.2851902 -0.19904938 0.02609235 -0.092945896 0.25587556 -0.1495442 -0.046956364
-0.10191476 -0.11565597 -0.06773737 0.0020860338 0.075812645 -0.09849996 0.082824394 -0.016998937
0.022301642 -0.28667435 0.23675932 -0.02688821 0.20406373 0.08909064 -0.36316782 0.17934382
0.09310316 0.27903956 -0.076803625 0.24790424 0.031820092 -0.082678035 0.27827132 0.09460981
-0.04872687 0.23941852 0.14445733 0.10085054 -0.069918714 0.103204615 -0.051532414 0.2038422
00000000: b721 b23d 2d5e f33c 384e 95bd 84ab 68bd
00000010: debe 893d 31cd 623d 9bea 21bd a927 463d
00000020: d57a 143e 3d6a 173e 5969 b33d f569 023e
00000030: a756 603d 9f49 b7bd 3214 11bc c22e 493d
00000040: 4824 d33d 030d c2bd 66d3 7cbc 6158 d1bc
00000050: f169 a0bd 147a 19bd 8ce2 39bd 77c7 893c
00000060: 3419 3d3c 84fa 8e3d 7a6a d53d f907 a83d
00000070: fd58 a83c f612 13b8 acc4 413d eb4e 19bd
00000080: 9ff8 8fbd 8a28 dabd 6217 0c3b 20b5 d73d
00000090: 3a52 133d ba9e 8bbc aaf2 ff3d 47b6 00bd
000000a0: ee0f d7bd ce0a bcbd f5b5 26be cbd0 073d
000000b0: e572 09bd 5554 bbbd f94f 2dbd a5c4 b4bd
000000c0: 3fa2 1c3c 18f0 49bd d13a 80bd 18bf 43bd
000000d0: e21c 233d 4dcc ed3d db39 1abe a4ca e03c
000000e0: 854a 923d c332 443c 733f bcbb 9078 cf3c
000000f0: 4b75 85bd 0f05 d03d 9295 7a3d 3706 a83c
00000100: 9a5b 03be 4b64 ab3d 0d88 dbbc 0311 c2bd
00000110: 11bd dcbc a6c3 0fbd da4b 48bb 4fc9 923d
00000120: 39d0 073d a54d f1bd 5f84 e83d e840 b8bd
00000130: 297c 6a3d 3ea4 d7bd 24b9 92bd 2f74 ac3d
00000140: 0321 ce3c b802 9fbd 541f f3bc 0698 6ebd
00000150: 2596 e13d 470f d03c f323 30bd 491f a3bd
00000160: c7f7 613e a563 1abe de25 833d c4d8 c83c
00000170: a6ff 73ba c23d d8bd c0fe 8ebd 62ef 063a
00000180: eec4 413d acd5 363d 505b 20bc 4485 22be
00000190: 81ca 453c 2675 f8bd 6d5e 2c3d b182 2b3e
000001a0: a901 71bc 54ba 493e 053c 6abc 1f7d 8cbd
000001b0: 4a7a e53d 5938 003e 4a04 f23d 8c0a e43d
000001c0: cf60 f23d 03cb 17be bf22 09be f502 4bbe
000001d0: 77fb 033e 06db 033b 965e da3c ca44 903d
000001e0: a295 2c3e 0b14 5a3d 2f26 8cbd 8510 39bd
000001f0: 4345 863d 27a4 c6bc b1c4 bcbd e361 dcbd
00000200: d313 273d e6d4 95bd 0992 f6bb db20 0bbe
00000210: b7d3 bcbc 4d43 cabd a4eb 75bd 3984 eb3d
00000220: 6d59 953d 94a2 0f3e 2a9a 75bd e932 653d
00000230: 7ea2 713d d391 b43d dc2e 96bd 8cc1 1cbe
00000240: 0709 ab3d 303c 923d 0883 823c 7f2e e13d
00000250: 5fc8 f13c f32c 44be 7ccc a2bd 3483 7fbd
00000260: 6cc0 c23d 0893 1dbd 520e 4d3c 8971 6fbd
00000270: 82f6 91bb ce98 df3d bbfb c4bd 5a17 4c3e
00000280: 811c 35be d5f8 4e3d 53d8 023e abba 0abe
00000290: 8ea0 fbbc e414 393c c73b b3bd 08a6 893d
000002a0: b18b 6bbd 5e96 dbbd eea0 29bd 7871 e83c
000002b0: 4ce0 9fbd 508f 423d 478d bcbd 996e c1bc
000002c0: b1a8 5d3c e7b5 833e 45cd 52bd d175 443e
000002d0: 2712 3a3e 3a21 0bbe 0865 353c cc23 eebc
000002e0: 9913 55bd fad2 0a3e 6198 b1bd 4c59 283e
000002f0: dd83 a4bd cdbb 543c 6430 24be 6950 903d
00000300: 1b42 58be cc3b 403e 4ad9 38bd ea91 06be
00000310: beed 883d a1f9 06bd b7df 57be 52b1 bd3e
00000320: ea74 a2be 7b19 cd3d 3756 e4bd eb64 833d
00000330: 21f8 263e 9f7f 11be 1ab9 c9bd 7544 c8be
00000340: 2cdd 56be b5d9 dd3d e2a5 21bd 0cce 073d
00000350: ca14 223e 2555 05be 9001 dabd 5992 943e
00000360: ae64 aa3d 7304 923e 9ad3 4bbe a0bf d53c
00000370: 6b5a bebd 1f02 833e 1d22 19be 5155 40bd
00000380: b0b8 d0bd 0add ecbd e4b9 8abd d7b5 083b
00000390: a943 9b3d 59ba c9bd d69f a93d 5b41 8bbc
000003a0: efb1 b63c fbc6 92be 0971 723e aa44 dcbc
000003b0: 15f6 503e 2775 b63d 22f1 b9be e8a5 373e
000003c0: dfac be3d 46de 8e3e 384b 9dbd 9cda 7d3e
000003d0: c955 023d 1a53 a9bd 9479 8e3e cac2 c13d
000003e0: d495 47bd 212a 753e 9fec 133e ba8a ce3d
000003f0: 8b31 8fbd f15c d33d a713 53bd 02bc 503e

lstm.bias_ih_l0_reverse f4 [256]
-0.060432516 -0.06681729 -0.019774785 -0.11133277 -0.14368086 -0.0067041595 -0.03438177 -0.023189342
-0.01529506 0.19893622 0.084274665 -0.18365477 0.001345599 0.08511662 0.12821555 -0.033291634
0.08176222 -0.09983777 0.07049517 0.16278519 0.10431949 -0.055084158 0.052790016 0.06436592
-0.047588095 0.1626622 0.0813009 -0.025437951 -0.107029125 0.10249267 0.022660103 -0.009143519
0.14661975 -0.009248066 -0.020500002 0.15973601 -0.106531985 0.16754866 0.08642054 -0.060226135
-0.05362817 -0.06902807 0.1892542 0.027233312 0.025759373 -0.09989426 -0.13102238 0.015728595
0.14785506 0.024022218 -0.036640923 -0.033009894 0.13198124 0.16638905 0.101175964 -0.10891249
0.05302301 -0.06035587 -0.024473023 -0.07227182 -0.07282771 -0.07975636 0.070500724 -0.023265243
-0.0544748 -0.05340567 -0.08328076 0.10488705 -0.04172035 0.07336854 0.009292738 0.04843285
0.06992579 0.12394788 0.04593763 0.038124714 -0.005752723 0.006487826 -0.05092602 -0.06302291
0.029274091 -0.04901123 0.014984717 0.013161242 0.021904344 -0.12170866 -0.017689813 0.10035089
-0.063710846 -0.03818163 -0.092824124 0.088024884 0.115075834 0.12867935 -0.040917635 0.034991235
0.12232046 0.007361037 0.047121815 -0.05089357 -0.081113674 0.10310993 -0.011825862 -0.035575684
0.16681126 0.114368305 0.0846592 0.037682988 0.12842795 0.17268954 -0.09536576 -0.08372615
0.12760635 -0.019060964 0.03456564 0.15946892 0.21894963 0.09386416 -0.049526956 0.06361821
0.012977422 0.03234745 0.0743882 0.09781897 -0.013671631 0.019778313 -0.09049188 0.0691628
-0.10203672 -0.0061566974 0.04860015 -0.14320654 0.09094858 0.08646233 -0.13406041 -0.013951146
-0.14049427 -0.030777387 -0.1258839 0.0030026308 0.08432427 -0.083044186 0.06522118 -0.04012721
-0.07366276 -0.05150549 -0.016006645 -0.030001357 0.06268313 0.08031447 -0.012725919 0.046610106
-0.03975356 0.009288672 -0.081533305 -0.10152889 -0.02996551 -0.06620065 -0.0028223537 0.09075179
0.071056664 -0.069095165 0.028328674 0.07353236 -0.033639036 -0.07278846 0.00026601247 0.075008176
0.060659595 -0.107783586 0.084829 0.057875916 -0.041341234 0.1378565 -0.10647898 0.08101175
-0.08078419 0.12064441 -0.0012792352 0.14899597 0.035610322 0.06724334 -0.076905616 -0.04240752
-0.004080953 0.077298574 -0.025094775 0.12179328 -0.0277435 -0.044179678 -0.15959525 0.080727376
0.015434268 0.034633346 0.07586932 0.024715172 -0.11319761 -0.103104174 -0.0017033466 -0.028566102
0.14757955 -0.051169276 -0.062072527 -0.07477331 0.057632916 -0.11991569 0.072113045 0.06373787
-0.040015873 -0.03460868 0.100945935 0.06195926 -0.043217264 -0.051498152 0.0950511 0.18846913
0.042668864 -0.0090361275 -0.08614238 -0.096115716 0.124387965 0.027116194 -0.098968625 0.021043925
0.06216092 0.09010188 0.059517007 0.063895024 -0.020925602 0.09824245 -0.18445557 0.01399937
-0.097119495 0.12916116 0.068559006 0.10816718 0.07383376 0.17366536 0.03825384 -0.017408554
-0.051502813 0.0074712313 0.044704434 -0.01587585 0.12962507 -0.0734709 -0.07792677 -0.0013506408
-0.00973457 0.10639463 -0.025964342 0.10204497 0.004398822 0.09912993 0.14311378 -0.10236096
00000000: 1688 77bd 81d7 88bd bbfe a1bc 6f02 e4bd
00000010: 1321 13be 91ae dbbb e6d3 0cbd 93f7 bdbc
00000020: 2298 7abc f0b5 4b3e 3298 ac3d ff0f 3cbe
00000030: cf5e b03a 9f51 ae3d f04a 033e cf5c 08bd
00000040: f372 a73d bf77 ccbd c65f 903d 29b1 263e
00000050: 75a5 d53d ed9f 61bd 583a 583d 48d2 833d
00000060: bceb 42bd eb90 263e 1681 a63d 4063 d0bc
00000070: 1632 dbbd ade7 d13d aea1 b93c b3ce 15bc
00000080: 7d23 163e 3385 17bc 9fef a7bc d691 233e
00000090: 712d dabd e091 2b3e 41fd b03d aeaf 76bd
000000a0: 36a9 5bbd 975e 8dbd dacb 413e 6518 df3c
000000b0: 5205 d33c 5d95 ccbd bb2a 06be 41d9 803c
000000c0: 5167 173e 3eca c43c cb14 16bd 6235 07bd
000000d0: 1726 073e e461 2a3e 5835 cf3d 830d dfbd
000000e0: a82e 593d b737 77bd a67b c8bc 3f03 94bd
000000f0: b226 95bd 4d57 a3bd af62 903d c096 bebc
00000100: f820 5fbd e7bf 5abd 1a8f aabd 06cf d63d
00000110: f5e2 2abd 3f42 963d 9140 183c 8661 463d
00000120: 4135 8f3d 63d8 fd3d 1929 3c3d a928 1c3d
00000130: 5781 bcbb d497 d43b cd97 50bd 2812 81bd
00000140: 38d0 ef3c 00c0 48bd 7582 753c 40a2 573c
00000150: bd70 b33c 6442 f9bd 3aea 90bc c484 cd3d
00000160: d57a 82bd 5764 1cbd 931a bebd 6446 b43d
00000170: e1ac eb3d 85c4 033e 4099 27bd f852 0f3d
00000180: 2683 fa3d db34 f13b ce02 413d c775 50bd
00000190: ed1e a6bd 4d2b d33d 43c1 41bc cfb7 11bd
000001a0: 92d0 2a3e ee39 ea3d cd61 ad3d 7a59 1a3d
000001b0: 9e82 033e 87d5 303e 204f c3bd 9e78 abbd
000001c0: 3dab 023e bd25 9cbc b394 0d3d d24b 233e
000001d0: 5534 603e da3b c03d c7dc 4abd 444a 823d
000001e0: 419f 543c c27e 043d d758 983d 5055 c83d
000001f0: fafe 5fbc 2106 a23c cf53 b9bd 3aa5 8d3d
00000200: a1f8 d0bd 1fbe c9bb f310 473d bca4 12be
00000210: 4043 ba3d 2913 b13d 2247 09be 5993 64bc
00000220: bbdd 0fbe dc20 fcbc b6e7 00be c9c7 443b
00000230: 34b2 ac3d 1213 aabd af92 853d 6e5c 24bd
00000240: 80dc 96bd 6cf7 52bd 5e20 83bc 68c5 f5bc
00000250: 0360 803d ea7b a43d 5f80 50bc 3dea 3e3d
00000260: a1d4 22bd 842f 183c effa a6bd 61ee cfbd
00000270: 3b7a f5bc 3594 87bd 3df7 38bb 13dc b93d
00000280: 2886 913d c481 8dbd 8911 e83c 2298 963d
00000290: 16c9 09bd 1e12 95bd 9777 8b39 e39d 993d
000002a0: 3276 783d a4bd dcbd d4ba ad3d 4c0f 6d3d
000002b0: 6d55 29bd 412a 0d3e a711 dabd 7de9 a53d
000002c0: 2e72 a5bd 6b14 f73d 03ac a7ba 6692 183e
000002d0: 21dc 113d e0b6 893d b180 9dbd 82b3 2dbd
000002e0: 84b9 85bb b74e 9e3d 8f93 cdbc c16e f93d
000002f0: 5646 e3bc c0f5 34bd f06c 23be 6554 a53d
00000300: 03e0 7c3c b2db 0d3d 6061 9b3d 7977 ca3c
00000310: 26d4 e7bd 4828 d3bd d442 dfba 7503 eabc
00000320: 181f 173e e096 51bd c33f 7ebd c022 99bd
00000330: 7e10 6c3d 5b96 f5bd 01b0 933d 0089 823d
00000340: afe7 23bd d5c1 0dbd bebc ce3d fec8 7d3d
00000350: 9604 31bd baef 52bd 27aa c23d 0dfe 403e
00000360: 8cc5 2e3d 440c 14bc 6b6b b0bd 51d8 c4bd
00000370: 1ebf fe3d c822 de3c 10b0 cabd 4f64 ac3c
00000380: 739c 7e3d 5687 b83d 1bc8 733d 65db 823d
00000390: 2b6c abbc 5633 c93d ece1 3cbe 9d5d 653c
000003a0: 96e6 c6bd d342 043e aa68 8c3d c186 dd3d
000003b0: 2836 973d 55d5 313e 0fb0 1c3d 629c 8ebc
000003c0: 9df4 52bd 3bd1 f43b ff1b 373d 120e 82bc
000003d0: 6fbc 043e e977 96bd 1298 9fbd fc07 b1ba
000003e0: bf7d 1fbc 6ee5 d93d 2cb3 d4bc f4fc d03d
000003f0: fe23 903b a204 cb3d 6b8c 123e 9fa2 d1bd
