.checkpoints/cnn_lstm_best_model.pt (torch, 698398 bytes, 23 tensors)

conv1.weight f4 [32, 19, 7]
000000 25 92 8e bd d8 0f c8 bb f7 98 e1 3c 58 27 a5 bd
       -0.069614686 -0.0061054043 0.02753876 -0.08064145
000010 66 a8 48 bd d3 1c bc bb 18 e3 a9 bd 23 d6 d2 3b
       -0.048988722 -0.005740741 -0.08295268 0.0064342185
000020 4b ba 08 3c 55 01 51 3c ce dd db bc 2f ff c6 3c
       0.008345197 0.012756665 -0.026839163 0.024291603
000030 5d 1a 4a bd 91 bc dc ba ef ac 35 bd 89 97 0a 3d
       -0.04934155 -0.0016840865 -0.044354375 0.03383592
000040 0d 1b 8f bd 1c 9f 9a bd e9 d5 87 3c 5a 15 87 bc
       -0.069875814 -0.07549879 0.016581492 -0.016489673
000050 86 48 8d 3b 50 42 12 3e b0 cd 0a 3e af e9 d3 3c
       0.004311624 0.14283109 0.13555026 0.025868265
000060 4f 0b cc 3d 86 55 02 3d 47 e9 a4 3d 33 df 18 bc
       0.099630944 0.031819843 0.080523066 -0.009330559
000070 98 e8 67 bd 13 5e 6f 3b ea 81 ac bd d5 10 32 bd
       -0.056618303 0.0036524578 -0.08423217 -0.043473084
000080 65 3f 9d 3c a9 40 34 bd d1 aa 19 3c 38 af c7 bd
       0.019195268 -0.044006977 0.009379105 -0.09750217
000090 3a 25 c9 3b bc ca 11 3d db 13 8c bc d5 8e 47 3c
       0.006138471 0.035593733 -0.017099312 0.01218005
0000a0 2d b4 a3 bc a2 ce 8f 3d 44 a0 75 3c 74 49 fc 3d
       -0.019983375 0.07021834 0.014991824 0.123186976
0000b0 e4 a2 b7 3d a2 62 58 3c 58 1b e8 3d 67 c9 a8 3d
       0.08966616 0.01320711 0.113333404 0.082415394
0000c0 76 37 28 3c 94 10 e3 bc 54 56 89 3d 69 9d 9a 3d
       0.010267129 -0.027717866 0.06705919 0.07549555
0000d0 0d 0f ea bc b3 20 fb bc 7f 8f dc bc 6d 8b 41 bd
       -0.02857163 -0.03065524 -0.026923893 -0.047252107
0000e0 06 06 ad 3c 9f 6a 6f bd 09 44 cb bd 71 04 10 bd
       0.021121036 -0.05845129 -0.09925086 -0.035160486
0000f0 3d 36 b9 bd a4 72 85 bd 7b 4c cb bc 03 68 00 3e
       -0.09043548 -0.065160066 -0.024816742 0.12539677
000100 25 41 09 bd b6 80 02 3e 1b 34 a7 3d 02 04 6e 3d
       -0.033509392 0.12744412 0.08164235 0.05810929
000110 b2 d9 48 3d 00 06 b4 3d 60 00 00 bd 52 5b cb bd
       0.049035735 0.08790207 -0.031250358 -0.09929527
000120 a3 24 39 3d 4f 22 72 3c b6 be 9b 3c 0f fb 93 bd
       0.045200955 0.014778688 0.019011836 -0.0722562
000130 55 dc b7 bd dd 20 4b 3d a3 d3 af 3c 7b b0 ea bd
       -0.08977572 0.049591888 0.021463221 -0.11459442
000140 48 95 af bc b6 b7 58 3d 9b cf a7 bd 8d 34 9b 3b
       -0.021433488 0.052909575 -0.081938945 0.004736489
000150 f2 d9 3c 3c 3d bb e8 bd 55 dc a1 bd e0 20 8b bd
       0.011526572 -0.11363838 -0.07903353 -0.0679338
000160 6c b5 74 3c ab c6 bb bd 34 55 3d 3c f8 5b 55 bc
       0.0149358325 -0.09168752 0.011555959 -0.013022415
000170 a7 57 ab 3c 75 0b c3 3d 93 43 94 bc 05 f1 5d bd
       0.02091582 0.0952367 -0.018098628 -0.054184932
000180 75 1c 81 3d 02 41 29 bd b4 b0 83 bc f2 c2 ad 3d
       0.06304256 -0.041321762 -0.01607547 0.084844485
000190 b2 6b 26 3c 0d 66 be 3d 2f 19 8b 3d 70 77 b0 bc
       0.0101575125 0.092968084 0.06791913 -0.021541327
0001a0 ec 75 be bc 58 92 e1 bd 46 6f af bc f5 8e 84 bd
       -0.023249589 -0.11014241 -0.021415364 -0.064725794
0001b0 eb 80 0b bd 31 fc 8b 3c 12 80 bb bd 3a e5 8b bc
       -0.034058493 0.017088028 -0.09155287 -0.017077077
0001c0 5f af 2e 3d 9d 69 93 3d 17 19 65 bb 52 d1 19 bd
       0.042647716 0.071978785 -0.0034957582 -0.03755314
0001d0 77 1c a3 bd e4 6f a5 3d 61 69 37 bd e4 0c e4 bd
       -0.079644136 0.08077982 -0.04477823 -0.11135271
0001e0 86 b6 a0 bb 3d f1 15 3d 48 89 ca bd 4c a7 16 3d
       -0.004904571 0.036607016 -0.098894656 0.03678064
0001f0 2b 62 72 bd af c7 0e be f7 84 85 3d eb 54 bb bc
       -0.05917565 -0.13943361 0.06519502 -0.02286764
000200 4b 5c 60 3d 53 db 4b bd 91 2c 8f 3d 45 2d 26 bd
       0.054775517 -0.04976971 0.06990922 -0.040570516
000210 1a b1 90 bd 1a 9c 43 3d a0 c1 2b 3d c5 56 11 3e
       -0.070650294 0.047756292 0.041932702 0.14193256
000220 38 c3 1a 3c e3 14 de bc bc 1b d5 3d 39 5a e3 3d
       0.009445958 -0.027109569 0.104056805 0.11101193
000230 5a 81 a7 3d 1b 2f 39 3c d2 cc 49 bc 76 c8 6d 3d
       0.08178969 0.011302735 -0.012316899 0.058052503
000240 69 9c 7f bc 38 e5 e7 bb cc 18 6b 3c 80 95 d2 bc
       -0.015601256 -0.0070768856 0.014349174 -0.025706053
000250 4a 1d a5 bc bb 55 90 3d 73 15 c9 3d 99 e7 0d 3e
       -0.020155568 0.07047602 0.09818544 0.13857879
000260 aa 63 24 3c 87 9f da 3c e5 26 70 bd 29 dd f5 3b
       0.010033527 0.026687397 -0.058630843 0.007503171
000270 20 50 21 bd 87 9c 6a bc 13 d5 dc bc 1a 8c 5b bd
       -0.039383054 -0.014319546 -0.02695707 -0.053600408
000280 45 04 9c bd 14 12 78 3d 38 c3 b4 3d 9f 68 71 bd
       -0.07618002 0.060564116 0.088262975 -0.058937665
000290 3b 1c a3 bd cf e9 43 3d dc da 6c 3d 6b 51 ee bc
       -0.07964369 0.0478304 0.057825908 -0.029091557
0002a0 db 3e 8f bd bd f0 9b bd 85 dd f9 bd 42 1a a1 bd
       -0.069944106 -0.076142766 -0.122004546 -0.078663364
0002b0 ce 7d 96 bc 2b f7 69 bd c6 90 82 3c d8 3e 89 3d
       -0.018370535 -0.057120483 0.015938174 0.067014396
0002c0 96 0d e5 bc ea 45 8e 3c 7f b7 c1 bd d2 27 a3 3c
       -0.02796058 0.017367322 -0.09458827 0.019916449
0002d0 6b 89 ea 3c 2e 61 34 bc 81 98 62 3a 04 ce fe bb
       0.02862998 -0.011009498 0.00086439407 -0.007776024
0002e0 ef 70 b7 bc 1c 1e 8e 3c aa 21 75 bc 27 14 2b 3d
       -0.022392718 0.017348342 -0.014961639 0.041767266
0002f0 ab aa d0 3c 59 7f 01 bd b7 c2 25 3c 97 4f 70 bd
       0.025472006 -0.03161559 0.010117224 -0.058669653
000300 8c be ca bd 9c 44 2c bd 2b 37 74 3a da dc 38 3d
       -0.09899625 -0.04205762 0.0009316082 0.045132495
000310 cc 3f b0 3d d9 37 8d bc ce ff 03 bc 9f ec c4 3d
       0.08605918 -0.017238544 -0.008056594 0.096154444
000320 c1 9b d9 3d a6 5e d7 bb 05 4a e6 bc 76 2a 3e bd
       0.10625411 -0.0065725623 -0.028111467 -0.046427213
000330 cb 69 83 bd 61 2d 98 bc 31 4c a2 3d 7b 73 51 3a
       -0.06416663 -0.018576326 0.079246886 0.0007989925
000340 70 14 6d bd c0 6e bf bc 30 56 1e bd 59 6e b0 bd
       -0.05788082 -0.02336824 -0.038656414 -0.08614797
000350 91 c9 66 3b 25 e1 11 3c 68 b7 0e be fc 4f 09 be
       0.0035215358 0.008903776 -0.13937151 -0.13409418
000360 b4 c7 c8 bd 1b 5c 98 bd d0 b3 bd bc 32 98 15 bc
       -0.09803715 -0.07439443 -0.02315703 -0.0091305245
000370 df ff 65 bd d2 52 da bd 1c a6 60 bc 94 1b 4e 3c
       -0.05615222 -0.10660328 -0.013711479 0.012579817
000380 46 f5 45 3c 1c 33 af 3b b4 3a 30 3d 3f a4 0c 3d
       0.0120824035 0.005346669 0.043024734 0.034336325
000390 17 51 d2 ba 82 45 df bd 11 38 a4 bc af b2 8d 3d
       -0.0016045895 -0.109019294 -0.020046266 0.06918847
0003a0 17 19 83 bc 01 97 f4 bc 1b f2 e5 3d 30 a5 99 bc
       -0.016003175 -0.02985716 0.112278186 -0.018755525
0003b0 6f 56 0a 3e 96 14 03 3e 6a be 72 bd a4 7c b4 bd
       0.13509534 0.12800822 -0.059263624 -0.08812836
0003c0 78 ba 80 bd 94 bd cd bb d9 d6 24 3c 02 8a 69 3c
       -0.06285566 -0.006278703 0.010060989 0.014254095
0003d0 b2 e9 87 3c 87 6f d3 3c 2d 5c 05 3e 72 26 3d bd
       0.016590927 0.025810016 0.13023444 -0.046179242
0003e0 6e b3 06 3e d1 28 7a 3c 6e ef 98 3c 4f 18 cc 3d
       0.13154384 0.01526852 0.018668856 0.09965574
0003f0 14 56 c2 3d e2 26 ff 3d 68 5a 37 3c 3e a1 8a 3d
       0.09489074 0.12458588 0.011190988 0.06769036

conv1.bias f4 [32]
000000 9b 68 42 b8 79 df 1e b8 45 4e 31 38 69 8c d9 36
       -4.6350626e-05 -3.787826e-05 4.2272983e-05 6.48345e-06
000010 8e c1 3b b8 aa 5c a1 b8 58 3c 58 b8 65 be e8 35
       -4.4764536e-05 -7.694338e-05 -5.1554613e-05 1.7340759e-06
000020 a8 d2 0d b9 4a e3 90 b8 0d 58 0f b9 84 1d 1d b6
       -0.00013525283 -6.908791e-05 -0.00013670344 -2.3412003e-06
000030 2d 2f 80 38 a8 8c 5b b8 0e 70 8e b8 bd fd e1 37
       6.112303e-05 -5.2344665e-05 -6.7919595e-05 2.6940246e-05
000040 f2 4c 80 38 c4 23 a0 37 f5 9d e1 b5 91 f6 85 37
       6.117848e-05 1.9090141e-05 -1.6809778e-06 1.5969652e-05
000050 6c 4d b3 34 66 da 60 37 10 31 bf b8 71 89 d8 38
       3.339768e-07 1.340229e-05 -9.116728e-05 0.00010325283
000060 8c 2b a3 36 a2 7f a0 b5 f0 f4 3c b9 b0 75 c0 b6
       4.862848e-06 -1.1958075e-06 -0.00018020323 -5.7357465e-06
000070 70 d6 2f b7 87 43 14 b7 c0 60 96 38 38 76 83 36
       -1.04807405e-05 -8.83721e-06 7.1705785e-05 3.9178667e-06

bn1.weight f4 [32]
000000 33 5e 80 3f ca d4 80 3f 34 21 80 3f 75 7e 7e 3f
       1.0028747 1.0064938 1.0010133 0.9941171
000010 b5 b1 7c 3f 02 b0 82 3f 81 26 80 3f a4 6a 82 3f
       0.9870866 1.0209963 1.001175 1.0188794
000020 e0 7e 7d 3f dd 02 86 3f 28 27 7b 3f c5 ee 87 3f
       0.9902172 1.0469624 0.9810662 1.0619742
000030 1a 5b 80 3f cc 18 81 3f c0 06 78 3f 64 0f 76 3f
       1.0027802 1.0085692 0.968853 0.96117234
000040 e5 a0 80 3f 1c 4d 7b 3f eb cd 7d 3f 6d 35 77 3f
       1.0049101 0.98164535 0.9914233 0.96565896
000050 a2 00 76 3f b6 36 83 3f 1c 05 81 3f 44 69 82 3f
       0.96094716 1.0251071 1.0079684 1.0188375
000060 6d 98 7f 3f db d1 6d 3f d5 91 81 3f e3 a8 70 3f
       0.9984196 0.9289834 1.012263 0.940077
000070 7a 72 80 3f 0b 51 7c 3f 75 e2 80 3f 6a 74 80 3f
       1.0034935 0.9856116 1.0069109 1.0035527

bn1.bias f4 [32]
000000 02 fb ef 3c 65 a5 83 bd 23 f8 de bc 37 c8 54 bd
       0.029294495 -0.06428031 -0.02721793 -0.051948752
000010 27 c2 2b bd 02 06 2d b8 a0 ec cc bc 28 d8 f9 3b
       -0.041933205 -4.125201e-05 -0.025015175 0.007624645
000020 a4 06 d2 bc 10 3b 32 bd bd 8c c1 bc 07 9b 9f 3d
       -0.025637932 -0.043513358 -0.02362668 0.07793241
000030 27 71 e4 3a f2 c8 b3 bc 58 ee 01 bd 20 c5 19 3d
       0.0017428742 -0.021946404 -0.031721443 0.03754151
000040 33 9d 08 bd 9d a3 89 bd 52 48 8a bb 17 aa 1d 3d
       -0.03335304 -0.0672066 -0.004220047 0.03849229
000050 23 8d 9d bd b3 e1 c3 bd cd 52 8b bc e7 7a ef 3c
       -0.07692935 -0.09564533 -0.017007256 0.02923341
000060 c7 3f ef 3c c3 f1 36 bd e0 e5 14 bd 8d 23 a5 bb
       0.029205216 -0.044664156 -0.03635204 -0.0050396384
000070 0e e2 ac bc 0f af 79 bd f4 f6 16 3d c7 9c cc 3b
       -0.021103885 -0.060957965 0.036856607 0.0062442753

bn1.running_mean f4 [32]
000000 84 d0 8c c0 40 84 03 40 ed 4d 43 c0 a0 aa ac 40
       -4.4004536 2.054947 -3.0516312 5.3958282
000010 9c 10 f4 3f e1 41 d6 40 f4 ca d9 bf 34 41 a8 c0
       1.9067569 6.695542 -1.7015061 -5.2579594
000020 df 27 5b c0 6b 4c 0b 3f ad a8 96 c0 a2 6b 86 40
       -3.4243085 0.5441348 -4.7080903 4.200639
000030 e3 1e 08 c0 97 a8 fb 40 ff c9 d6 bf d7 8b a2 3f
       -2.1268852 7.86433 -1.6780394 1.2698926
000040 5d 00 b8 3f d9 2a 36 40 4f c4 23 c1 c6 92 bd c0
       1.4375111 2.8463652 -10.235427 -5.9241667
000050 46 47 15 41 9c e6 db 40 78 aa 55 40 d7 68 c2 3f
       9.329901 6.8719006 3.3385296 1.5188245
000060 b1 77 04 c1 af 41 b8 3f d7 29 aa c0 1a cd d4 40
       -8.279222 1.4395045 -5.3176074 6.650037
000070 15 59 c4 bf ae 8d 74 bf 15 fc 48 c0 96 a0 0e 3f
       -1.5339686 -0.95528686 -3.1403859 0.55713785

bn1.running_var f4 [32]
000000 2f e6 d9 3f a2 fc 59 3f 32 6d b4 3f ff df 22 40
       1.7023371 0.8515111 1.4095824 2.5449216
000010 a4 ed 4d 3f fd 9e 83 40 c5 25 3c 3f d8 2e 23 40
       0.80440736 4.1131577 0.7349513 2.549734
000020 c1 e9 c0 3f 72 7f 21 3f f3 7b 02 40 d8 38 cf 3f
       1.5071336 0.6308509 2.0388153 1.6189222
000030 98 e8 2b 3f 8d a5 ad 40 ef a2 50 3f eb b1 1e 3f
       0.67151785 5.426459 0.81498617 0.6199023
000040 5e 80 36 3f a3 c8 85 3f 1f a4 04 41 88 93 3b 40
       0.7128962 1.0451854 8.290069 2.9308796
000050 c4 5f da 40 b5 fc 9b 40 76 7f c8 3f ca 6f 03 3f
       6.82419 4.874598 1.5663898 0.5134245
000060 ab 0b b3 40 af b5 b0 3f 87 25 13 40 be 4e 62 40
       5.5951743 1.3805445 2.2991655 3.536056
000070 d9 0c 40 3f 53 97 0e 3f 6c 26 94 3f a5 43 ac 3e
       0.75019604 0.5569965 1.1574225 0.3364536

conv2.weight f4 [64, 32, 5]
000000 b9 b6 62 3d b5 c1 e1 bc 2d 3b 25 bd 6f e5 68 3d
       0.05535004 -0.027558187 -0.040339638 0.05685943
000010 a1 cc ae 3d d9 a9 39 3d 93 e3 56 bc 0c 2a 89 bd
       0.085351236 0.045327995 -0.013115781 -0.06697473
000020 fb 00 cb bd 9a 7b c7 bd b7 a3 83 3d 9f f9 0d bd
       -0.099122964 -0.09740372 0.064277105 -0.034661885
000030 0e 8d 8a 3d 17 ed 95 ba a9 8c 94 3d ac 47 86 3d
       0.06765185 -0.0011438456 0.07253391 0.06556639
000040 e7 a3 41 bd 8e 5b 06 bd ac b0 14 3c cc 81 ad bc
       -0.04727545 -0.032802157 0.009075325 -0.021180056
000050 af 94 ad 3c c6 47 e7 bd c9 bc c9 3c f2 77 d7 bd
       0.021189062 -0.112929866 0.024626153 -0.10520925
000060 83 38 b1 bd 2d d7 06 bd 8c 16 0e 3d dc 30 8a 3d
       -0.08653357 -0.03292005 0.03468947 0.067476004
000070 e9 40 63 bd 77 16 3d 3d 5c 8d 3c 3d 67 a8 bb 3c
       -0.055481825 0.046164002 0.04603325 0.022907449
000080 4a bc 8a 3d 7b c9 2d 3c 06 96 82 3d aa 47 8f bd
       0.067741945 0.010607119 0.06376271 -0.06996091
000090 e3 3a 7e bd ac 70 0b bc 09 62 f3 bc 41 25 11 bd
       -0.062067878 -0.00851075 -0.029709833 -0.03543592
0000a0 d0 d6 b1 3d f3 73 69 bb 07 6f b6 bc 07 2d 12 bd
       0.0868355 -0.003562209 -0.022269739 -0.035687473
0000b0 f7 54 4a 3d 5f 8e 83 3b a9 bf 31 3b 32 28 a2 bd
       0.049397435 0.0040147747 0.0027122295 -0.07917823
0000c0 3b ef e7 3c 44 4a 0f 3b b8 cb ee 3c 09 9d 80 bc
       0.028312316 0.0021864334 0.029149875 -0.01569988
0000d0 98 7f 85 bd 50 fd b4 3d 4b 8c b7 3d 7a ef ad bd
       -0.06518477 0.08837378 0.08962306 -0.08492942
0000e0 b1 a3 1c be 6d 66 12 be f5 6f 0a be c9 ff fb bd
       -0.15296818 -0.14296885 -0.1351927 -0.123046465
0000f0 d7 eb 86 3d 8c 8f a2 bb 6e 90 b6 3d b0 b8 b3 3d
       0.06587952 -0.00496096 0.089142665 0.08775461
000100 4e 43 8e 3c 42 fc fc bc 4d 8a 91 3d af a4 10 bd
       0.017366078 -0.030882005 0.07106457 -0.035313305
000110 9b 22 30 3d f1 98 0f 3d fb e0 92 3d da 64 ab 3c
       0.043001752 0.035057966 0.07171818 0.020922113
000120 85 45 90 bd ae 1e 2b 3d 01 1e 4f bd ca d6 bd bd
       -0.0704451 0.041777305 -0.050565723 -0.092694834
000130 f0 f8 3a bd ed be af bc 34 f3 71 bc 29 64 bc 3c
       -0.04564756 -0.021453345 -0.014767457 0.022996979
000140 6f 3a 22 3c 5b 58 b0 3c cd 0d 0b 3d 38 c7 c7 bb
       0.009901627 0.021526506 0.03394871 -0.006096747
000150 33 4f b6 3b ce 55 b6 bc f4 e0 37 bd 32 12 02 3d
       0.0055636405 -0.022257712 -0.044892266 0.031755634
000160 8d 1a 58 3d 95 fb 70 bd 11 56 de bc 24 ed 59 bd
       0.052759696 -0.058833677 -0.027140649 -0.05320467
000170 6c 80 93 bd d5 be 6b bb 29 b5 be bd c1 23 b6 3c
       -0.07202229 -0.00359719 -0.09311897 0.022233846
000180 72 d4 bc bc 8e 93 06 3d b8 b6 9b bd f5 38 9e 3b
       -0.02305052 0.032855563 -0.0760321 0.004828567
000190 3f 17 b7 3c b6 c8 02 bb 7b 0d 77 3d 3d 94 10 bd
       0.022349952 -0.0019956059 0.06031559 -0.03529762
0001a0 f3 92 66 bb 06 6d 64 3d ac 06 54 bd 40 25 a8 3d
       -0.0035182803 0.055768035 -0.051764175 0.0821023
0001b0 01 0f 1e bd df 66 9b bb 91 c6 c2 bd ee f2 33 3d
       -0.038588528 -0.004742488 -0.0951053 0.043932848
0001c0 32 dc 18 3d 2c 95 81 3c 8b 22 94 bb 98 3b 04 3b
       0.03731937 0.015818201 -0.0045207194 0.0020177122
0001d0 fd 91 14 bd c4 2e f2 3d b4 59 95 3c 14 eb d9 3d
       -0.036272038 0.11825326 0.01823125 0.10640541
0001e0 31 bc 86 bc 06 9c 97 bd 2c 24 16 bd 55 6f 5d bd
       -0.016447159 -0.07402806 -0.03665559 -0.054061253
0001f0 70 d8 e3 3b ef da 27 bd 47 eb 85 3d ee 9b 23 3d
       0.0069532916 -0.040980276 0.06539016 0.039943628
000200 4e 62 0f bd ad 30 94 bd 09 40 db 3c 73 f0 95 3c
       -0.03500586 -0.07235847 0.026763933 0.018303132
000210 4c e2 7f 3d a8 f2 5a bd a5 fa c6 ba 70 17 cf bd
       0.062471673 -0.05345407 -0.0015180899 -0.10111892
000220 91 63 53 3d e0 16 83 bd 46 4b 18 bd 54 c2 bf bd
       0.051608626 -0.064008474 -0.03718116 -0.09363237
000230 d1 2b 24 3d 2c 32 a2 bd 17 38 30 3c 01 9d 5b bd
       0.04008085 -0.07919726 0.01075556 -0.053616527
000240 ac 5c 33 bd 44 67 98 3b ca eb cc 3d 26 ab c8 3c
       -0.04378955 0.004650982 0.10005911 0.024495672
000250 9a 4c d9 bc 67 1c 70 3d 92 63 4e bd f0 a0 7e bd
       -0.026525784 0.058620837 -0.050387926 -0.0621652
000260 da c3 41 3c 1c 56 7a 3d d2 93 46 3d 93 7d 40 bc
       0.01182648 0.061117277 0.048480816 -0.011748689
000270 18 87 50 3d 1a f1 86 3b ee 2c b9 3d ac 0b a1 3d
       0.050910085 0.004118097 0.09041773 0.07863554
000280 f7 f3 78 bd a1 79 89 bd 5f 00 0d 3d 19 f8 a0 3b
       -0.060779538 -0.06712652 0.034424182 0.004912388
000290 80 ec 59 3d 9a 36 67 3b 8f 2b d1 bb 00 dc 0f bd
       0.05320406 0.0035280348 -0.0063833664 -0.035121918
0002a0 27 94 c8 3c 18 72 58 bd fd c9 44 bb 59 da 5b 3c
       0.024484707 -0.052843183 -0.003002762 0.013418757
0002b0 9b 8a 45 bd ec 1a 74 3d e4 d4 2c 3d 3d 06 b7 bc
       -0.048227888 0.059595987 0.042195216 -0.022341842
0002c0 ec cb ed 3d 3e e6 83 bc 6f 57 2f 3d f7 7b 61 3d
       0.11611161 -0.016100999 0.042807993 0.055049863
0002d0 f8 83 be 3d b2 24 ac 3d 7b dc 99 3d 03 8a 0d 3b
       0.09302515 0.084054366 0.075127564 0.0021597154
0002e0 5b f0 c6 3d 7f f1 16 bd 69 62 3d bd bd b3 42 3d
       0.09713813 -0.036851402 -0.04623643 0.047534693
0002f0 8d 8b 89 3c 1d 17 4d 3c 9d bb 63 bc bb 4c c1 bb
       0.016790176 0.012517718 -0.013899711 -0.0058990396
000300 d7 6f e8 3c 74 08 89 bc cc ee b0 bd 22 1c 9b 3d
       0.028373642 -0.016727664 -0.08639297 0.07573725
000310 fe c5 79 bd 9a 5d 30 bd c6 de 1a bd 80 ba 8b bd
       -0.060979836 -0.043058015 -0.03781011 -0.068226814
000320 d3 7e 0a bd 89 8f d1 3c 88 0f a9 bd b4 07 ba bd
       -0.033812355 0.025581138 -0.082549155 -0.090835005
000330 0d 88 8c bb 3f 59 72 bd 91 dc c6 3b 00 32 c5 bc
       -0.0042886795 -0.059167143 0.006068774 -0.024071693
000340 47 8c 74 bd a5 d7 15 bd a8 11 07 bd 52 fc 1a bd
       -0.05970409 -0.036582608 -0.032975823 -0.037838288
000350 f5 88 3a 3b b9 84 31 3c 72 5c 37 3d c7 98 94 3d
       0.002846298 0.010834866 0.044765897 0.072557025
000360 33 52 de 3d f3 1e d9 3d 75 3d a6 3d 44 8c 86 3d
       0.10855522 0.10601606 0.08117191 0.06569722
000370 00 7b 33 bc 9c 28 c6 bc 28 ce 63 bc 5b 41 3a bd
       -0.010954618 -0.024189286 -0.013904132 -0.045472484
000380 8e 2c 0c 3d ef cc 98 3d 95 2a a3 3d db 95 02 bd
       0.03422218 0.07460963 0.07967106 -0.031881195
000390 ff 77 d4 bc d7 a2 9d bc 7d 6c 88 bd 29 6a c0 3c
       -0.025936125 -0.019242687 -0.066613175 0.023488121
0003a0 7a b7 aa bd c0 1d 9c 3b 50 ab ae 3c f5 b9 30 3d
       -0.083357766 0.0047642887 0.021321923 0.043146092
0003b0 15 f9 12 bd 07 8a 51 bc 0e 1e 82 3b d4 17 23 bd
       -0.035882074 -0.012789256 0.003970868 -0.039817646
0003c0 12 ac d9 bd 57 5a b4 bd 46 70 5e bd 89 57 96 bb
       -0.10628523 -0.088062935 -0.05430629 -0.0045880717
0003d0 02 9b de bd 72 3e 4c 3d 5f ca 1d 3d d3 0e 31 bb
       -0.10869409 0.04986424 0.038523074 -0.0027016893
0003e0 46 18 db 3c c5 57 c4 3d ec d6 5a 3d 3d b3 c0 bc
       0.026744973 0.09587053 0.05342762 -0.023522967
0003f0 0e 1a 1b bd 80 3f 2f 3a 0f 6e 50 3c d8 ef 9d bd
       -0.037866645 0.00066851825 0.0127215525 -0.07711762

conv2.bias f4 [64]
000000 b3 15 23 b7 2d 96 84 37 90 60 51 38 00 da 83 b7
       -9.720609e-06 1.5805557e-05 4.9919414e-05 -1.5717931e-05
000010 cc 31 62 37 53 7f 5f b6 2c 36 1d 36 1f a1 0d b6
       1.3482244e-05 -3.3303702e-06 2.3426355e-06 -2.1104422e-06
000020 7d d1 4b 37 54 22 49 b7 88 b1 e8 b7 b4 05 6a b7
       1.2148518e-05 -1.1988526e-05 -2.7739225e-05 -1.3948815e-05
000030 96 25 a3 b6 95 27 d8 b6 4a 71 b4 35 1c fe 09 36
       -4.862154e-06 -6.4419096e-06 1.3444017e-06 2.0562502e-06
000040 44 1d fa 37 27 7d 93 b7 47 da db 36 e9 84 9b b6
       2.981595e-05 -1.7582044e-05 6.5521194e-06 -4.6348327e-06
000050 83 b0 de 37 dc f7 a0 b6 0f a0 a9 36 be 2e 4a 37
       2.6546657e-05 -4.797226e-06 5.0552258e-06 1.2051021e-05
000060 cb 3d 45 b8 dd 7e da b6 a3 0c 77 37 7b af 55 b7
       -4.702601e-05 -6.511675e-06 1.47252895e-05 -1.2736647e-05
000070 09 5c f6 36 9a 1d 7b 36 08 f6 d2 b7 1a 89 48 38
       7.3420856e-06 3.7419145e-06 -2.5148518e-05 4.78114e-05
000080 7a bc 8b 37 7e 58 b3 36 59 2c ae 36 b5 8e 8f 37
       1.6657857e-05 5.3449176e-06 5.190767e-06 1.7113382e-05
000090 aa 9b 73 37 2b 31 1e 38 7c fd af 36 7c 1f 09 b7
       1.4520172e-05 3.7715927e-05 5.244916e-06 -8.173167e-06
0000a0 de f6 84 b6 cb 05 d3 36 6b f2 92 38 6a 94 92 b6
       -3.9626457e-06 6.2889644e-06 7.0069764e-05 -4.3684167e-06
0000b0 48 29 1e b7 0b b4 bd b7 22 ed 07 b6 3f 36 e4 36
       -9.427145e-06 -2.2614395e-05 -2.0254597e-06 6.8012446e-06
0000c0 b1 66 2e 38 c1 35 48 38 c3 46 b0 38 d2 dd 27 b7
       4.158047e-05 4.7733778e-05 8.4055144e-05 -1.0005622e-05
0000d0 e5 8a b8 b8 62 71 bf 36 f5 57 f8 36 c5 e8 36 b7
       -8.799675e-05 5.705443e-06 7.4012155e-06 -1.0902241e-05
0000e0 1f f0 b2 b7 68 7e 9b b7 23 93 25 37 36 99 6f b6
       -2.1331069e-05 -1.8536302e-05 9.869024e-06 -3.5702956e-06
0000f0 41 c8 ef 37 00 f8 1c b8 aa cd 80 b6 84 0a 9b b8
       2.858427e-05 -3.7424266e-05 -3.8386397e-06 -7.392935e-05

bn2.weight f4 [64]
000000 da 8f 7b 3f 28 83 7a 3f 0a cd 75 3f be 80 75 3f
       0.98266375 0.9785638 0.9601599 0.9589957
000010 7d ca 74 3f c1 71 85 3f 0b a4 69 3f 9d ba 83 3f
       0.9562147 1.042534 0.91265935 1.0291325
000020 70 2d 7b 3f d4 ae 86 3f f0 1e 86 3f 59 33 7b 3f
       0.9811621 1.0522103 1.0478191 0.98125225
000030 f9 56 81 3f 1c 0d 7a 3f 7a 9b 7f 3f d3 4b 75 3f
       1.0104667 0.97676253 0.99846613 0.95818824
000040 b1 a8 82 3f 14 cd 80 3f c4 b9 7e 3f 64 ba 80 3f
       1.020773 1.0062585 0.99502206 1.0056882
000050 98 e4 81 3f 5d fc 67 3f 0a 8f 85 3f 37 24 80 3f
       1.0147886 0.9061945 1.0434277 1.0011052
000060 fe 1e 79 3f f2 91 83 3f ca fd 7e 3f 11 8d 6f 3f
       0.97312915 1.0278914 0.99606 0.93574625
000070 d0 21 81 3f 84 05 7b 3f db 1e 78 3f 36 74 82 3f
       1.0088444 0.9805529 0.9692208 1.0191715
000080 7e 27 78 3f 6f c2 86 3f 3f ab 7b 3f 17 31 80 3f
       0.9693526 1.0528086 0.98308176 1.0014981
000090 e8 ad 7c 3f a9 4f 75 3f e6 4d 67 3f d9 f8 79 3f
       0.9870286 0.95824677 0.9035324 0.97645336
0000a0 e8 ba 74 3f 89 a9 81 3f 51 0f 85 3f 47 7f 82 3f
       0.95597696 1.0129863 1.0395299 1.0195092
0000b0 17 0c 82 3f 4c af 74 3f 5b ae 7e 3f 8f 3c 79 3f
       1.015994 0.9557998 0.99484795 0.9735803
0000c0 a4 1d 74 3f 36 c7 81 3f ad 65 83 3f 27 b1 7b 3f
       0.9535773 1.0138919 1.0265404 0.9831719
0000d0 fe f4 7d 3f f4 a1 7a 3f 13 ad 7d 3f f5 f9 75 3f
       0.99201953 0.9790337 0.99092215 0.9608453
0000e0 d8 72 82 3f 45 12 82 3f 8d c4 79 3f 57 a9 80 3f
       1.0191298 1.0161825 0.9756554 1.0051678
0000f0 af 83 79 3f b3 96 7a 3f 57 2d 87 3f f6 fb 7d 3f
       0.9746656 0.978862 1.0560712 0.99212587

bn2.bias f4 [64]
000000 36 31 85 bc 00 bb 07 bd cd db ae bd b5 a8 2f bd
       -0.016258817 -0.03313732 -0.085380174 -0.0428855
000010 7c b5 e0 bd 61 39 9a 3b 4d 8c 85 bd b8 af 8c bd
       -0.109721154 0.004706547 -0.06520901 -0.06869453
000020 45 80 aa bc a9 40 90 bc 6a a2 3d bd 95 ea d4 bc
       -0.020813117 -0.017608957 -0.04629747 -0.025990764
000030 e8 c4 46 bd da 4b b7 bc e0 d5 f6 bb c4 89 03 be
       -0.04852763 -0.022375036 -0.00753282 -0.12845522
000040 63 cf 90 bc 23 cd 29 3c 7d f5 86 bc 05 52 a1 bc
       -0.017677015 0.01036385 -0.01647448 -0.01969243
000050 cf c6 4b bd 43 44 ac bd 47 09 dc bc 99 6b 14 3c
       -0.049750146 -0.084114574 -0.026859893 0.009058856
000060 81 ae 8d bd 27 16 24 bc 42 a4 9b bc ab 53 63 bd
       -0.069180496 -0.010015047 -0.018999223 -0.055499714
000070 3a e9 86 bc 22 01 5f bd 0c f3 19 bd 49 36 bc bd
       -0.016468633 -0.05444444 -0.037585303 -0.091900416
000080 76 93 47 bd b7 a0 99 3d 34 43 a9 bc ae c2 6c bd
       -0.048724614 0.07501357 -0.020661928 -0.05780285
000090 0f 70 81 bd 0e bb 07 bd 46 49 81 bd bf 3c d2 bb
       -0.063202016 -0.033137374 -0.06312804 -0.006415933
0000a0 98 4f 43 bd b6 db 0e bd ad 0d 9e bc 41 68 84 3c
       -0.04768333 -0.0348775 -0.01929363 0.016162993
0000b0 c8 2e e7 bc 3d 8f de bc 94 23 28 bd 86 a8 89 bd
       -0.02822055 -0.02716791 -0.041049555 -0.067215964
0000c0 9b bd fa bd b5 2e e1 bc 87 2c 8c bc 55 cb 5f bd
       -0.122431956 -0.027488092 -0.017111076 -0.054637272
0000d0 54 57 9b 3b 56 e4 44 bd f1 34 bf bc 20 6a 85 bd
       0.004740635 -0.04806932 -0.023340674 -0.06514382
0000e0 96 db ba bd 1f 6f 8a bd 8b 6f 4c bd b8 78 3a bc
       -0.09123914 -0.06759476 -0.049911063 -0.011381321
0000f0 a5 da 5b bd 15 bb 0b bd 1a 06 0e bc 3f 88 66 bd
       -0.053675313 -0.034113962 -0.008668447 -0.05628228

bn2.running_mean f4 [64]
000000 30 1e 3f be c2 9d 91 be 36 c2 f5 bd c4 8d 40 3f
       -0.1866386 -0.28440672 -0.119999334 0.7521632
000010 98 23 ec 3d c3 61 f2 be af af 79 bf 91 d2 5f bf
       0.115302265 -0.4734021 -0.97533697 -0.87430674
000020 f2 46 d8 3f 97 15 ee bd a9 d0 c3 bf 57 a2 41 3f
       1.6896651 -0.11625212 -1.5298053 0.75638336
000030 2b 80 7e be 44 99 53 bf 56 68 ab bf 80 50 1b 3f
       -0.2485358 -0.8265574 -1.3391216 0.6066971
000040 d2 b6 ad bf 8a 4a 9b bf 83 55 76 be 67 a7 e4 be
       -1.3571417 -1.2132123 -0.24056058 -0.44658968
000050 a9 8b 8b 3f e4 7d 54 3f c4 fb e3 3e 9c 79 b3 be
       1.0901996 0.83004594 0.4452802 -0.35053718
000060 88 0e 08 3e 66 d9 a9 bf fb 12 10 3e 4b 2a 91 3e
       0.13286793 -1.326947 0.1406974 0.2835258
000070 6e c5 ee bf a0 bc f7 bd 35 49 b0 3f ae 63 55 be
       -1.8654001 -0.12096524 1.3772341 -0.20838806
000080 5b 57 8e bf ac 59 6c bf a1 be 04 bf 8f ef 06 bf
       -1.1120409 -0.9232433 -0.51853377 -0.5270929
000090 32 e2 80 bf 3e 96 a9 3e f3 ed 56 3f 81 ba 10 bf
       -1.0069029 0.33122438 0.8395683 -0.5653458
0000a0 7b 01 45 3d 46 6e 71 3f 6a 06 44 bf a3 4b 85 bf
       0.048097115 0.9430889 -0.7657229 -1.0413707
0000b0 8f 98 df be 5b 43 26 bf c1 ba 91 bf d7 3e 02 3f
       -0.4367108 -0.64946526 -1.1385118 0.50877136
0000c0 2b 60 89 be 74 66 ac be 1e 88 d4 3b 24 15 96 bf
       -0.26831183 -0.33671916 0.006485953 -1.1725202
0000d0 be 5d a8 bf 46 b3 4a 3f 7d 7b 42 bf fc 1a 61 3f
       -1.3153608 0.791798 -0.7596968 0.879318
0000e0 85 b5 46 bf b5 6d 70 3e 43 98 04 3e aa a0 ac bf
       -0.77620727 0.2347935 0.12948708 -1.3486531
0000f0 f6 68 a2 3e 2d 5f cc 3e b6 c9 12 bf 6f 23 c0 be
       0.31720704 0.39916363 -0.57339036 -0.37527034

bn2.running_var f4 [64]
000000 66 2b 04 3f 7d 67 84 3e 32 cd cb 3e a5 9c 97 3f
       0.5162872 0.25860205 0.3980499 1.1844679
000010 fd b7 1a 3f ce ae f3 3e ba 4c 83 3f 81 03 29 3f
       0.60436994 0.47594303 1.025779 0.6602097
000020 26 cc 9b 3f 21 9b 8f 3e dd c1 74 3f 7f ce cd 3e
       1.2171676 0.2804804 0.9560831 0.40196607
000030 bf 07 05 3f b5 a1 af 3f 38 89 89 3f 9e 10 94 3f
       0.51964945 1.3721224 1.0745001 1.1567571
000040 bf e1 63 3f e7 cf 8d 3f 59 36 57 3f 8f cd 68 3f
       0.89016336 1.1079072 0.840673 0.9093866
000050 36 3a 30 3f 0a 95 ea 3f 0c ef b5 3e 8b de e9 3e
       0.6883882 1.8326733 0.3553394 0.456776
000060 13 0d a3 3e eb bd 93 3f 7d de e9 3e bf ea cd 3e
       0.31845912 1.1542333 0.45677558 0.4021816
000070 ed 5f 97 3f c1 8c 98 3e 83 7c 34 3f af b8 be 3e
       1.1826149 0.29794887 0.7050249 0.37250277
000080 ca 8d 1b 3f 8b 29 5f 3f 6b 73 89 3f 93 8d 33 3f
       0.6076323 0.87172765 1.0738348 0.701379
000090 6a 38 2d 3f 0f ee f2 3e 6f 27 29 3f e0 e8 03 3f
       0.67664206 0.4744725 0.66075796 0.51527214
0000a0 c2 dd 50 3f 08 22 8c 3f 16 47 0e 3f c8 ad 3c 3f
       0.81588376 1.0947886 0.5557722 0.7370267
0000b0 9c 59 cb 3e d4 c3 d0 3e 0d 33 01 40 f6 a5 8c 3e
       0.39716804 0.40774405 2.018741 0.27470368
0000c0 a4 76 80 3e 37 a4 ad 3e 73 cd 15 3f f2 5f 8d 3f
       0.25090516 0.33914348 0.58516616 1.1044905
0000d0 60 bf 4d 3f db f7 bc 3e 60 d3 12 3f c8 18 2a 3f
       0.8037014 0.3690785 0.5735378 0.66444063
0000e0 6d fc 17 3f 1a 5c 86 3e 9f bd 94 3e cd e1 ae 3f
       0.59369546 0.26242143 0.2905092 1.3662659
0000f0 37 60 6b 3f b9 e2 05 3f 6f 34 8a 3f 1e 94 db 3e
       0.9194369 0.52299076 1.0797251 0.42886442

conv3.weight f4 [128, 64, 3]
000000 ce b5 38 bd 3f 28 86 bd 64 44 5c bd 8e 29 3f bd
       -0.045095257 -0.06550645 -0.05377616 -0.04667049
000010 dc 91 f2 3c b0 ca f6 3c ff df 78 3d 0e 98 b2 bb
       0.029610567 0.030125946 0.060760494 -0.0054502552
000020 dd 4a c5 3d d3 55 fa 3c 69 42 90 3c a7 df dc 3c
       0.0963342 0.030558502 0.017609792 0.026962114
000030 8c 14 41 3d dd b5 68 3d b5 fc 76 bd 76 c9 24 3e
       0.047138736 0.056814063 -0.060299594 0.16092476
000040 14 8a 0c 3e f4 ce af 3d f9 58 27 3d d6 23 25 bd
       0.13724548 0.08584395 0.040856335 -0.04031738
000050 ec 6e 3b 3d ba f3 b3 bd ef 17 08 bd ac 6a c9 bd
       0.04576008 -0.087867215 -0.03322595 -0.09834799
000060 1c bd 95 bc 84 a9 4f bb 9c 10 21 bd 2f 9e 03 bd
       -0.018278651 -0.0031686733 -0.03932248 -0.032133278
000070 07 93 20 3d e5 de d9 3c 2d 21 38 3c 89 3d ec bc
       0.039202716 0.026595542 0.0112383785 -0.028837936
000080 52 07 d6 bb 50 bc 09 bd 41 7b 83 bd 0b 30 81 3d
       -0.0065316344 -0.033626854 -0.06419993 0.063079916
000090 1b ff 97 bd c1 33 74 bd 65 8a 9f 3c e9 e7 4f bd
       -0.074217044 -0.05961967 0.019475171 -0.050758276
0000a0 d3 b3 94 bd a5 d9 bf bb 80 d2 88 bd b4 00 77 3c
       -0.07260861 -0.0058548027 -0.06680775 0.015075851
0000b0 c0 d3 71 bb ff 20 8a 3d 93 a9 66 3d f9 d8 01 3d
       -0.0036899894 0.06744575 0.056314062 0.031701062
0000c0 b9 77 1f bd cd 57 b7 bd 23 66 b9 bd 04 58 d7 3c
       -0.038932536 -0.089522935 -0.09052684 0.026287086
0000d0 87 c3 7e 3d ab 44 d7 3d e2 8a 3e 3d 4b 4a 4e 3c
       0.06219819 0.10511144 0.046519168 0.012590955
0000e0 c3 4c 0a 3d 35 af d8 bc a7 13 f1 bd 42 f0 95 bc
       0.033764612 -0.026450733 -0.117713265 -0.01830304
0000f0 38 1b 08 3d 61 83 5d bd 32 d3 90 3c 30 b3 38 ba
       0.033229083 -0.05408037 0.01767883 -0.0007045744
000100 51 9e 74 3d d5 5a a7 3d 1f 7d a8 3d c4 52 f2 3d
       0.059721295 0.08171622 0.0822699 0.118321925
000110 ea 42 ed 3d d6 d1 89 bd 8c df 74 bd 4d 28 10 bc
       0.115850285 -0.06729476 -0.059783503 -0.008798671
000120 bb b7 9b bd 63 f9 c0 3c 94 cf 60 bb 9f ea f6 3c
       -0.07603403 0.023556417 -0.0034303414 0.030141173
000130 3f d0 67 bc 3a 56 01 3c 83 6f bd bd a7 4f af bc
       -0.014148771 0.007894093 -0.09249785 -0.021400286
000140 ad 16 30 bd 32 05 8d bc c2 41 0f 3d af 9d b5 bc
       -0.042990375 -0.017214391 0.03497482 -0.022169916
000150 a3 f8 c4 3d 10 5a 1d bc 69 ed 73 3d a7 4e fb 3c
       0.09617736 -0.009603992 0.059552584 0.030677153
000160 f7 35 3f 3c c0 da be 3d c8 04 b4 bd 3c 22 2c bd
       0.011670581 0.09319067 -0.087899745 -0.042024836
000170 3e 85 b3 bc 9d d1 7e bd 35 eb e4 bc b7 f9 5e bd
       -0.02191412 -0.06221162 -0.027944187 -0.054437365
000180 80 fb 4a 3d 53 1c 64 3c 21 8c 60 bd 8b 2f 8c bb
       0.049556255 0.013922769 -0.054821137 -0.0042781285
000190 27 f4 22 bd cc b8 36 3d d3 88 fa 3c e7 66 1f 3d
       -0.039783623 0.04460983 0.030582821 0.038916495
0001a0 1a 29 a3 bc a4 39 e0 bd c0 60 6d 3d 0d 8c 36 bd
       -0.01991706 -0.10948494 0.057953596 -0.044567157
0001b0 9e cd b1 bb 45 10 7c bd b5 01 61 3b b5 26 ce 3d
       -0.005426123 -0.061538953 0.0034333293 0.100659765
0001c0 19 e2 05 3d 2e 63 db 3d cd 13 1b bd 4d df 56 bd
       0.032686327 0.107122764 -0.03786068 -0.05245905
0001d0 60 b3 2a 3d da 05 b1 3c 54 8f 40 3c be 95 23 3c
       0.04167497 0.021609236 0.011752922 0.009984432
0001e0 06 5c 87 3b cf bd 0f 3c a8 31 e0 bc 9b b4 b7 3c
       0.004130843 0.008773281 -0.027367428 0.022424987
0001f0 d4 2c cf bd 57 7f 53 3c 92 b7 98 bd 34 fd 6a bd
       -0.10115972 0.012908778 -0.07456888 -0.05737038
000200 51 7d e9 3c 06 0f d3 bd 03 5c ec bc a9 bd 76 3c
       0.028502138 -0.103056 -0.028852468 0.015059867
000210 d6 7f 98 bd cc 99 c3 bd f0 ea af bd b4 1f 55 3d
       -0.07446258 -0.09550819 -0.08589733 0.052032188
000220 7b e7 a6 bc 13 89 63 bd 25 ef a2 ba 0f 2f a7 bd
       -0.02037405 -0.055550646 -0.001243089 -0.081632726
000230 99 3f 65 bd 57 1c 5e bc 0b b8 11 3d c2 aa f1 3d
       -0.055968855 -0.013556561 0.035575908 0.118001476
000240 08 66 78 bd 8c 89 1c bd a3 90 2c bd 35 0b f2 bb
       -0.06064418 -0.038217112 -0.042130124 -0.00738659
000250 e4 ba 0c bd 0d bf ef 3c 55 09 33 bd dc 62 d9 bb
       -0.03435792 0.029265905 -0.04371007 -0.0066340994
000260 12 3c 46 bb 06 c8 09 3d fb 2b 8b 3c 96 3d 82 bc
       -0.0030248207 0.033638023 0.016988745 -0.015898507
000270 5d b4 33 3d e8 37 40 3d 27 f9 e8 3c d5 fa 3b 3d
       0.04387318 0.046928316 0.028439118 0.04589351
000280 d7 33 d4 bc e3 2e a8 3c 98 29 83 3d 25 93 0f 3a
       -0.025903625 0.02053017 0.06404418 0.00054769433
000290 29 d7 d4 bc 63 fd 73 3d 06 a2 94 3c da c3 cf 3b
       -0.025981503 0.05956782 0.018143665 0.006340486
0002a0 1f f8 94 3d 67 95 50 3c eb 4e 86 bc a6 82 b9 bb
       0.07273888 0.012730933 -0.016395053 -0.0056613265
0002b0 94 61 30 bb 02 b7 26 bd 0a 81 f5 3b 17 2d fb 3c
       -0.002691363 -0.040701874 0.0074921893 0.030661149
0002c0 b6 22 f9 3c 5c 9b 29 bd 20 a1 82 bc 2d 5f 39 bd
       0.03041206 -0.041407928 -0.015945971 -0.045256782
0002d0 53 f4 a0 bd 61 29 8a 3c 58 aa e1 3c b2 5e 0a bd
       -0.07859101 0.016865434 0.027547047 -0.033781715
0002e0 3e 59 22 3d ec 15 0c 3d db f8 0b 3d 57 d8 da 3b
       0.03963589 0.034200594 0.034172874 0.0066786218
0002f0 76 04 5d bd bd ea b6 3d da be 6a 3d b7 1f ca 3c
       -0.053959332 0.089314915 0.057310916 0.024673326
000300 01 f7 8c bc a0 31 ce 3c 3b bb 23 bb 1a 1e 0f bd
       -0.017207624 0.025170147 -0.0024983424 -0.034940816
000310 92 4d 8f 3d 47 1a d7 3d c9 31 82 3d 5d c7 c3 bb
       0.06997217 0.10503059 0.06357152 -0.0059746937
000320 2a 74 0d bd ae d1 cd 3c e8 63 43 3c e1 43 99 3c
       -0.03453461 0.025124397 0.011925675 0.018709125
000330 e4 f4 a3 bc 0b d9 59 3d 79 1d b3 bc 35 43 a9 3d
       -0.020014234 0.053185504 -0.02186464 0.08264772
000340 d7 bf 0e bd 36 31 cd 3d 50 ab ad 3d bc f8 8d bd
       -0.03485092 0.10019152 0.08479941 -0.06932208
000350 7d 17 a8 3d e1 ec d5 bc 7f c7 75 bd 07 6a df 3c
       0.08207605 -0.02611393 -0.060004707 0.027272237
000360 a3 dd 39 bd 84 45 7e 3d 78 0c 4d 3c 18 57 6a 3c
       -0.045377385 0.062078014 0.01251518 0.014302991
000370 f9 0b 13 bd cd 4c f9 38 00 16 35 3d 6f f6 31 3d
       -0.03590009 0.000118875505 0.044210434 0.043447908
000380 a3 89 fb 3d 2c b3 df bd c1 d4 f9 bd 7f 22 1a bd
       0.122821115 -0.10922846 -0.12198783 -0.037630554
000390 0d 0a c9 bc bd e6 86 3c 10 08 3c 3d 8b 21 14 bd
       -0.024540925 0.016467446 0.045906126 -0.0361648
0003a0 ba 40 cd 3c f4 eb 62 bd 8b f7 cc 3b b7 24 c6 bd
       0.025055278 -0.055400804 0.0062550954 -0.096749716
0003b0 ae b2 19 bc a8 3d b0 bc fa 10 8f bc 26 9b 8c bd
       -0.009380979 -0.021513775 -0.01746415 -0.0686553
0003c0 e9 a6 1e 3d 6a 43 1c 3d d6 8e ac 3c ae 3a 64 3d
       0.038733397 0.03815023 0.021064203 0.055720024
0003d0 56 0f 84 bd 28 48 46 3d 9f c3 f3 3c e1 b7 3a 3d
       -0.064482376 0.048408657 0.029756365 0.045585517
0003e0 71 75 07 bc 90 fc 93 bc 49 a9 ef 3b de 20 c4 bb
       -0.008267746 -0.018064767 0.0073138815 -0.0059853634
0003f0 c1 33 cd bc f0 90 a2 bc a4 6c 02 be 3d 82 1d bd
       -0.025049092 -0.019844502 -0.12736756 -0.038454283

conv3.bias f4 [128]
000000 18 47 5c 37 e5 3f 76 36 f6 cb 81 35 5c 8e 2a b6
       1.3129575e-05 3.6694048e-06 9.670609e-07 -2.5414838e-06
000010 fe 7b e9 b6 68 7a 7b 36 a4 24 92 b6 c5 e0 fb 36
       -6.9583757e-06 3.7473164e-06 -4.3554046e-06 7.5065495e-06
000020 bf 12 af b6 96 d5 04 b7 78 52 31 b7 c1 b2 13 b7
       -5.2175888e-06 -7.9175425e-06 -1.0569223e-05 -8.803502e-06
000030 3a 57 f3 35 21 06 07 b4 d7 55 95 36 e1 0c 45 b7
       1.8130297e-06 -1.2575084e-07 4.450539e-06 -1.1745114e-05
000040 18 13 b3 36 4e d8 68 b5 a2 c5 8b 36 8a 08 da b7
       5.3368385e-06 -8.67415e-07 4.1655303e-06 -2.5991601e-05
000050 77 b2 b4 36 d1 c6 90 36 f2 0f 13 37 fb d6 e2 36
       5.385194e-06 4.3146797e-06 8.765595e-06 6.760352e-06
000060 a4 73 bd b5 b5 eb 3a 36 7c 9c 93 37 92 eb bc 33
       -1.4115253e-06 2.785336e-06 1.7596634e-05 8.797282e-08
000070 b0 54 0c b5 ac a8 a8 b5 00 ea eb 36 86 30 9c 37
       -5.22773e-07 -1.2566065e-06 7.030787e-06 1.8619245e-05
000080 97 bd 8f 36 94 46 5f b7 64 68 29 b7 63 80 a7 35
       4.2838033e-06 -1.33082685e-05 -1.009749e-05 1.2479835e-06
000090 f3 ef ce b7 4b 6f 5a 36 49 78 bd 36 0f 70 a1 34
       -2.4668849e-05 3.2549312e-06 5.646642e-06 3.007012e-07
0000a0 66 cf 7d b6 a7 7a 23 36 ab 56 91 b5 f9 57 ae b6
       -3.782066e-06 2.4360286e-06 -1.0828566e-06 -5.1958455e-06
0000b0 c4 db 63 36 cf 7f 02 37 ba 11 b5 b7 03 c9 8b 36
       3.3953556e-06 7.778362e-06 -2.1585136e-05 4.1659237e-06
0000c0 f0 5e 8f b6 db fa 84 36 67 f0 04 b7 09 11 af b7
       -4.2727843e-06 3.96311e-06 -7.923786e-06 -2.0869558e-05
0000d0 0d 19 45 b8 ab 95 50 37 5f 1e fa 36 a0 5e bf b5
       -4.699179e-05 1.2432613e-05 7.4541163e-06 -1.4258148e-06
0000e0 1d a0 ad b6 bb cc 9d 37 8a 3c b1 b6 9b 52 1b b7
       -5.1744414e-06 1.8811194e-05 -5.2820587e-06 -9.257953e-06
0000f0 28 a5 aa 35 11 f9 f9 b7 2e 1d 99 36 36 f1 76 b7
       1.2714054e-06 -2.9799094e-05 4.5631523e-06 -1.4718904e-05
000100 e9 c5 37 b6 0a eb 55 b7 fc a9 80 36 4d cb 05 37
       -2.7384324e-06 -1.2750514e-05 3.834486e-06 7.974752e-06
000110 ae d9 5b b7 e1 9d cd b6 26 53 2b 34 e5 21 28 37
       -1.31041e-05 -6.1278556e-06 1.5955865e-07 1.0021472e-05
000120 96 23 74 36 ff 91 1c b6 5d 90 b2 b5 8d 8c cd 34
       3.6379547e-06 -2.3330792e-06 -1.3304049e-06 3.828649e-07
000130 48 b9 33 37 37 93 67 37 7d 7b f5 36 ce 00 09 34
       1.0712371e-05 1.3802949e-05 7.315945e-06 1.2759412e-07
000140 15 fb d6 35 78 b6 b6 36 a5 c0 ab b6 97 77 c6 36
       1.6017317e-06 5.445265e-06 -5.118624e-06 5.914782e-06
000150 a0 63 96 b6 bd bd a7 35 16 51 36 37 86 1d 57 36
       -4.4819462e-06 1.2497691e-06 1.0866925e-05 3.2054681e-06
000160 74 6c 69 b7 87 01 83 b7 a0 a0 c4 36 0b f1 01 35
       -1.3913133e-05 -1.5617128e-05 5.8599544e-06 4.840701e-07
000170 51 58 38 b6 6c 28 41 36 a5 94 ba 36 56 e9 d2 37
       -2.7469544e-06 2.878277e-06 5.5605365e-06 2.5142606e-05
000180 84 d2 80 b6 7f a2 2e b7 24 f2 3b b5 b7 eb 0e 37
       -3.8392045e-06 -1.0409042e-05 -7.001529e-07 8.518741e-06
000190 cc bc 1e b6 57 39 96 b4 5b 2d 14 b6 b7 6a 7a b7
       -2.365373e-06 -2.7981397e-07 -2.208012e-06 -1.4926008e-05
0001a0 f8 c0 96 36 f0 d6 b6 b6 23 55 9b 36 b6 a5 df 37
       4.492813e-06 -5.4490447e-06 4.629271e-06 2.6660837e-05
0001b0 86 16 f8 b4 66 bf 98 b6 47 ee 1d 37 16 29 aa b6
       -4.6209988e-07 -4.5522347e-06 9.4134075e-06 -5.071178e-06
0001c0 aa fb d7 36 55 fe 92 37 d0 7e a8 35 2f 67 03 b6
       6.436797e-06 1.7522989e-05 1.2553883e-06 -1.9580582e-06
0001d0 80 eb 84 b6 4d db b2 35 f8 47 43 b5 91 80 36 b7
       -3.9613224e-06 1.3325858e-06 -7.274789e-07 -1.087798e-05
0001e0 45 29 bb b6 46 6f a0 b6 e9 5a 54 b6 1b 55 72 35
       -5.5778387e-06 -4.7813255e-06 -3.1643378e-06 9.027587e-07
0001f0 a0 44 c3 36 95 51 3a 37 a0 aa 04 b7 ce 76 48 b6
       5.819442e-06 1.1105459e-05 -7.90754e-06 -2.9871476e-06

bn3.weight f4 [128]
000000 09 8f 82 3f 39 5c 79 3f 5f 48 80 3f e9 f8 7d 3f
       1.0199901 0.97406346 1.0022086 0.9920793
000010 2a 39 80 3f 3d 9f 80 3f 7e 3f 7f 3f 89 0b 7a 3f
       1.0017445 1.0048596 0.99706256 0.9767385
000020 15 ef 80 3f 0b 98 7a 3f a0 09 7e 3f 9e 06 83 3f
       1.0072962 0.9788825 0.99233437 1.0236394
000030 08 5a 7e 3f 22 9c 81 3f 7e 81 84 3f 0d 6c 80 3f
       0.99356127 1.0125773 1.0352018 1.0032974
000040 8b 55 7e 3f a1 99 7e 3f c6 93 81 3f 10 b8 86 3f
       0.9934928 0.9945317 1.0123222 1.0524921
000050 d1 f1 79 3f da f4 81 3f c2 7f 84 3f 1b 8c 85 3f
       0.9763461 1.0152848 1.0351489 1.0433382
000060 0b 0c 7c 3f 69 9c 76 3f 6f 30 7a 3f a3 11 80 3f
       0.98455876 0.9633241 0.97730154 1.0005382
000070 56 c2 84 3f 6a 3e 81 3f b9 72 86 3f 38 c3 81 3f
       1.0371807 1.0097172 1.050376 1.0137701
000080 98 ea 79 3f ac 31 86 3f 84 af 80 3f 27 da 78 3f
       0.97623587 1.0483909 1.0053563 0.97207874
000090 40 26 83 3f 3c bc 85 3f ef 1e 80 3f e8 b0 77 3f
       1.0246048 1.044807 1.000944 0.9675431
0000a0 6a 6d 81 3f 33 30 83 3f 1d 97 80 3f de 36 83 3f
       1.0111516 1.0249084 1.0046116 1.0251119
0000b0 5d 5f 78 3f cb 8e 82 3f d3 0d 88 3f d5 e9 82 3f
       0.9702051 1.0199827 1.0629219 1.022761
0000c0 d1 2d 84 3f 26 8e 7f 3f dd 4f 85 3f ec a7 84 3f
       1.0326482 0.99826276 1.0414997 1.0363746
0000d0 cc 51 81 3f 50 36 82 3f ed d0 81 3f 74 8e 73 3f
       1.0103087 1.0172825 1.0141884 0.9513924
0000e0 b8 1d 7e 3f ac 96 83 3f ca 27 80 3f 8e 5f 80 3f
       0.992641 1.0280356 1.0012143 1.0029161
0000f0 70 fa 7d 3f d1 f4 82 3f fb 5c 7c 3f d0 e1 83 3f
       0.9921026 1.0230962 0.98579377 1.0303288
000100 94 8d 82 3f 25 0d 83 3f 82 77 82 3f e0 81 87 3f
       1.0199456 1.0238386 1.0192721 1.058651
000110 48 f3 80 3f 4e 09 75 3f 7e 83 7b 3f 86 8e 83 3f
       1.0074244 0.9571732 0.98247516 1.027787
000120 37 92 7c 3f f0 dc 81 3f 75 6c 80 3f 3e 18 82 3f
       0.98660606 1.014555 1.0033098 1.0163648
000130 6c 83 80 3f 87 9e 85 3f f7 36 80 3f b8 90 79 3f
       1.0040107 1.0439004 1.0016774 0.9748645
000140 19 6a 7e 3f 06 07 7c 3f d9 90 80 3f 15 68 85 3f
       0.9938064 0.98448217 1.0044204 1.0422388
000150 95 49 7e 3f 6e 29 82 3f 83 3e 7f 3f 42 cd 79 3f
       0.9933103 1.0168893 0.9970476 0.97578824
000160 bc 6c 81 3f f5 b8 85 3f 8d 14 82 3f 72 ed 84 3f
       1.0111308 1.044707 1.0162522 1.0384963
000170 c0 2b 79 3f 7b a6 79 3f bb 8a 78 3f 83 75 83 3f
       0.9733238 0.97519654 0.97086686 1.0270237
000180 4d 61 82 3f 0d 64 80 3f 2a 03 80 3f 62 39 82 3f
       1.0185944 1.0030533 1.0000966 1.0173762
000190 4d d0 7f 3f d9 84 80 3f a9 b5 81 3f 34 d5 85 3f
       0.99927217 1.0040542 1.0133563 1.045569
0001a0 81 72 83 3f 68 b0 82 3f b0 e6 80 3f 5c 78 83 3f
       1.0269319 1.0210085 1.00704 1.0271106
0001b0 1a ac 73 3f 01 0f 83 3f 0e 34 85 3f b8 a6 82 3f
       0.9518448 1.0238954 1.0406511 1.0207129
0001c0 aa 18 82 3f df 0e 7d 3f 0e 16 80 3f f0 92 76 3f
       1.0163777 0.98850816 1.000673 0.9631796
0001d0 9b 65 82 3f a0 de 79 3f 81 2c 81 3f d6 b5 84 3f
       1.0187258 0.97605324 1.0091707 1.0367992
0001e0 75 ef 7d 3f fd 62 80 3f 79 48 7b 3f 83 99 80 3f
       0.9919351 1.0030209 0.9815746 1.0046848
0001f0 e9 33 82 3f c4 c2 7e 3f ab b2 80 3f 70 98 82 3f
       1.0172092 0.9951594 1.0054525 1.020277

bn3.bias f4 [128]
000000 43 d9 00 bd 5f cc 1c bd 9c 78 99 bb 36 7d 12 bd
       -0.031457197 -0.03828084 -0.004683567 -0.03576394
000010 db 78 d5 bc 09 98 78 bc e1 14 b8 bb d6 a7 ae bc
       -0.026058605 -0.015172967 -0.0056177233 -0.021320265
000020 a3 c2 19 bc 5d 7d 79 bc c5 4f 0c bd fa 80 01 3d
       -0.009384784 -0.015227643 -0.03425576 0.031617142
000030 e4 a6 e3 bc 61 23 0f bd 58 d3 70 3c 58 74 a4 bc
       -0.02778954 -0.03494585 0.014698826 -0.020075008
000040 b3 3a 84 bd 80 66 32 bd a0 71 92 3a e0 fb c6 3c
       -0.064565085 -0.043554783 0.0011172779 0.024290025
000050 7f 7f 2f bd e1 6c 04 bb f0 d7 f2 38 75 22 37 bb
       -0.0428462 -0.0020206498 0.00011579681 -0.0027944122
000060 73 7f 99 bc d5 df 4d bd 81 6d f3 bc 9e 15 eb bc
       -0.01873753 -0.05026229 -0.029715301 -0.028696831
000070 23 5e 12 3c 36 d2 09 3c e8 0f 19 3d 1b 2f 8a bc
       0.008933577 0.008411935 0.037368685 -0.016868165
000080 e1 9d b3 bc 36 b3 e6 3c 66 8a 4e 3b c4 27 41 bd
       -0.021925868 0.028161626 0.0031515597 -0.047157064
000090 80 d4 5c 3b 19 08 96 3b 66 32 dc bc 91 01 02 bd
       0.0033695996 0.004578602 -0.0268795 -0.031739775
0000a0 01 49 7f bc 5c f4 04 bc 57 f8 db bb 5e 36 89 bb
       -0.01558137 -0.0081149 -0.006712954 -0.0041873893
0000b0 38 b2 3c bd 73 63 83 bc 48 7b 86 bb 74 4a 92 bc
       -0.0460684 -0.016038632 -0.0041040517 -0.017857768
0000c0 3d 70 10 3c 69 4f 67 bd c9 b4 66 bc 57 28 ca bb
       0.008815822 -0.056472216 -0.0140811885 -0.0061693597
0000d0 a0 97 20 bc 3c 17 03 3d fe 20 03 bc e2 57 0e bd
       -0.009801775 0.03200458 -0.008003471 -0.03475178
0000e0 b8 bf 6f bc e9 de 36 bc f8 7a 94 bc 98 a6 9f bd
       -0.014633112 -0.011161544 -0.018125042 -0.07795447
0000f0 23 b2 86 bb 93 95 c0 3a 2e 4f cc bc f8 64 f8 bc
       -0.004110591 0.0014693014 -0.0249401 -0.030321583
000100 71 ce 8a 3c 36 49 cd 3c c7 0f 9e bb 05 39 85 3c
       0.016944142 0.025059324 -0.004823658 0.01626254
000110 ff ff b0 bc ca 48 a9 bc d9 c0 e3 bc 49 d9 26 3c
       -0.021606443 -0.020664591 -0.027801918 0.010183641
000120 aa a5 7a bd 8b 6a 14 3c 17 e9 97 bc e4 b5 1a bd
       -0.061193146 0.009058605 -0.018543763 -0.03777112
000130 72 26 e6 bb 04 bb 24 3c 3f 6c 38 bc cc 64 09 bd
       -0.007023626 0.010054354 -0.011256277 -0.033543393
000140 e3 0f 2e bc cd 10 5a bd 91 f7 d7 3c e9 02 90 3c
       -0.010623905 -0.05323868 0.026363166 0.017579513
000150 be b5 17 3c d2 ef b3 3b d0 9f 5b 3b 00 82 a4 bb
       0.009259639 0.0054912353 0.0033512004 -0.00502038
000160 da a6 b6 bc d4 0d 5f 3c 18 f9 05 3a 7f 92 89 bc
       -0.022296358 0.013614137 0.0005110665 -0.016793488
000170 78 67 f8 bc 06 ce 04 bd 94 a7 f0 bc 68 27 1f 3c
       -0.030322775 -0.03242304 -0.029376782 0.009713985
000180 c3 bd cd 3b d9 c9 01 bd fd cb a7 bc 31 a3 05 3d
       0.006278725 -0.031686638 -0.020483011 0.032626335
000190 1b 11 3f bc 92 af f7 b7 cd ba ed ba 17 53 3a 3c
       -0.011661793 -2.952645e-05 -0.0018137336 0.011372349
0001a0 1f 1d c0 3c f0 c2 30 bc 8e 06 62 bc 70 c3 8b bc
       0.023451386 -0.010788664 -0.013795508 -0.017060965
0001b0 c2 a6 9d bd 35 e9 a5 3b 25 a5 99 bb 58 4c 0b bc
       -0.07697822 0.005063201 -0.004688876 -0.0085020885
0001c0 48 47 84 3c 3f 56 38 bd 5e 83 97 bc ef b0 27 bd
       0.01614727 -0.045004126 -0.018495258 -0.04094022
0001d0 d4 c6 f0 3b 7d 61 18 bd 9a 6f 37 3c 2f c0 12 bb
       0.007347921 -0.037202347 0.0111960415 -0.0022392382
0001e0 29 d9 4b bd a3 06 a0 bb 46 65 c1 bc 71 c4 2c bc
       -0.049767647 -0.0048836037 -0.023607861 -0.010544882
0001f0 25 08 9f bc c8 da 18 bd 8b 06 43 3b 96 2f d4 3b
       -0.019413063 -0.03731802 0.0029758539 0.0064753992

bn3.running_mean f4 [128]
000000 f6 a8 5a bd 6f 57 73 be 0c 93 93 bf ee 51 72 3f
       -0.05338379 -0.23763822 -1.152925 0.94656265
000010 2a 4a d5 3d f1 c0 08 bf 77 5b ce be 17 e0 9f bf
       0.10414536 -0.53419405 -0.40304157 -1.2490262
000020 04 12 fd be 74 1f 56 bf d5 56 43 be 3a 7f 47 bf
       -0.49427807 -0.83641744 -0.19076093 -0.7792851
000030 4e 79 99 be 99 02 17 3f 24 17 38 3d 57 68 42 3e
       -0.2997536 0.5898834 0.044943944 0.18985115
000040 ab 95 df 3f ea 2f 9e be 36 e6 5f 3f e7 a0 d0 3e
       1.746755 -0.3089593 0.8746065 0.4074776
000050 12 11 c5 be 89 2c f4 be d4 fa 97 3e b1 71 f4 3e
       -0.38489586 -0.47690228 0.29683554 0.4774299
000060 b9 89 7d bf ed c1 a2 be cc 1a d0 be 1c 54 25 3e
       -0.99038273 -0.3178858 -0.40645444 0.16145366
000070 b1 3e d6 be 12 66 40 bf da 6b 96 bf cd fc 09 bf
       -0.41844705 -0.75155747 -1.1751664 -0.5390137
000080 36 46 80 3e 30 cf c2 be b1 45 ae bf ba 3e 94 3e
       0.25053567 -0.38048697 -1.3615018 0.28954107
000090 90 13 a5 bb 83 82 9e 3d 43 e5 79 3e dc 55 ee be
       -0.0050377324 0.07739737 0.24403863 -0.4654988
0000a0 b5 d6 bf be ec 62 47 3f 68 cd 07 bf 95 cf 81 be
       -0.37468496 0.7788532 -0.530478 -0.25353685
0000b0 8e 02 98 3e 42 75 98 be 6a fc 9a 3e a8 b1 7a 3f
       0.2968945 -0.2977696 0.30270702 0.9792733
0000c0 b7 d7 61 bf 15 e7 24 3f 48 91 22 3f 49 78 83 3e
       -0.8821978 0.64415103 0.6350293 0.25677708
0000d0 6b e8 89 bf 11 32 ec be a2 a0 25 bf 74 22 5a bf
       -1.0774053 -0.46131948 -0.6469823 -0.8520882
0000e0 7f 13 3d be ae 4f ae be 58 eb 6f 3d e8 66 06 40
       -0.18464468 -0.34045166 0.05857405 2.100031
0000f0 34 55 71 bf e1 0f 4a be d8 e7 8b 3d 22 83 dc be
       -0.94270635 -0.1973262 0.0683133 -0.43068796
000100 d7 c3 ba 3e 7c d5 ec be c9 f9 8e be 2e 2c c6 3e
       0.3647754 -0.46256626 -0.27924946 0.3870558
000110 e8 9f ed be 58 5f 76 3e 7b c3 d9 3e 47 f4 30 bf
       -0.4641106 0.24059808 0.42531952 -0.6912274
000120 93 70 99 3f 71 8d 0e bf ac 4f e1 3e 82 b6 cd 3e
       1.198748 -0.5568457 0.44006097 0.40178305
000130 3b 0e 85 bf f3 0b e9 be f3 a7 9e bd 13 fc 97 be
       -1.0394968 -0.4551693 -0.077468775 -0.29684505
000140 05 d7 13 bd bd 46 50 be 40 15 42 bf 1d 71 bc be
       -0.03609373 -0.20339485 -0.75813675 -0.3680505
000150 5f cc 34 bf d3 02 e9 be 0e aa 01 bf 36 93 9c bf
       -0.70624346 -0.45509967 -0.5065011 -1.2232425
000160 ee 9c 00 3f e8 8b 34 bf 74 0e 6c be 78 1e 5c 3e
       0.50239456 -0.7052598 -0.23052388 0.21495998
000170 76 6b 64 39 30 6a d1 3e 29 16 37 bf 4e 7d 07 bf
       0.00021783807 0.40901327 -0.7151819 -0.52925575
000180 ae 5c 72 bf f8 0b 2b 3f 33 07 b2 be e1 70 e0 be
       -0.9467267 0.6681514 -0.34771118 -0.4383612
000190 5d 58 cd bd 46 7e a6 3e ed bb 39 be e0 69 23 be
       -0.100266196 0.32518214 -0.18138094 -0.15958357
0001a0 21 93 55 bf 7e 70 16 bf 2f 67 90 bf b7 96 89 3f
       -0.83427626 -0.587654 -1.1281489 1.074912
0001b0 e5 3d aa 3f 45 32 92 3e 10 45 ee be 31 3b 82 bf
       1.3300139 0.28553978 -0.46537066 -1.0174314
0001c0 74 31 ba bf 9b 50 5e bc 2a 3c 5a bf 34 97 59 be
       -1.4546342 -0.0135690225 -0.85248053 -0.21249086
0001d0 ec 21 f9 be 2c 15 84 bf e2 2d 6a be 47 f5 80 be
       -0.48658693 -1.0318961 -0.22869065 -0.25187132
0001e0 28 17 97 3f 59 85 a5 be 19 21 9b be 28 e1 45 bf
       1.1803942 -0.323283 -0.3029869 -0.77296686
0001f0 e9 d6 9d 3d 5a 4c e5 bd 29 da 3e be 0c a0 94 bf
       0.077070065 -0.111962035 -0.18637909 -1.1611342
