.checkpoints/eeg_cnn_best_model.pt (torch, 235722 bytes, 21 tensors)

conv1.weight f4 [32, 19, 7]
0.024299223 -0.040780604 0.022011202 -0.021487016 0.060826372 -0.04200625 0.08556554 0.078284524
0.02904888 -0.0134091405 -0.03261498 -0.07517757 -0.034141872 -0.057712127 0.07904728 -0.079405874
0.005095566 -0.051727053 -0.019676078 -0.04216494 -0.007102892 -0.036360264 -0.008272671 0.08221633
-0.013678237 -0.072023116 -0.021330155 0.012049267 -0.057253536 -0.010201707 0.050386053 0.037443183
-0.054927703 -0.00735853 0.03964082 0.012619226 0.022810254 0.084533796 0.02841837 -0.001676901
-0.06855155 -0.04314464 -0.051616374 0.080803275 -0.03353768 -0.08374568 -0.06855942 0.060342014
-0.05257146 -0.025310095 0.0511678 -0.04384603 -0.0034816056 0.024965085 0.07769906 0.028591665
-0.067977756 0.037171483 0.029242197 0.034177553 -0.039077528 0.07722759 -0.0078521725 0.07484102
0.0037856095 0.008504122 0.0794637 0.04366342 0.023209346 -0.070038885 0.035256587 0.019924605
-0.07609006 0.08596956 0.015222125 0.0530488 -0.023330534 -0.027302278 -0.0049780165 0.03087494
-0.05889616 -0.02142146 -0.07149199 0.03935106 -0.019656241 0.054672893 -0.07524891 0.041131712
-0.04174194 0.01299231 0.015928518 -0.017877782 -0.027908022 -0.024757689 0.015859034 -0.011048835
-0.05424128 -0.060304534 -0.01151159 0.061666213 0.0061689867 -0.03727666 0.026384529 -0.060006596
-0.06663179 -0.07170938 -0.0095642805 0.028296188 -0.06264743 0.014090456 -0.0011523726 0.083433405
0.027507225 -0.004986989 0.05098583 -0.059203967 0.080911405 -0.0132476175 -0.033903413 0.012759568
-0.08594327 0.06875047 -0.04903234 -0.021898564 0.030269455 0.046930395 0.042607047 0.002279327
0.074197575 -0.070746996 0.045320008 0.024170127 -0.02410854 -0.064200655 0.013617622 -0.06784114
0.05493433 0.08441708 -0.02676607 -0.06689897 -0.027142793 0.06210923 0.041048385 0.08494243
-0.07411066 -0.08234245 0.07228432 -0.012554001 0.026530184 -0.04555514 -0.018609129 -0.0011867114
0.044082783 -0.018314138 0.047563426 -0.041443426 0.05575666 0.04556039 -0.0507279 -0.019045442
-0.054046176 -0.081519134 -0.0328124 0.07091956 -0.07178714 0.060497127 0.016676072 0.055495832
-0.032401536 -0.047575407 0.05681158 0.022817843 -0.0030920028 0.052671842 -0.048119307 -0.029427381
-0.08176554 0.080436245 -0.08084788 -0.04788151 0.016945302 -0.08228224 0.020598685 -0.015549418
-0.048908737 0.0008444303 0.040513106 -0.068918854 0.003629597 0.057406645 -0.071545914 0.037293468
0.065152526 0.022046823 -0.07273715 -0.0013873994 0.05429752 0.06818913 -0.011503528 0.028429821
-0.060707904 -0.002392928 0.032438528 0.078093864 -0.02324076 -0.054474935 0.075838156 -0.06014487
-0.08597206 -0.07457846 -0.023284527 -0.0044833715 -0.08086164 -0.013880672 -0.084159575 -0.06735514
0.039417516 0.03425755 -0.0812923 0.0003437695 -0.0142404325 -0.0072274185 -0.015262903 -0.073373534
-0.07410799 -0.039224155 0.086082205 -0.077600054 0.053356722 -0.034485158 0.031229036 0.0743708
-0.06385128 -0.04680626 -0.041182764 0.027359502 -0.053114545 0.04628351 0.05081409 -0.076432034
-0.055861197 0.070199214 0.027146472 0.02465704 -0.042738073 0.07824198 0.014356638 -0.0794043
-0.07729131 0.06346272 0.08298524 -0.084032476 0.04853202 0.01364673 0.024621667 0.0029547617
00000000: 2a0f c73c 9009 27bd d650 b43c 8a05 b0bc
00000010: 1325 793d bf0e 2cbd fc3c af3d a353 a03d
00000020: ebf7 ed3c 03b2 5bbc 4997 05bd b3f6 99bd
00000030: 59d8 0bbd 8d63 6cbd 8ae3 a13d 8c9f a2bd
00000040: b5f8 a63b bfdf 53bd ba2f a1bc 25b5 2cbd
00000050: 60bf e8bb 80ee 14bd 198a 07bc 0961 a83d
00000060: af1a 60bc db80 93bd 94bc aebc 4a6a 453c
00000070: af82 6abd 0f25 27bc 9b61 4e3d 065e 193d
00000080: dffb 60bd d31f f1bb 6a5e 223d dfc0 4e3c
00000090: 92dc ba3c 0e20 ad3d a4cd e83c 76cb dbba
000000a0: c164 8cbd 6fb8 30bd b16b 53bd 307c a53d
000000b0: ce5e 09bd db82 abbd e268 8cbd 3029 773d
000000c0: 2c55 57bd 1e57 cfbc 5495 513d e597 33bd
000000d0: a62b 64bb 9483 cc3c af20 9f3d 1139 ea3c
000000e0: ec37 8bbd 2041 183d 558d ef3c c3fd 0b3d
000000f0: c20f 20bd 8029 9e3d 66a6 00bc 4046 993d
00000100: fd17 783b df54 0b3c ddbd a23d 6ad8 323d
00000110: 8721 be3c 8c70 8fbd 3669 103d ed38 a33c
00000120: 1bd5 9bbd cf10 b03d 3866 793c b349 593d
00000130: ad1f bfbc 07a9 dfbc a11e a3bb 71ed fc3c
00000140: 1a3d 71bd 0f7c afbc 646a 92bd 942e 213d
00000150: 2006 a1bc aff0 5f3d 1a1c 9abd ba79 283d
00000160: 99f9 2abd b3dd 543c 867c 823c 6d74 92bc
00000170: 5d9f e4bc a3d0 cabc ceea 813c 2c06 35bc
00000180: 1b2c 5ebd e301 77bd 1c9b 3cbc b695 7c3d
00000190: 3625 ca3b 69af 18bd 5e24 d83c 7ac9 75bd
000001a0: 3f76 88bd 5edc 92bd 80b3 1cbc 68cd e73c
000001b0: 4c4d 80bd a8db 663c 350b 97ba 22df aa3d
000001c0: d556 e13c e569 a3bb 85d6 503d dc7f 72bd
000001d0: e1b4 a53d 890c 59bc 4ede 0abd 820d 513c
000001e0: 0603 b0bd 0ccd 8c3d 23d6 48bd 9e64 b3bc
000001f0: a6f7 f73c 163a 403d ba84 2e3d c360 153b
00000200: e6f4 973d cde3 90bd 79a1 393d 6e00 c63c
00000210: 467f c5bc a27b 83bd 721c 5f3c 4cf0 8abd
00000220: d202 613d dde2 ac3d 8444 dbbc 5402 89bd
00000230: 905a debc 3f66 7e3d 5a22 283d 4cf6 ad3d
00000240: 54c7 97bd 29a3 a8bd cd09 943d 4caf 4dbc
00000250: d455 d93c 0798 3abd 2c72 98bc 6d8b 9bba
00000260: 2690 343d 8807 96bc ded1 423d 95c0 29bd
00000270: 1861 643d 889d 3a3d 0fc8 4fbd 3005 9cbc
00000280: 865f 5dbd 81f3 a6bd 4c66 06bd 463e 913d
00000290: 2305 93bd d6cb 773d 429c 883c 994f 633d
000002a0: 79b7 04bd 6ede 42bd 42b3 683d 7cec ba3c
000002b0: 33a3 4abb 6ebe 573d c018 45bd b111 f1bc
000002c0: b174 a7bd c2bb a43d 9393 a5bd 671f 44bd
000002d0: e0d0 8a3c 9783 a8bd 93be a83c fcc2 7ebc
000002e0: 8754 48bd c25c 5d3a 12f1 253d 5425 8dbd
000002f0: 88de 6d3b 3b23 6b3d aa86 92bd 09c1 183d
00000300: b06e 853d 8a9b b43c 37f7 94bd 66d9 b5ba
00000310: 1467 5e3d bea6 8b3d 4b79 3cbc a8e5 e83c
00000320: daa8 78bd acd2 1cbb 43de 043d adef 9f3d
00000330: 6863 bebc 1c21 5fbd 0951 9b3d 785a 76bd
00000340: 1f12 b0bd 97bc 98bd 31bf bebc 3fe9 92bb
00000350: ca9a a5bd c26b 63bc db5b acbd 7ef1 89bd
00000360: 4374 213d a551 0c3d 947c a6bd f63b b439
00000370: b450 69bc fbd3 ecbb 4111 7abc dd44 96bd
00000380: eec5 97bd 82a9 20bd de4b b03d c7ec 9ebd
00000390: 948c 5a3d 4f40 0dbd 09d4 ff3c b84f 983d
000003a0: 76c4 82bd ecb7 3fbd 42af 28bd 0921 e03c
000003b0: a38e 59bd c793 3d3d 6f22 503d 6688 9cbd
000003c0: b6ce 64bd 9bc4 8f3d 4762 de3c 90fd c93c
000003d0: 1e0e 2fbd 553d a03d 1b38 6b3c b99e a2bd
000003e0: e84a 9ebd bef8 813d 2af4 a93d 3819 acbd
000003f0: 83c9 463d 8996 5f3c 61b3 c93c ada4 413b

conv1.bias f4 [32]
0.07782579 -0.0071080914 -0.08604709 -0.078219235 0.002679308 0.075651474 0.07740188 -0.080804795
0.056111272 0.055883773 0.043576684 0.055350292 -0.0080116065 0.046394527 -0.0845041 0.054223914
-0.07804303 0.029980522 -0.013094934 -0.082256466 0.035065945 0.024819564 0.02450326 -0.03747408
-0.046569422 -0.06914718 -0.05741882 -0.041802432 -0.03701648 0.01315898 0.063363135 -0.023183681
00000000: 2163 9f3d feea e8bb 7539 b0bd 6831 a0bd
00000010: 5497 2f3b 29ef 9a3d e084 9e3d fc7c a5bd
00000020: efd4 653d 62e6 643d 777d 323d fdb6 623d
00000030: 1d43 03bc 3008 3e3d 7c10 adbd e519 5e3d
00000040: 06d5 9fbd b699 f53c 228c 56bc 1476 a8bd
00000050: 4fa1 0f3d 6652 cb3c 10bb c83c 6c7e 19bd
00000060: 94bf 3ebd 099d 8dbd ff2f 6bbd 0739 2bbd
00000070: 989e 17bd c398 573c 88c4 813d b4eb bdbc

bn1.weight f4 [32]
1.0 1.0 1.0 1.0 1.0 1.0 1.0 1.0
1.0 1.0 1.0 1.0 1.0 1.0 1.0 1.0
1.0 1.0 1.0 1.0 1.0 1.0 1.0 1.0
1.0 1.0 1.0 1.0 1.0 1.0 1.0 1.0
00000000: 0000 803f 0000 803f 0000 803f 0000 803f
00000010: 0000 803f 0000 803f 0000 803f 0000 803f
00000020: 0000 803f 0000 803f 0000 803f 0000 803f
00000030: 0000 803f 0000 803f 0000 803f 0000 803f
00000040: 0000 803f 0000 803f 0000 803f 0000 803f
00000050: 0000 803f 0000 803f 0000 803f 0000 803f
00000060: 0000 803f 0000 803f 0000 803f 0000 803f
00000070: 0000 803f 0000 803f 0000 803f 0000 803f

bn1.bias f4 [32]
0.0 0.0 0.0 0.0 0.0 0.0 0.0 0.0
0.0 0.0 0.0 0.0 0.0 0.0 0.0 0.0
0.0 0.0 0.0 0.0 0.0 0.0 0.0 0.0
0.0 0.0 0.0 0.0 0.0 0.0 0.0 0.0
00000000: 0000 0000 0000 0000 0000 0000 0000 0000
00000010: 0000 0000 0000 0000 0000 0000 0000 0000
00000020: 0000 0000 0000 0000 0000 0000 0000 0000
00000030: 0000 0000 0000 0000 0000 0000 0000 0000
00000040: 0000 0000 0000 0000 0000 0000 0000 0000
00000050: 0000 0000 0000 0000 0000 0000 0000 0000
00000060: 0000 0000 0000 0000 0000 0000 0000 0000
00000070: 0000 0000 0000 0000 0000 0000 0000 0000

bn1.running_mean f4 [32]
-0.71828926 -5.3963423 0.70712703 4.2669654 0.9686213 5.7082667 1.4836367 -2.914467
5.651549 0.77111 1.535029 -1.4439075 2.064544 2.5826945 2.178735 2.6067564
-3.4264128 -1.5230321 -0.7115878 -1.5569675 2.3280723 4.0985756 3.950402 -0.013049921
-3.210621 3.8531487 -2.0083535 0.6471487 5.066702 -2.432746 0.49257553 4.318493
00000000: cee1 37bf d6ae acc0 4706 353f fb8a 8840
00000010: 91f7 773f 1faa b640 cfe7 bd3f a186 3ac0
00000020: 7dd9 b440 7767 453f d57b c43f f6d1 b8bf
00000030: 7d21 0440 de4a 2540 6570 0b40 19d5 2640
00000040: 594a 5bc0 b7f2 c2bf 9e2a 36bf b64a c7bf
00000050: 23ff 1440 8827 8340 63d3 7c40 56cf 55bc
00000060: d17a 4dc0 fd99 7640 dd88 00c0 8aab 253f
00000070: 6c22 a240 1cb2 1bc0 dc32 fc3e 1831 8a40

bn1.running_var f4 [32]
0.19361824 1.2064071 0.3098604 0.8376114 0.26122594 1.1747545 0.22822808 0.4152129
1.2029306 0.2411442 0.29164675 0.34033442 0.43419018 0.38176653 0.35857627 0.39445218
0.52497536 0.24711347 0.20717357 0.25591463 0.4603582 0.73458064 0.8054923 0.20860869
0.50112414 0.8076104 0.3384857 0.28780195 1.0277514 0.38347986 0.17830706 0.8380839
00000000: dc43 463e 8c6b 9a3f 06a6 9e3e b36d 563f
00000010: 68bf 853e 5b5e 963f 9fb4 693e c996 d43e
00000020: a1f9 993f 81ee 763e b952 953e 5040 ae3e
00000030: 2d4e de3e e776 c33e 4f97 b73e a3f5 c93e
00000040: c964 063f 500b 7d3e 4f25 543e 3e07 833e
00000050: 12b4 eb3e 7a0d 3c3f be34 4e3f 849d 553e
00000060: ac49 003f 8ebf 4e3f ff4d ad3e c75a 933e
00000070: 5c8d 833f 7957 c43e 2096 363e ab8c 563f

conv2.weight f4 [64, 32, 5]
0.009791871 0.04380679 0.022164403 0.0039579323 0.06400247 0.027132293 -0.025630103 -0.0035443837
0.068206266 0.050735883 -0.058880873 -0.050025854 0.033583034 0.039134365 0.037751224 0.06689656
-0.058418524 -0.01463125 0.06244172 0.069884606 -0.043779943 0.0076537086 0.06350749 -0.03202545
-0.0067011355 0.068551034 0.022354737 -0.02307516 0.06470289 0.033345625 -0.065562226 0.0016376267
0.011202578 -0.05328519 -0.06820081 -0.004370416 0.008797642 -0.06554679 0.010619335 0.05737417
-0.0005637064 0.0785074 -0.0017191188 -0.048463706 0.053597175 -0.03171653 -0.023346014 0.036218707
0.035380702 -0.05244608 0.0028415555 0.067782156 -0.03422498 -0.017167749 -0.07535892 0.04523864
0.025196923 -0.0042055566 -0.0016634305 0.07545529 0.052483067 0.031498194 0.018575037 -0.062065266
0.014324913 0.061514113 -0.026278853 0.035223395 -0.033115473 -0.04654766 -0.057380784 -0.05585673
-0.013858578 0.025490953 0.01859199 -0.031617016 0.060057368 0.047138046 -0.012719592 0.017345672
0.071755916 -0.010039014 -0.045907803 0.078544945 0.041368194 0.038766306 0.028561162 0.07746916
0.07785203 -0.03733772 -0.062822886 0.016877735 0.04793624 -0.018702792 -0.068987526 0.06341833
0.07581292 -0.011203624 -0.061982915 -0.024428708 0.030069156 -0.03235205 -0.032781307 -0.025604988
0.027310308 -0.006531969 -0.070721805 -0.04939239 -0.0039179544 0.03913492 -0.007350283 -0.027584415
3.810253e-05 0.023549495 0.021250328 0.0367942 -0.0030711133 -0.031595804 0.03257923 0.05122608
0.02865578 0.049522217 0.0075524347 0.039871186 -0.041632384 -0.00061467313 0.06300364 -0.052412216
-0.00022612717 -0.025534125 0.05151438 0.025774963 -0.04214669 -0.009080212 -0.066414945 0.026849799
-0.07390044 -0.07599326 -0.07309474 0.020966232 -0.011748332 -0.035323244 0.011275767 0.07583182
0.03748229 0.027646927 -0.027030028 0.05654626 0.07592885 0.023390874 -0.048922766 0.028303735
-0.014182709 0.0035395396 -0.0037167545 -0.06907443 0.024318095 0.048453435 -0.011684896 0.027601125
-0.06737422 -0.049115222 -0.013764316 0.049478076 -0.06932514 -0.04379586 -0.0068522734 -0.0052550393
0.04932448 -0.026867252 -0.07588012 -0.05659946 -0.0663847 -0.027237987 -0.06631937 0.062215168
-0.05517762 0.06014194 0.021351527 -0.00427376 0.033816617 0.014529118 0.044796515 -0.009938239
-0.07881751 -0.055298507 0.012745151 0.06088666 -0.030495757 -0.0007667251 0.022113059 -0.07325614
0.028092735 -0.011142923 0.03171812 0.037927665 0.048752204 -0.023487002 -0.0649753 -0.03189055
-0.013218016 0.06754295 0.04555262 -0.03586094 -0.063637145 -0.033870645 -0.053976793 -0.0450499
-0.045304194 -0.012978789 0.032227173 -0.06861679 -0.02181117 0.015258835 0.033984 -0.033664808
0.067725286 0.050830834 -0.031571366 -0.064007126 0.077147216 -0.025897715 0.050208855 0.014826815
0.035835925 0.05195655 -0.032040846 -0.02045302 -0.0039611557 0.07142976 0.06516023 0.063945636
0.03523505 0.03805447 0.069847494 -0.034071356 -0.06595077 0.07339713 0.044896875 -0.06776986
-0.035891086 -0.071366526 -0.04720373 0.0033546344 0.055018097 0.008026676 -0.028332047 -0.038645033
-0.07100481 0.027337799 0.058823477 0.035954908 -0.06807172 0.06868812 -0.060492337 0.0009598295
00000000: 156e 203c c06e 333d 1f92 b53c 8bb1 813b
00000010: ba13 833d 8b44 de3c 39f6 d1bc e448 68bb
00000020: baaf 8b3d 6ed0 4f3d 122d 71bd e9e7 4cbd
00000030: 5d8e 093d 5b4b 203d 07a1 1a3d 1001 893d
00000040: 4348 6fbd e9b7 6fbc e4c2 7f3d a91f 8f3d
00000050: 9952 33bd f6cb fa3b 3710 823d 1e2d 03bd
00000060: 3395 dbbb 7c64 8c3d 4821 b73c 1e08 bdbc
00000070: f382 843d 6c95 083d 7d45 86bd a2a5 d63a
00000080: 058b 373c 9241 5abd deac 8bbd b535 8fbb
00000090: fc23 103c 653d 86bd b8fc 2d3c 2d01 6b3d
000000a0: b2c5 13ba 7dc8 a03d 0e54 e1ba e181 46bd
000000b0: b688 5b3d 31e9 01bd 2440 bfbc 115a 143d
000000c0: 5beb 103d b3d1 56bd 6439 3a3b 5fd1 8a3d
000000d0: 7e2f 0cbd 61a3 8cbc c755 9abd 274c 393d
000000e0: c769 ce3c c4ce 89bb 7707 daba 4e88 9a3d
000000f0: 7cf8 563d 4004 013d ad2a 983c 2638 7ebd
00000100: 0ab3 6a3c 39f6 7b3d c046 d7bc 6846 103d
00000110: 17a4 07bd c2a8 3ebd 1d08 6bbd 07ca 64bd
00000120: 170f 63bc 67d2 d03c 3b4e 983c d880 01bd
00000130: b7fe 753d d313 413d d665 50bc 8318 8e3c
00000140: c4f4 923d ad7a 24bc d209 3cbd 2cdc a03d
00000150: b271 293d 6bc9 1e3d 19f9 e93c 27a8 9e3d
00000160: e370 9f3d 70ef 18bd 49a9 80bd 2d43 8a3c
00000170: ca58 443d 9936 99bc 5549 8dbd 78e1 813d
00000180: ce43 9b3d 688f 37bc cce1 7dbd b71e c8bc
00000190: 9753 f63c 9583 04bd b145 06bd 8dc1 d1bc
000001a0: deb9 df3c 210a d6bb 98d6 90bd ad4f 4abd
000001b0: 2f62 80bb f04b 203d a5da f0bb b6f8 e1bc
000001c0: 48d0 1f38 dfea c03c 2b15 ae3c 84b5 163d
000001d0: bb44 49bb 9a6a 01bd cc71 053d 70d2 513d
000001e0: 87bf ea3c cfd7 4a3d 6a7a f73b f84f 233d
000001f0: b886 2abd 0422 21ba 0d08 813d 31ae 56bd
00000200: 8d1c 6db9 f12c d1bc be00 533d 0426 d33c
00000210: 02a2 2cbd 2bc5 14bc 8f04 88bd 1cf4 db3c
00000220: 1d59 97bd 5ba2 9bbd b2b2 95bd 60c1 ab3c
00000230: 137c 40bc 1baf 10bd ffbd 383c b74d 9b3d
00000240: 0887 193d cf7b e23c 146e ddbc 0d9d 673d
00000250: 9680 9b3d 389e bf3c 3d63 48bd 3cdd e73c
00000260: 985e 68bc 9ff7 673b cb94 73bb e576 8dbd
00000270: be36 c73c 1c77 463d 0272 3fbc c11b e23c
00000280: 7ffb 89bd 0b2d 49bd ba83 61bc 86a9 4a3d
00000290: 57fa 8dbd 4a63 33bd 0989 e0bb 7732 acbb
000002a0: 7708 4a3d b618 dcbc 0967 9bbd d6d4 67bd
000002b0: b4f4 87bd 3322 dfbc 73d2 87bd 55d5 7e3d
000002c0: ee01 62bd 6557 763d 66e9 ae3c e60a 8cbb
000002d0: 4b83 0a3d 8a0b 6e3c 8d7c 373d ffd3 22bc
000002e0: 136b a1bd b080 62bd 0ad1 503c 4a64 793d
000002f0: 3dd2 f9bc 0dfe 48ba 7226 b53c 5107 96bd
00000300: bc22 e63c ce90 36bc dcea 013d 0a5a 1b3d
00000310: 64b0 473d d067 c0bc c511 85bd aa9f 02bd
00000320: 6190 58bc f553 8a3d 6295 3a3d ece2 12bd
00000330: 3154 82bd f2bb 0abd c516 5dbd 3e86 38bd
00000340: e490 39bd fda4 54bc a400 043d f686 8cbd
00000350: 57ad b2bc 3100 7a3c cf32 0b3d 1ce4 09bd
00000360: 8eb3 8a3d fe33 503d fa50 01bd 2b16 83bd
00000370: 5cff 9d3d 7227 d4bc cda7 4d3d 2bec 723c
00000380: b1c8 123d 64d0 543d 433d 03bd 188d a7bc
00000390: 95cc 81bb c449 923d ba72 853d eef5 823d
000003a0: a152 103d 01df 1b3d 340c 8f3d 688e 0bbd
000003b0: 3311 87bd 3c51 963d c9e5 373d edca 8abd
000003c0: 8802 13bd 9d28 92bd b358 41bd 6dd9 5b3b
000003d0: a85a 613d 5282 033c 9c18 e8bc 414a 1ebd
000003e0: f86a 91bd 85f3 df3c e3f0 703d 7445 133d
000003f0: 3069 8bbd 5bac 8c3d d0c6 77bd 119d 7b3a

conv2.bias f4 [64]
-0.06416903 -0.06720535 0.036598817 -0.0452187 -0.018922238 0.008230213 0.07546178 0.04248749
-0.038348857 -0.020629548 0.05700739 0.04686001 -0.064976096 0.04264155 -0.078184515 -0.04623367
0.07512785 -0.017469648 -0.026568672 0.057919007 0.078807294 0.055659242 0.074221276 -0.011083992
0.056111187 -0.035940036 0.06958904 0.015447038 -0.0711778 -0.01820318 -0.016407754 0.03223954
0.03685345 0.05623949 -0.063572004 0.0047252136 0.009230831 0.022182563 0.06829206 -0.070999295
-0.07508669 0.02810017 0.036831398 0.072324604 0.077284954 0.037564658 -0.06361195 0.032217808
-0.06549923 0.006191148 -0.056664668 -0.019535515 0.07006418 -0.0021940481 0.012975378 -0.026719827
0.017582769 -0.06012378 -0.003023313 -0.022673128 -0.042688794 0.05352492 0.030364174 -0.010792667
00000000: 0d6b 83bd f5a2 89bd a4e8 153d 3e37 39bd
00000010: cf02 9bbc 04d8 063c b58b 9a3d 5d07 2e3d
00000020: b113 1dbd 4cff a8bc 9580 693d 48f0 3f3d
00000030: 3012 85bd e8a8 2e3d 341f a0bd 845f 3dbd
00000040: a1dc 993d 821c 8fbc 8ba6 d9bc 7b3c 6d3d
00000050: b865 a13d f2fa 633d 5301 983d a299 35bc
00000060: d8d4 653d dc35 13bd b384 8e3d 9315 7d3c
00000070: abc5 91bd d61e 95bc 8e69 86bc 9c0d 043d
00000080: a5f3 163d 615b 663d 0a32 82bd f7d5 9a3b
00000090: e93c 173c 35b8 b53c b5dc 8b3d 1468 91bd
000000a0: 0dc7 99bd 5432 e63c 85dc 163d ec1e 943d
000000b0: 9347 9e3d 66dd 193d fb46 82bd d2f6 033d
000000c0: 7624 86bd 1ddf ca3b 3619 68bd f208 a0bc
000000d0: cf7d 8f3d 05ca 0fbb ae96 543c 8ae3 dabc
000000e0: bd09 903c 5a44 76bd c622 46bb ffbc b9bc
000000f0: 72da 2ebd f23c 5b3d 4abe f83c bad3 30bc

bn2.weight f4 [64]
1.0 1.0 1.0 1.0 1.0 1.0 1.0 1.0
1.0 1.0 1.0 1.0 1.0 1.0 1.0 1.0
1.0 1.0 1.0 1.0 1.0 1.0 1.0 1.0
1.0 1.0 1.0 1.0 1.0 1.0 1.0 1.0
1.0 1.0 1.0 1.0 1.0 1.0 1.0 1.0
1.0 1.0 1.0 1.0 1.0 1.0 1.0 1.0
1.0 1.0 1.0 1.0 1.0 1.0 1.0 1.0
1.0 1.0 1.0 1.0 1.0 1.0 1.0 1.0
00000000: 0000 803f 0000 803f 0000 803f 0000 803f
00000010: 0000 803f 0000 803f 0000 803f 0000 803f
00000020: 0000 803f 0000 803f 0000 803f 0000 803f
00000030: 0000 803f 0000 803f 0000 803f 0000 803f
00000040: 0000 803f 0000 803f 0000 803f 0000 803f
00000050: 0000 803f 0000 803f 0000 803f 0000 803f
00000060: 0000 803f 0000 803f 0000 803f 0000 803f
00000070: 0000 803f 0000 803f 0000 803f 0000 803f
00000080: 0000 803f 0000 803f 0000 803f 0000 803f
00000090: 0000 803f 0000 803f 0000 803f 0000 803f
000000a0: 0000 803f 0000 803f 0000 803f 0000 803f
000000b0: 0000 803f 0000 803f 0000 803f 0000 803f
000000c0: 0000 803f 0000 803f 0000 803f 0000 803f
000000d0: 0000 803f 0000 803f 0000 803f 0000 803f
000000e0: 0000 803f 0000 803f 0000 803f 0000 803f
000000f0: 0000 803f 0000 803f 0000 803f 0000 803f

bn2.bias f4 [64]
0.0 0.0 0.0 0.0 0.0 0.0 0.0 0.0
0.0 0.0 0.0 0.0 0.0 0.0 0.0 0.0
0.0 0.0 0.0 0.0 0.0 0.0 0.0 0.0
0.0 0.0 0.0 0.0 0.0 0.0 0.0 0.0
0.0 0.0 0.0 0.0 0.0 0.0 0.0 0.0
0.0 0.0 0.0 0.0 0.0 0.0 0.0 0.0
0.0 0.0 0.0 0.0 0.0 0.0 0.0 0.0
0.0 0.0 0.0 0.0 0.0 0.0 0.0 0.0
00000000: 0000 0000 0000 0000 0000 0000 0000 0000
00000010: 0000 0000 0000 0000 0000 0000 0000 0000
00000020: 0000 0000 0000 0000 0000 0000 0000 0000
00000030: 0000 0000 0000 0000 0000 0000 0000 0000
00000040: 0000 0000 0000 0000 0000 0000 0000 0000
00000050: 0000 0000 0000 0000 0000 0000 0000 0000
00000060: 0000 0000 0000 0000 0000 0000 0000 0000
00000070: 0000 0000 0000 0000 0000 0000 0000 0000
00000080: 0000 0000 0000 0000 0000 0000 0000 0000
00000090: 0000 0000 0000 0000 0000 0000 0000 0000
000000a0: 0000 0000 0000 0000 0000 0000 0000 0000
000000b0: 0000 0000 0000 0000 0000 0000 0000 0000
000000c0: 0000 0000 0000 0000 0000 0000 0000 0000
000000d0: 0000 0000 0000 0000 0000 0000 0000 0000
000000e0: 0000 0000 0000 0000 0000 0000 0000 0000
000000f0: 0000 0000 0000 0000 0000 0000 0000 0000

bn2.running_mean f4 [64]
0.3978515 -0.15809004 0.6549128 0.19893384 -0.10544791 0.052704822 -0.97228557 0.4519279
-0.10937377 0.10556442 0.35507724 0.13721062 -0.21161227 -0.07337927 0.263185 -0.10385016
0.0016481982 -0.21037333 0.00045063897 0.33520302 -0.19398528 0.29169556 0.66892767 0.13248873
-0.060704574 -0.5848204 -0.11448018 0.031513344 -0.29741177 0.06857267 0.12036946 -0.06335517
0.28946006 -0.067382805 -0.6091419 -0.24019006 0.15914732 0.21100584 0.023757208 0.10935926
0.463277 -0.17974705 -0.059770495 -0.8085752 -0.09424427 -0.39571485 0.21000189 -0.18488257
-0.15206094 0.2593536 0.038999684 0.11163818 0.09922746 0.2716112 -0.06788393 -0.19941269
0.4255651 0.062082566 0.46581793 0.17422272 0.21755308 -0.24112312 -0.16856581 -0.65767884
00000000: 31b3 cb3e 5be2 21be 5ea8 273f 50b5 4b3e
00000010: 13f5 d7bd 03e1 573d b5e7 78bf 1863 e73e
00000020: 5bff dfbd 2932 d83d afcc b53e f180 0c3e
00000030: e3b0 58be df47 96bd 2fc0 863e 65af d4bd
00000040: 5b08 d83a 1b6c 57be bd43 ec39 bb9f ab3e
00000050: 14a4 46be 1f59 953e d83e 2b3f 20ab 073e
00000060: 5ca5 78bd cab6 15bf 9674 eabd 2314 013d
00000070: 5b46 98be d46f 8c3d 4384 f63d 5bc0 81bd
00000080: 1c34 943e ffff 89bd b9f0 1bbf 62f4 75be
00000090: 84f7 223e ea11 583e 7a9e c23c bff7 df3d
000000a0: a532 ed3e 9c0f 38be e8d1 74bd c9fe 4ebf
000000b0: 2403 c1bd 239b cabe bc0a 573e db51 3dbe
000000c0: ddb5 1bbe ffc9 843e 22be 1f3d 8fa2 e43d
000000d0: c437 cb3d a010 8b3e bb06 8bbd d732 4cbe
000000e0: abe3 d93e 4a4a 7e3d b07f ee3e 7167 323e
000000f0: 3cc6 5e3e fbe8 76be 849c 2cbe a45d 28bf

bn2.running_var f4 [64]
0.18311767 0.2542832 0.123680025 0.10222643 0.10028138 0.12633333 0.28848866 0.301453
0.10762039 0.16751729 0.07374618 0.12136288 0.072768226 0.08825174 0.085720226 0.18016641
0.07976455 0.09325821 0.07743222 0.08730793 0.099289246 0.102838404 0.16262715 0.16078895
0.122033685 0.098886915 0.11328698 0.12826627 0.11138455 0.1361237 0.09235269 0.12559716
0.1375757 0.07019742 0.09693995 0.09986284 0.11604352 0.13506916 0.0907919 0.18143353
0.33286428 0.10645945 0.084250845 0.14368482 0.062261496 0.4558751 0.22468969 0.08306118
0.1792705 0.072125964 0.09105461 0.083400264 0.26179498 0.0815739 0.0871874 0.13270587
0.4153633 0.07667114 0.086607784 0.10592547 0.13147764 0.09932774 0.08124635 0.14013846
00000000: 3383 3b3e 6831 823e f44b fd3d 175c d13d
00000010: 5360 cd3d 865d 013e c9b4 933e 0c58 9a3e
00000020: 1468 dc3d a789 2b3e 3d08 973d 1a8d f83d
00000030: 8207 953d 54bd b43d 168e af3d 8b7d 383e
00000040: 995b a33d 29fe be3d c994 9e3d 80ce b23d
00000050: 2958 cb3d f19c d23d bb87 263e dca5 243e
00000060: ccec f93d 3985 ca3d 0103 e83d 3c58 033e
00000070: 951d e43d 0364 0b3e 6823 bd3d 8b9c 003e
00000080: a5e0 0c3e aac3 8f3d 7488 c63d e384 cc3d
00000090: 3aa8 ed3d 924f 0a3e 1bf1 b93d b6c9 393e
000000a0: 306d aa3e 6a07 da3d b58b ac3d 1d22 133e
000000b0: e905 7f3d 7668 e93e 0e15 663e fb1b aa3d
000000c0: b092 373e c7b6 933d d77a ba3d c2cd aa3d
000000d0: fe09 863e 3810 a73d 4f8f b23d 0ce4 073e
000000e0: 80aa d43e c205 9d3d 6c5f b13d 74ef d83d
000000f0: 13a2 063e 586c cb3d 7d64 a63d 7580 0f3e

conv3.weight f4 [128, 64, 3]
0.019890195 0.0071366467 -0.039634995 -0.051512282 0.053750068 -0.0672147 0.014798389 -0.043119453
0.027407378 0.036215797 0.011061379 0.024444241 0.058538157 0.019107133 0.025819084 0.063311554
-0.061277643 -0.050621726 -0.019575302 -0.038146798 -0.023845864 0.06601922 0.04575177 0.06621577
-0.019802976 -0.050259393 -0.052009247 0.06297324 0.03852584 0.058113866 0.059136834 0.055091407
0.007994187 -0.06627886 0.06522192 0.04354609 0.053304967 -0.05514461 0.043040182 0.024815504
-0.069017746 0.06951853 -0.054749656 -0.03255361 -0.02314165 -0.0335483 -0.06688733 -0.06105249
0.042750333 -0.011109875 -0.017392742 -0.014962425 0.028648552 -0.06043003 0.03250568 -0.035561524
0.02098736 -0.05598662 0.052425202 -0.038733624 -0.021253921 -0.029791975 0.06163576 0.020044407
-0.04774481 -0.05006225 -0.059221406 0.0043504867 -0.042482626 -0.016603354 -0.066312954 0.05577949
-0.06274218 -0.032085318 0.02646477 -0.015627211 -0.051169913 -0.063631475 -0.027668398 0.05833949
0.022260813 0.0015560503 -0.045155913 -0.05504718 0.060547095 0.058542494 -0.022284532 0.024782553
0.052378144 0.018342912 -0.05319023 0.07187458 0.042080186 0.04166391 -0.046147775 0.062113892
0.056360036 -0.04979715 0.0076676356 -0.0034869157 -0.055553727 -0.045708958 0.0029203699 -0.0073266653
0.036240194 0.0026787405 0.025168888 0.045595028 -0.04927467 0.006985953 -0.06507438 0.03849185
0.009586732 -0.012090139 -0.05706745 -0.051825035 0.045252036 0.01862359 0.060081437 -0.040016074
-0.042271614 -0.04363795 -0.068227574 0.01655312 0.013262651 -0.03351743 -0.071474 0.038982686
0.016690781 -0.064836875 0.004838253 0.028006194 0.046723 0.056719717 0.007779649 -0.024435183
0.0018689741 0.057929557 0.05537301 -0.03273288 -0.059605673 0.005577353 0.060463205 -0.04636214
-0.065776005 0.010505871 0.045144368 0.032365635 -0.03844562 0.03601831 0.053000446 -0.06446975
-0.04750928 0.050690696 0.037872203 -0.015700286 0.065752216 0.035997532 -0.02604693 -0.010052878
0.035530683 -0.0534036 -0.025459796 0.00721257 0.056774113 -0.037398633 -0.07160438 0.069337375
-0.034202512 0.06549903 -0.015338239 -0.061568025 -0.014558463 0.018926397 -0.045259908 -0.035778504
0.038827397 -0.05919567 -0.06328757 0.04760002 0.02945337 -0.023578124 -0.009497913 -0.06761721
-0.020792618 0.0421838 -0.06502542 0.070466846 0.048628297 -0.0042192275 -0.04547336 -0.057987034
0.018575989 0.034105614 -0.0051236292 -0.011238725 -0.061937008 -0.065660864 -0.02107445 0.06290425
0.03914946 -0.023055464 -0.06881127 -0.07033909 -0.029360095 0.04057285 -0.015647722 0.013209742
0.071618 0.038735893 -0.015937708 -0.05186147 0.0015311784 -0.013629732 0.02559072 -0.025980849
-0.02336542 -0.02685576 -0.0532186 0.017379398 -0.039846282 0.058051903 0.03636582 -0.047665015
-0.0061064665 0.07208244 0.002830501 -0.006746836 -0.030181691 0.005832842 0.035560682 -0.04290094
-0.025546009 0.029383246 0.07054065 0.06020241 -0.0021258653 -0.038644012 -0.04302724 -0.0033815524
0.0533456 -0.02571347 -0.06989086 -0.03697668 0.06475803 0.0552441 -0.056242395 0.047751408
-0.06327249 0.05356293 -0.041154843 -0.036219385 0.059005 0.025343198 0.04509052 0.02652857
00000000: c3f0 a23c 88da e93b 4e58 22bd 8bfe 52bd
00000010: 0829 5c3d dca7 89bd f174 723c 069e 30bd
00000020: 7085 e03c 0457 143d c93a 353c 4a3f c83c
00000030: b5c5 6f3d 9086 9c3c 8b82 d33c 7da9 813d
00000040: 44fe 7abd ba58 4fbd 625c a0bc d13f 1cbd
00000050: 6758 c3bc 1635 873d 3566 3b3d 229c 873d
00000060: da39 a2bc cbdc 4dbd a607 55bd 1df8 803d
00000070: 45cd 1d3d ce08 6e3d 7739 723d 87a7 613d
00000080: 0dfa 023c 36bd 87bd 1293 853d 635d 323d
00000090: 4f56 5a3d 51df 61bd e74a 303d e249 cb3c
000000a0: 2d59 8dbd bb5f 8e3d 2d41 60bd ef56 05bd
000000b0: 8f93 bdbc f169 09bd 39fc 88bd 2d12 7abd
000000c0: f91a 2f3d 3106 36bc 397b 8ebc f624 75bc
000000d0: 5eb0 ea3c 7b85 77bd ad24 053d f6a8 11bd
000000e0: afed ab3c 3a52 65bd cfbb 563d 26a7 1ebd
000000f0: b41c aebc 4d0e f4bc c775 7c3d 2b34 a43c
00000100: 1090 43bd 130e 4dbd 2592 72bd 878e 8e3b
00000110: 4302 2ebd c203 88bc 16cf 87bd 0979 643d
00000120: f97e 80bd e56b 03bd a5cc d83c a304 80bc
00000130: 8b97 51bd 3851 82bd d6a8 e2bc 64f5 6e3d
00000140: 4f5c b63c 62f4 cb3a 68f5 38bd 2779 61bd
00000150: 3b00 783d 41ca 6f3d 0d8e b6bc c804 cb3c
00000160: 778a 563d e043 963c 00de 59bd fb32 933d
00000170: 465c 2c3d c7a7 2a3d 7305 3dbd 236b 7e3d
00000180: c8d9 663d 19f8 4bbd ca40 fb3b bd84 64bb
00000190: 4e8c 63bd 5139 3bbd ad63 3f3b 8614 f0bb
000001a0: 9970 143d cf8d 2f3b fc2e ce3c dac1 3a3d
000001b0: 3dd4 49bd 6cea e43b b745 85bd a1a9 1d3d
000001c0: ab11 1d3c b815 46bc 8fbf 69bd 7d46 54bd
000001d0: 335a 393d 8090 983c f417 763d e5e7 23bd
000001e0: 0025 2dbd b5bd 32bd e6ba 8bbd 699a 873c
000001f0: 974b 593c 9349 09bd f660 92bd 4fac 1f3d
00000200: 1bbb 883c 32c9 84bd 358a 9e3b 3f6d e53c
00000210: 9e60 3f3d ef52 683d 6dec fe3b 4b2c c8bc
00000220: 5df8 f43a 8b47 6d3d cfce 623d ea12 06bd
00000230: 1425 74bd 3ac2 b63b 44a8 773d 3ae6 3dbd
00000240: 92b5 86bd d120 2c3c 4de9 383d d491 043d
00000250: 2879 1dbd ef87 133d ff16 593d b708 84bd
00000260: 1799 42bd 0ca1 4f3d e21f 1b3d e39d 80bc
00000270: 19a9 863d 2672 133d 5f60 d5bc d4b4 24bc
00000280: 9f88 113d bcbd 5abd 1091 d0bc 6c57 ec3b
00000290: f98b 683d 4f2f 19bd 51a5 92bd c100 8e3d
000002a0: ef17 0cbd 5b24 863d 3d4d 7bbc c12e 7cbd
000002b0: 9f86 6ebc 880b 9b3c 7462 39bd 7b8c 12bd
000002c0: 7a09 1f3d 2977 72bd ea9c 81bd 3df8 423d
000002d0: 3248 f13c e926 c1bc 229d 1bbc e47a 8abd
000002e0: 4855 aabc ecc8 2c3d 0c2c 85bd ec50 903d
000002f0: 772e 473d 7241 8abb 4642 3abd d083 6dbd
00000300: ac2c 983c 54b2 0b3d 1ee4 a7bb a122 38bc
00000310: a9b1 7dbd 3479 86bd 53a4 acbc f2d3 803d
00000320: 2f5b 203d d0de bcbc ecec 8cbd f10d 90bd
00000330: 9584 f0bc b72f 263d a72f 80bc ac6d 583c
00000340: 75ac 923d 87a9 1e3d cc8f 82bc b16c 54bd
00000350: d2b1 c83a 3d4f 5fbc a1a3 d13c cad5 d4bc
00000360: d668 bfbc 9c00 dcbc bffb 59bd 3d5f 8e3c
00000370: db35 23bd d5c7 6d3d 53f4 143d 643c 43bd
00000380: c118 c8bb f59f 933d ed7f 393b 9014 ddbb
00000390: 983f f7bc 6d21 bf3b 14a8 113d e5b8 2fbd
000003a0: dd45 d1bc 22b5 f03c 9e77 903d cd96 763d
000003b0: 1a52 0bbb 2f49 1ebd 553d 30bd 099d 5dbb
000003c0: ea80 5a3d 0ea5 d2bc f022 8fbd dc74 17bd
000003d0: dc9f 843d a347 623d 6d5e 66bd fb96 433d
000003e0: 0295 81bd ce64 5b3d fb91 28bd c75a 14bd
000003f0: 3aaf 713d 8a9c cf3c d6b0 383d 7252 d93c

conv3.bias f4 [128]
-0.02716218 -0.044295672 -0.0032689366 -0.03650403 -0.019937402 -0.032237597 -0.04492318 -0.06263785
-0.028180366 -0.04903621 0.060013596 -0.04115425 -0.06413914 -0.00786365 -0.0017729624 0.029302394
0.021385705 0.0033040806 0.07013375 0.03276196 -0.030198123 -0.027836265 -0.061560627 0.06761059
-0.006179129 -0.055248536 2.8201255e-05 0.043597255 0.037936933 0.022696117 0.03594029 0.054372396
0.04555192 0.03058205 0.05082988 0.007859211 -0.015544741 -0.01698957 -0.06862345 0.029659735
0.047191177 -0.03731198 -0.055734858 -0.06514905 0.06645932 -0.01715254 -0.047050584 -0.042250074
-0.06092173 -0.05128504 -0.05767062 -0.04184993 -0.035498977 -0.021363491 -0.03380089 0.00026531375
-0.050971728 0.050448027 -0.036810562 0.051254883 -0.03944839 -0.03448171 -0.046660043 0.03261683
0.04672773 -0.017720927 0.0067965626 0.06444962 0.05967715 0.039029144 0.056040987 -0.057232466
0.00512732 -0.012371498 0.06360757 0.047137942 -0.00939568 0.059373725 -0.026762156 -0.05074856
0.06704956 0.051034782 0.071546786 0.020519149 0.04195858 -0.05992075 0.038532298 0.051926933
-0.008604204 0.03886742 0.054335326 -0.0033748334 -0.06984849 -0.025688762 -0.03556013 0.034050737
-0.060929574 -0.052077934 -0.033256557 -0.024416832 0.03786878 0.014588927 0.05257986 -0.015996814
0.026805636 -0.066748306 -0.021631034 0.0023994208 -0.0022305232 0.05924446 -0.064772144 0.032065645
0.046252336 0.00027548271 0.06701076 -0.011409877 0.005067167 -0.05901486 -0.01910437 0.052792206
-0.045259684 0.01232979 0.028677415 0.06273273 -0.05193913 0.038917962 0.018851617 -0.06910286
00000000: 3883 debc 616f 35bd a83b 56bb 4085 15bd
00000010: c353 a3bc 920b 04bd 5e01 38bd 4648 80bd
00000020: 83da e6bc 31da 48bd d1d0 753d 5c91 28bd
00000030: 625b 83bd 8ad6 00bc bf62 e8ba 930b f03c
00000040: 1331 af3c 4689 583b 49a2 8f3d 6831 063d
00000050: 0e62 f7bc e108 e4bc ff26 7cbd 6c77 8a3d
00000060: 4a7a cabb 4a4c 62bd bc91 ec37 0993 323d
00000070: c263 1b3d 35ed b93c 2036 133d 97b5 5e3d
00000080: a694 3a3d 3587 fa3c fe32 503d ecc3 003c
00000090: 5faf 7ebc b62d 8bbc 748a 8cbd f9f8 f23c
000000a0: 894b 413d 72d4 18bd 3c4a 64bd dd6c 85bd
000000b0: d31b 883d 7c83 8cbc 1db8 40bd 6a0e 2dbd
000000c0: 1089 79bd 4310 52bd 0738 6cbd d56a 2bbd
000000d0: 6067 11bd 7d02 afbc cd72 0abd cf19 8b39
000000e0: bbc7 50bd 97a2 4e3d acc6 16bd a4f0 513d
000000f0: a394 21bd b23c 0dbd 9a1e 3fbd 3a99 053d
00000100: 9465 3f3d 7a2b 91bc b3b5 de3b 2afe 833d
00000110: 0770 743d 06dd 1f3d 3c8b 653d 976c 6abd
00000120: 1403 a83b d3b1 4abc b044 823d b713 413d
00000130: 57f0 19bc dd31 733d 4f3c dbbc b9dd 4fbd
00000140: 4851 893d d909 513d 1f87 923d c617 a83c
00000150: c3dc 2b3d 766f 75bd 0bd4 1d3d 56b1 543d
00000160: a6f8 0cbc 7233 1f3d b88e 5e3d 4f2c 5dbb
00000170: ba0c 8fbd 3d71 d2bc 80a7 11bd c978 0b3d
00000180: 4a91 79bd ac4f 55bd 0738 08bd cf05 c8bc
00000190: 4b1c 1b3d 6506 6f3c fb5d 573d c00b 83bc
000001a0: 7e97 db3c 56b3 88bd 9133 b1bc 9a3f 1d3b
000001b0: f82d 12bb 52aa 723d 42a7 84bd 4457 033d
000001c0: 1773 3d3d aa6e 9039 f03c 893d 7ef0 3abc
000001d0: 7a0a a63b 91b9 71bd c580 9cbc a43c 583d
000001e0: 3862 39bd e302 4a3c e6ec ea3c 047a 803d
000001f0: 20be 54bd 7168 1f3d b56e 9a3c cd85 8dbd

bn3.weight f4 [128]
1.0 1.0 1.0 1.0 1.0 1.0 1.0 1.0
1.0 1.0 1.0 1.0 1.0 1.0 1.0 1.0
1.0 1.0 1.0 1.0 1.0 1.0 1.0 1.0
1.0 1.0 1.0 1.0 1.0 1.0 1.0 1.0
1.0 1.0 1.0 1.0 1.0 1.0 1.0 1.0
1.0 1.0 1.0 1.0 1.0 1.0 1.0 1.0
1.0 1.0 1.0 1.0 1.0 1.0 1.0 1.0
1.0 1.0 1.0 1.0 1.0 1.0 1.0 1.0
1.0 1.0 1.0 1.0 1.0 1.0 1.0 1.0
1.0 1.0 1.0 1.0 1.0 1.0 1.0 1.0
1.0 1.0 1.0 1.0 1.0 1.0 1.0 1.0
1.0 1.0 1.0 1.0 1.0 1.0 1.0 1.0
1.0 1.0 1.0 1.0 1.0 1.0 1.0 1.0
1.0 1.0 1.0 1.0 1.0 1.0 1.0 1.0
1.0 1.0 1.0 1.0 1.0 1.0 1.0 1.0
1.0 1.0 1.0 1.0 1.0 1.0 1.0 1.0
00000000: 0000 803f 0000 803f 0000 803f 0000 803f
00000010: 0000 803f 0000 803f 0000 803f 0000 803f
00000020: 0000 803f 0000 803f 0000 803f 0000 803f
00000030: 0000 803f 0000 803f 0000 803f 0000 803f
00000040: 0000 803f 0000 803f 0000 803f 0000 803f
00000050: 0000 803f 0000 803f 0000 803f 0000 803f
00000060: 0000 803f 0000 803f 0000 803f 0000 803f
00000070: 0000 803f 0000 803f 0000 803f 0000 803f
00000080: 0000 803f 0000 803f 0000 803f 0000 803f
00000090: 0000 803f 0000 803f 0000 803f 0000 803f
000000a0: 0000 803f 0000 803f 0000 803f 0000 803f
000000b0: 0000 803f 0000 803f 0000 803f 0000 803f
000000c0: 0000 803f 0000 803f 0000 803f 0000 803f
000000d0: 0000 803f 0000 803f 0000 803f 0000 803f
000000e0: 0000 803f 0000 803f 0000 803f 0000 803f
000000f0: 0000 803f 0000 803f 0000 803f 0000 803f
00000100: 0000 803f 0000 803f 0000 803f 0000 803f
00000110: 0000 803f 0000 803f 0000 803f 0000 803f
00000120: 0000 803f 0000 803f 0000 803f 0000 803f
00000130: 0000 803f 0000 803f 0000 803f 0000 803f
00000140: 0000 803f 0000 803f 0000 803f 0000 803f
00000150: 0000 803f 0000 803f 0000 803f 0000 803f
00000160: 0000 803f 0000 803f 0000 803f 0000 803f
00000170: 0000 803f 0000 803f 0000 803f 0000 803f
00000180: 0000 803f 0000 803f 0000 803f 0000 803f
00000190: 0000 803f 0000 803f 0000 803f 0000 803f
000001a0: 0000 803f 0000 803f 0000 803f 0000 803f
000001b0: 0000 803f 0000 803f 0000 803f 0000 803f
000001c0: 0000 803f 0000 803f 0000 803f 0000 803f
000001d0: 0000 803f 0000 803f 0000 803f 0000 803f
000001e0: 0000 803f 0000 803f 0000 803f 0000 803f
000001f0: 0000 803f 0000 803f 0000 803f 0000 803f

bn3.bias f4 [128]
0.0 0.0 0.0 0.0 0.0 0.0 0.0 0.0
0.0 0.0 0.0 0.0 0.0 0.0 0.0 0.0
0.0 0.0 0.0 0.0 0.0 0.0 0.0 0.0
0.0 0.0 0.0 0.0 0.0 0.0 0.0 0.0
0.0 0.0 0.0 0.0 0.0 0.0 0.0 0.0
0.0 0.0 0.0 0.0 0.0 0.0 0.0 0.0
0.0 0.0 0.0 0.0 0.0 0.0 0.0 0.0
0.0 0.0 0.0 0.0 0.0 0.0 0.0 0.0
0.0 0.0 0.0 0.0 0.0 0.0 0.0 0.0
0.0 0.0 0.0 0.0 0.0 0.0 0.0 0.0
0.0 0.0 0.0 0.0 0.0 0.0 0.0 0.0
0.0 0.0 0.0 0.0 0.0 0.0 0.0 0.0
0.0 0.0 0.0 0.0 0.0 0.0 0.0 0.0
0.0 0.0 0.0 0.0 0.0 0.0 0.0 0.0
0.0 0.0 0.0 0.0 0.0 0.0 0.0 0.0
0.0 0.0 0.0 0.0 0.0 0.0 0.0 0.0
00000000: 0000 0000 0000 0000 0000 0000 0000 0000
00000010: 0000 0000 0000 0000 0000 0000 0000 0000
00000020: 0000 0000 0000 0000 0000 0000 0000 0000
00000030: 0000 0000 0000 0000 0000 0000 0000 0000
00000040: 0000 0000 0000 0000 0000 0000 0000 0000
00000050: 0000 0000 0000 0000 0000 0000 0000 0000
00000060: 0000 0000 0000 0000 0000 0000 0000 0000
00000070: 0000 0000 0000 0000 0000 0000 0000 0000
00000080: 0000 0000 0000 0000 0000 0000 0000 0000
00000090: 0000 0000 0000 0000 0000 0000 0000 0000
000000a0: 0000 0000 0000 0000 0000 0000 0000 0000
000000b0: 0000 0000 0000 0000 0000 0000 0000 0000
000000c0: 0000 0000 0000 0000 0000 0000 0000 0000
000000d0: 0000 0000 0000 0000 0000 0000 0000 0000
000000e0: 0000 0000 0000 0000 0000 0000 0000 0000
000000f0: 0000 0000 0000 0000 0000 0000 0000 0000
00000100: 0000 0000 0000 0000 0000 0000 0000 0000
00000110: 0000 0000 0000 0000 0000 0000 0000 0000
00000120: 0000 0000 0000 0000 0000 0000 0000 0000
00000130: 0000 0000 0000 0000 0000 0000 0000 0000
00000140: 0000 0000 0000 0000 0000 0000 0000 0000
00000150: 0000 0000 0000 0000 0000 0000 0000 0000
00000160: 0000 0000 0000 0000 0000 0000 0000 0000
00000170: 0000 0000 0000 0000 0000 0000 0000 0000
00000180: 0000 0000 0000 0000 0000 0000 0000 0000
00000190: 0000 0000 0000 0000 0000 0000 0000 0000
000001a0: 0000 0000 0000 0000 0000 0000 0000 0000
000001b0: 0000 0000 0000 0000 0000 0000 0000 0000
000001c0: 0000 0000 0000 0000 0000 0000 0000 0000
000001d0: 0000 0000 0000 0000 0000 0000 0000 0000
000001e0: 0000 0000 0000 0000 0000 0000 0000 0000
000001f0: 0000 0000 0000 0000 0000 0000 0000 0000

bn3.running_mean f4 [128]
-0.23270077 -0.16055106 -0.235404 0.0060478817 -0.053598758 0.02354562 -0.39102095 0.0023484887
-0.40640882 0.15852118 -0.33238292 -0.37210855 -0.44096735 -0.37220532 0.58589756 -0.03420738
-0.6755173 -0.080487154 0.10337834 -0.0044747684 -0.13422753 0.014055096 -0.084023476 0.26664153
0.0869958 -0.34226495 -0.19762743 0.60432935 -0.3431224 -0.6180065 -0.14973323 0.70185167
0.33599952 -0.4918868 -0.09678514 -0.23592508 0.1016454 0.548885 -0.38016447 0.09489711
-0.4125285 -0.049363397 -0.7339504 -0.25131983 0.42637473 -0.5945879 -0.40839207 -0.20393725
0.1588152 -0.44485947 0.21989365 0.2517228 0.41941863 0.5557978 -0.9453657 -0.33246368
0.3784346 -0.23271723 -0.015430333 0.16647469 -0.1641137 -0.30404177 -0.87431693 -0.191667
0.47810075 0.09441882 0.07779116 0.1647082 0.13368018 -0.027254118 0.30198446 -0.043369085
0.06448479 0.38649693 0.004539658 0.09323144 -0.1604239 0.5119106 -0.16463614 -0.39142528
-0.0035062449 0.14118353 -0.0069058165 0.577079 -0.1204965 -0.118326135 0.11569514 0.14265583
-0.4063319 0.21990228 -0.051405463 -0.027691105 -0.63539606 -0.14366585 -0.31957522 0.49501112
0.4396894 -0.11049915 -0.27376178 0.23673914 0.084667444 0.08659853 0.07934841 -0.15998533
-0.0055361497 -0.5487302 0.23270385 0.14577642 0.24639119 0.2104883 -0.2622314 0.35504824
0.3804676 0.37852263 -0.2794031 0.15600711 -0.38019025 -0.4468958 -0.5633174 0.38950628
0.14171185 1.2294111 -0.6380325 -0.46073696 -0.5374246 0.03512203 0.12688299 -0.46137854
00000000: 1c49 6ebe 7f67 24be bf0d 71be 4f2d c63b
00000010: 5f8a 5bbd bee2 c03c e633 c8be 1ae9 193b
00000020: d114 d0be 6053 223e 182e aabe 0385 bebe
00000030: 79c6 e1be b291 bebe 62fd 153f 0a1d 0cbd
00000040: b4ee 2cbf 73d6 a4bd 06b8 d33d 14a1 92bb
00000050: f172 09be 5847 663c 8014 acbd 3d85 883e
00000060: db2a b23d 5a3d afbe d85e 4abe 54b5 1a3f
00000070: bdad afbe ad35 1ebf ab53 19be 8dac 333f
00000080: 2108 ac3e 96d8 fbbe 4a37 c6bd 5896 71be
00000090: 772b d03d ba83 0c3f eba4 c2be 6a59 c23d
000000a0: f036 d3be 4631 4abd 2ce4 3bbf feac 80be
000000b0: ca4d da3e ea36 18bf c418 d1be edd4 50be
000000c0: 74a0 223e 9fc4 e3be cd2b 613e d0e1 803e
000000d0: 0abe d63e c448 0e3f 7d03 72bf ae38 aabe
000000e0: 2ec2 c13e 6d4d 6ebe 82cf 7cbc 5778 2a3e
000000f0: 6c0d 28be 5dab 9bbe 3cd3 5fbf 5b44 44be
00000100: 9fc9 f43e a85e c13d f950 9f3d 44a9 283e
00000110: 75e3 083e 0744 dfbc b59d 9a3e c8a3 31bd
00000120: 9a10 843d ede2 c53e 69c1 943b 20f0 be3d
00000130: 2a46 24be 930c 033f 6096 28be e568 c8be
00000140: 07c9 65bb 6a92 103e 304a e2bb 73bb 133f
00000150: dec6 f6bd f954 f2bd 93f1 ec3d 5f14 123e
00000160: bc0a d0be 102e 613e 898e 52bd 75d8 e2bc
00000170: 51a9 22bf 241d 13be 5d9f a3be 1972 fd3e
00000180: f81e e13e 614d e2bd 812a 8cbe bf6b 723e
00000190: 2066 ad3d 925a b13d 6b81 a23d 32d3 23be
000001a0: 9768 b5bb 9579 0cbf eb49 6e3e 6a46 153e
000001b0: f94d 7c3e 3f8a 573e 3243 86be e2c8 b53e
000001c0: a6cc c23e b8cd c13e ec0d 8fbe 54c0 1f3e
000001d0: 4ca8 c2be 87cf e4be 9235 10bf 5e6d c73e
000001e0: e91c 113e 585d 9d3f 1956 23bf b7e5 ebbe
000001f0: a994 09bf 1edc 0f3d 9ded 013e cf39 ecbe

bn3.running_var f4 [128]
0.10483708 0.13725482 0.19109417 0.09575534 0.1399454 0.099869 0.100617334 0.1245173
0.1652362 0.14300974 0.15939963 0.11591158 0.13681269 0.1624684 0.1984179 0.1488863
0.28782848 0.16823739 0.17369142 0.10666314 0.09291044 0.17337696 0.1386477 0.10612152
0.12043492 0.15261413 0.14631167 0.107538454 0.17051741 0.157992 0.19232833 0.23503524
0.12524468 0.12129699 0.12674816 0.18411836 0.108709574 0.19457898 0.13564712 0.1356063
0.17419939 0.12428343 0.22929633 0.15344286 0.099205144 0.21011958 0.17721812 0.18643789
0.15369 0.0973487 0.16068059 0.13595976 0.090391874 0.11492964 0.22674067 0.119953886
0.107134044 0.13002801 0.16732566 0.08716853 0.18510944 0.16666019 0.18696706 0.3362889
0.093345955 0.15371427 0.12316081 0.14210773 0.18275417 0.16330062 0.15491614 0.12845089
0.10131006 0.13175371 0.11647964 0.18150856 0.10174613 0.1517962 0.16695529 0.10315286
0.08835206 0.14480577 0.10378303 0.16725299 0.13572994 0.2336546 0.13634992 0.098024264
0.14225286 0.13317962 0.10014096 0.16304798 0.13161276 0.10413062 0.14622307 0.11966358
0.13613573 0.0934471 0.13409394 0.08887407 0.2160158 0.09415528 0.17720038 0.21450008
0.14751312 0.17905486 0.13262735 0.10979663 0.10003319 0.20017035 0.26217487 0.12012811
0.15215248 0.19712119 0.109202385 0.1201338 0.17043401 0.102454014 0.17635936 0.10463088
0.19032353 0.11711676 0.25258628 0.12817815 0.18719189 0.1561091 0.11715234 0.118415035
00000000: d3b4 d63d 878c 0c3e 31ae 433e 601b c43d
00000010: d94d 0f3e 1e88 cc3d 7610 ce3d ed02 ff3d
00000020: ae33 293e 2571 123e a839 233e 0d63 ed3d
00000030: a018 0c3e 1e5e 263e 102e 4b3e a675 183e
00000040: 415e 933e 6c46 2c3e 2adc 313e 3472 da3d
00000050: d447 be3d bb89 313e aaf9 0d3e 3d56 d93d
00000060: 95a6 f63d e146 1c3e bad2 153e 1f3d dc3d
00000070: 1e9c 2e3e a8c8 213e b8f1 443e 14ad 703e
00000080: 2440 003e 8e6a f83d 45ca 013e 8689 3c3e
00000090: 20a3 de3d b63f 473e 14e7 0a3e 61dc 0a3e
000000a0: 5361 323e 5088 fe3d a8cc 6a3e 2020 1d3e
000000b0: 112c cb3d 9629 573e ab78 353e 93e9 3e3e
000000c0: e960 1d3e c15e c73d 7489 243e 0939 0b3e
000000d0: 601f b93d 3b60 eb3d b52e 683e 62aa f53d
000000e0: 1869 db3d 1026 053e 6b57 2b3e 6a85 b23d
000000f0: 548d 3d3e f8a8 2a3e 4b74 3f3e 0f2e ac3e
00000100: 2a2c bf3d 4667 1d3e bc3b fc3d b084 113e
00000110: e923 3b3e 4738 273e 56a2 1e3e a188 033e
00000120: a67b cf3d 72ea 063e e18c ee3d 61dd 393e
00000130: 4660 d03d 7770 1b3e 54f6 2a3e cf41 d33d
00000140: edf1 b43d f747 143e 328c d43d 5e44 2b3e
00000150: cafc 0a3e 2743 6f3e 509f 0b3e f2c0 c83d
00000160: bcaa 113e 3d60 083e b416 cd3d 0df6 263e
00000170: 7fc5 063e 6f42 d53d 80bb 153e 2e12 f53d
00000180: 2a67 0b3e 3161 bf3d ec4f 093e 9c03 b63d
00000190: 3f33 5d3e 7cd4 c03d 0474 353e e9a5 5b3e
000001a0: ae0d 173e 285a 373e 77cf 073e 0edd e03d
000001b0: 33de cc3d 75f9 4c3e c93b 863e ba05 f63d
000001c0: dccd 1b3e 23da 493e 80a5 df3d b608 f63d
000001d0: 4186 2e3e 69d3 d13d 8c97 343e b748 d63d
000001e0: 2ce4 423e e9da ef3d fd52 813e 2241 033e
000001f0: 3baf 3f3e 10db 1f3e 91ed ef3d 9583 f23d

fc1.weight f4 [128, 128]
0.03280324 0.01932039 -0.024064966 -0.028840255 -0.038827308 0.0053188372 -0.08633933 0.057534598
0.088194735 -0.032667473 -0.046037253 -0.06512826 0.051604506 -0.0114541855 -0.07287834 -0.052393503
0.0146194035 0.076393634 -0.040659305 -0.04484397 0.050932 -0.068881586 -0.011716339 -0.017636612
0.04165805 -0.010875636 -0.02311076 0.008413891 -0.003548775 -0.01285973 0.031348404 0.00019765818
0.010835543 0.077014364 0.03547714 -0.04692666 -0.046821754 -0.06435716 0.072278544 -0.02578383
-0.081277825 -0.006547966 0.040722948 0.06925585 -0.04771368 -0.05250232 -0.06276259 0.052057467
0.033177197 -0.033781625 0.08179615 -0.040716972 0.021602968 -0.0055290028 0.052070502 -0.037656408
-0.023866232 -0.06433185 0.01787709 0.07850146 0.05695409 0.006041403 0.036043856 0.03886545
0.072011374 -0.0024323578 0.037652433 -0.048932955 0.06960729 0.0048055835 0.009221119 0.019743828
0.04527265 0.08739898 0.0151765 -0.08478636 0.04773991 0.0131976325 0.08275658 0.0037918992
0.06825504 -0.022904567 -0.019349966 -0.021165315 0.07971052 -0.02760431 0.034251574 0.023258707
0.02047695 0.025064394 -0.03943258 0.00893452 0.053226147 0.07250027 0.042914193 0.071921974
-0.005119409 -0.07556077 0.034174897 0.05353109 0.011741206 -0.018664531 0.06593498 -0.000891016
0.023055 0.079781264 0.06546988 0.02461848 -0.055767614 0.05705129 0.021506673 -0.045793068
-0.031282697 -0.07498342 -0.005128228 0.04087845 0.052594315 0.037934713 -0.022403715 0.018896403
0.01371606 -0.006788656 0.05035483 -0.039177306 0.04431111 -0.023483392 -0.04310768 -0.07136092
0.056183707 0.08236576 0.016131716 0.011067435 -0.042991195 -0.0016112318 -0.06316191 0.04926564
-0.033305768 -0.08204055 -0.07919866 -0.010233676 -0.0319139 -0.07715328 0.066705234 -0.07064224
-0.079249844 0.07181925 -0.022482088 0.021651035 0.034654118 -0.06518465 0.061664335 0.021296749
0.05935548 -0.07667552 -0.08438476 0.08024917 0.042557433 0.028806422 -0.08136037 0.027606502
0.021104801 -0.052002393 0.003483869 0.030348744 0.026376456 -0.08264162 0.05413344 -0.047840096
0.07122223 -0.020519815 0.01270797 -0.03142212 -0.064337805 0.07989014 -0.070570536 0.07980719
0.007299497 0.08122385 -0.008055169 -0.08657482 0.009349235 -0.053988595 0.055858377 -0.07274337
0.0017479457 -0.013738429 -0.058334958 0.06453596 0.027986825 -0.037487965 -0.057165857 -0.081094146
-0.04947061 0.078078486 0.029078428 0.08749556 -0.05722185 -0.017729187 0.029995795 0.04869022
-0.07466037 0.06469172 -0.07414598 -0.072652444 -0.02961307 -0.075718895 -0.05131758 -0.050349563
0.052519165 0.046887018 0.041343708 -0.07873736 -0.037294682 -0.06388577 0.063724846 0.042863533
-0.008986835 0.07929728 -0.014395941 -0.04646413 0.06810676 0.044946726 0.012425101 0.078418255
-0.039482642 -0.07824879 0.042396683 -0.039857894 0.0676893 0.012941221 0.059163153 0.04535633
-0.012728232 0.055824384 0.071651936 0.03921172 0.060579117 0.046510458 0.023570646 -0.05191851
0.07891689 0.02528972 -0.01715912 -0.077635095 0.021651058 0.0006809455 -0.02680981 -0.07088871
0.07187873 0.01725746 0.041549068 0.036260135 0.016976139 0.057980396 -0.043689854 0.01684425
00000000: b15c 063d cb45 9e3c e423 c5bc 6642 ecbc
00000010: 6209 1fbd a449 ae3b add2 b0bd 66a9 6b3d
00000020: 719f b43d 54ce 05bd 8f91 3cbd f761 85bd
00000030: 3f5f 533d 56aa 3bbc 3d41 95bd 929a 56bd
00000040: 3986 6f3c 4474 9c3d 5f8a 26bd 50ae 37bd
00000050: 139e 503d ca11 8dbd e3f5 3fbc a87a 90bc
00000060: a2a1 2a3d b92f 32bc c752 bdbc 6bda 093c
00000070: 9192 68bb 9eb1 52bc 2f67 003d 7742 4f39
00000080: 9087 313c b5b9 9d3d 7a50 113d 2b36 40bd
00000090: 2bc8 3fbd b0cd 83bd c606 943d 9c38 d3bc
000000a0: fd74 a6bd 5290 d6bb 1bcd 263d 03d6 8d3d
000000b0: 6b6f 43bd ac0c 57bd ac89 80bd 363a 553d
000000c0: d0e4 073d 9a5e 0abd bd84 a73d d7c6 26bd
000000d0: b5f8 b03c a32c b5bb e147 553d 9b3d 1abd
000000e0: 1e83 c3bc 6bc0 83bd fa72 923c 60c5 a03d
000000f0: b148 693d f6f6 c53b b9a2 133d 6131 1f3d
00000100: b37a 933d 3168 1fbb 7039 1a3d ec6d 48bd
00000110: 448e 8e3d 2878 9d3b 2d14 173c cfbd a13c
00000120: d06f 393d 3dfe b23d dba6 783c 79a4 adbd
00000130: ed8a 433d e23a 583c 487c a93d 8381 783b
00000140: 4cc9 8b3d 5ca2 bbbc d283 9ebc e262 adbc
00000150: 453f a33d 6f22 e2bc 614b 0c3d 0b89 be3c
00000160: 47bf a73c d853 cd3c 0f84 21bd 1862 123c
00000170: a903 5a3d 067b 943d cbc6 2f3d d44b 933d
00000180: b7c0 a7bb 9bbf 9abd fafa 0b3d 6b43 5b3d
00000190: 305e 403c 5ce6 98bc eb08 873d 1293 69ba
000001a0: d7dd bc3c 5c64 a33d 1315 863d b2ac c93c
000001b0: 956c 64bd 9dae 693d c32e b03c 8391 3bbd
000001c0: 4922 00bd e890 99bd b20a a8bb 2970 273d
000001d0: 236d 573d 6e61 1b3d ff87 b7bc a1cc 9a3c
000001e0: 53b9 603c 6073 debb de40 4e3d 6278 20bd
000001f0: 917f 353d 3e60 c0bc ae91 30bd ad25 92bd
00000200: e320 663d 61af a83d a926 843c 3054 353c
00000210: 8917 30bd f82f d3ba 085b 81bd c5ca 493d
00000220: a16b 08bd e004 a8bd e832 a2bd 26ab 27bc
00000230: 26b8 02bd 8a02 9ebd c19c 883d e1ac 90bd
00000240: be4d a2bd f915 933d 5b2c b8bc 835d b13c
00000250: 7af1 0d3d 887f 85bd be93 7c3d 8576 ae3c
00000260: bb1e 733d 0e08 9dbd ebd1 acbd ad59 a43d
00000270: b450 2e3d 72fb eb3c 44a0 a6bd 0827 e23c
00000280: fae3 ac3c 7600 55bd 9f51 643b ee9d f83c
00000290: 7013 d83c 0240 a9bd 07bb 5d3d faf3 43bd
000002a0: f6dc 913d 2c19 a8bc 1735 503c 7bb4 00bd
000002b0: 8ac3 83bd 719d a33d 4987 90bd f471 a33d
000002c0: 9e30 ef3b b158 a63d d4f9 03bc 244e b1bd
000002d0: 892d 193c 2523 5dbd c1cb 643d 7afa 94bd
000002e0: 531b e53a 2617 61bc a3f0 6ebd 6e2b 843d
000002f0: a044 e53c fb8c 19bd bf26 6abd b014 a6bd
00000300: b2a1 4abd 9de7 9f3d e235 ee3c df30 b33d
00000310: 7561 6abd cd3c 91bc beb9 f53c 656f 473d
00000320: 89e7 98bd 187d 843d d9d9 97bd ceca 94bd
00000330: 1c97 f2bc 8212 9bbd 6232 52bd 583b 4ebd
00000340: 561e 573d 9a0c 403d 0558 293d 0e41 a1bd
00000350: 4fc2 18bd 8bd6 82bd 2c82 823d ac91 2f3d
00000360: 853d 13bc 9d66 a23d f4dc 6bbc 2c51 3ebd
00000370: 8f7b 8b3d 0f1a 383d a792 4b3c c099 a03d
00000380: 8db8 21bd e740 a0bd 25a8 2d3d 0842 23bd
00000390: b0a0 8a3d 6a07 543c 1055 723d 8fc7 393d
000003a0: 138a 50bc 1ca8 643d 40be 923d 789c 203d
000003b0: cf21 783d c081 3e3d 3a17 c13c 81a8 54bd
000003c0: 2e9f a13d 632c cf3c 4891 8cbc 26ff 9ebd
000003d0: 8f5d b13c 7b81 323a 3fa0 dbbc 1a2e 91bd
000003e0: 2835 933d 845f 8d3c 5b2f 2a3d 8285 143d
000003f0: 8b11 8b3c da7c 6d3d 22f4 32bd f4fc 893c
