.checkpoints/eegcnn_best_model.pt (torch, 148383 bytes, 19 tensors)

module.features.0.weight f4 [32, 19, 5]
00000000: 7791 8d3d 08a9 a6bd faf1 09bd 0b1c 873c
00000010: 9d79 f8bc 9ebd 633b b728 353d 6bcf dc3d
00000020: dff5 30bc d772 a6bc 8315 243d 0751 bb3d
00000030: e2e3 1d3d 699e 1ebd 4ffc 0fbd c89e b8bd
00000040: 4f7a cfbc 7604 b23d dc91 c7bd dbfa 24be
00000050: ffdc a03d 8ee5 b63d 75cb fb3d 0250 d3bb
00000060: 1541 e3bd 68ab d33c b8e3 bf3d bcb3 fabc
00000070: f86e 5abd 6897 a2bd cfa5 333c fd6b 983c
00000080: fb2d babd 7185 32bd 84bd 2a3d 3c1d 67bc
00000090: b5d1 90bd c5eb 6ebd 2e5c b9bc 0406 13be
000000a0: 15f7 853d 9aa3 2a3d afb5 263d b953 cf3d
000000b0: 3559 bfbc a46e 18bd 28ad 0dbd 0c09 123d
000000c0: f58d 8bbd 9db7 f53b 26f3 05bb 0608 1a3c
000000d0: e945 c93d e550 8b3b 8222 9ebd a544 cbbd
000000e0: f75d 8bbd 6244 a53d b89f 813b 9623 68bd
000000f0: a911 cf3d d7c1 193e 35f5 5e3d a682 a6bc
00000100: 7e56 33bd e5f3 b2ba 2b16 743d f1c7 f53d
00000110: 4428 30bc 23b8 b1bd 6859 8bbc cfdb 4bbd
00000120: 2cac 29bd 7201 06bd 3f40 03be 3ce3 9cbd
00000130: d65b 6bbd 50be 29bd 34b9 0b3d d079 74bb
00000140: 61a8 9d3d de7b 6dbc 5ec1 c0bb 4b12 ee39
00000150: 15ef 03bc d5e9 1bbd 4ac9 91bd 3a31 40bd
00000160: 2a49 95bd 05d6 233d db52 6bbd e577 293d
00000170: 8393 a9bd 2dcc b4bd 1c09 b7bd 796d a63d
00000180: f139 d7bd 9d36 a4bd f2cd d1bd c648 bdbb
00000190: b26b 21bd bba9 0abd 1fac b03d 5448 f4ba
000001a0: 52b0 cfbb 8dd7 523d a028 cc3d 8563 383d
000001b0: 148e b0bc e4dc 41bb 3da3 563d 663f 1c3d
000001c0: ecf1 c3bc c99d a73b 4f63 8a3b ecc8 563d
000001d0: 0fe3 823d 1e7e e03d 6161 813d ddf3 a0bd
000001e0: a86b 58bd 718d bdbc 1ead 2cbd 710e b0bc
000001f0: 2553 bdbc 69f9 2f3d 72d1 b23d 6158 a5bd
00000200: 1084 623d 7a19 6a3d 7f31 a23c 203f 073d
00000210: 94f1 9ebc 75cd 74bd a8a4 a4bd 8182 8c3d
00000220: f63f 5f3d 7896 02bd 686a de3d 5f7b 76bd
00000230: 48e0 b93d 7d0c 5bbd 32de a6bc 5b57 483d
00000240: 6d0b b2bd 207c 0bbd 7ab7 8bbc 2206 80bd
00000250: 1735 78bd ae03 22bd dd56 e5ba 4c4e 87bc
00000260: 69a0 c23b c1bd 25bd 4fff 97bd d4a8 303d
00000270: bd08 bebc 4762 2ebd 934a e83d fdf7 7abd
00000280: 7ee0 853c 3936 e5bc 9916 c23b 1c5c 2d3d
00000290: 0242 af3d 9995 83bd cf66 14bd e4bf 90bd
000002a0: 7766 623c eecd e33c 838c aa3d 0b6c 343d
000002b0: 062b b83b a112 043c 122f c0bd 6ed2 b13d
000002c0: 385b 53bd 6eb1 27bc e4e0 a5bd 0efc 0fbd
000002d0: 0f1d 513d 5e84 593d 5268 bc3d f69e 51bd
000002e0: 2a4c 473d e1d3 ea3d 836f c53d 01d1 ca3d
000002f0: 8370 8f3c 7cca a43d a40c 09bd 91f7 373d
00000300: 8c2e f9bd 1f04 5a3d 5c22 d33b ff69 e7bc
00000310: 494f cb3d 86cb aa3d 1fea 81bd 6572 bdbd
00000320: bc72 e73c 5e0f be3d 937b b1bc f9b7 fdbc
00000330: 8ed1 a3bd 1d5e 86bd 2541 e7bb 43b0 5a3d
00000340: cc88 d8bd e4e3 abbd b71f 683d 0f8f 973d
00000350: 6ca6 0cbd 0cf1 e63c fa6a bbbd fa8d c13d
00000360: 6ea7 67bd 2886 853d e607 40bd a4f8 c9bc
00000370: c337 7abd 20d4 b23d 87a9 30bc e017 84bd
00000380: 3285 de3d f0c3 0abd e10f d7bd 4a35 56bd
00000390: a978 c8bc 3ee2 afbd f826 0ebd 98dd b43d
000003a0: bc56 303d 3468 c23c 1742 163d 7342 0c3d
000003b0: 35ed 9c3d 6f75 463d 3cab 9f3d c8cc 963d
000003c0: 2cc9 973d d350 2dbd 6cab 2fbd 33a0 dabc
000003d0: 80a3 cfbd 8f3c 813d f45e 3e3d ae77 a03d
000003e0: d4da bf3d 006a 913b 5679 56bc d22b 1f3d
000003f0: a80a 6fbd 53b1 31bd 1d48 623c 0b7d aebc
0.06912511 -0.08137709 -0.033678032 0.016492864 -0.030331427 0.0034750472 0.04422828 0.10781749
-0.010800808 -0.020318432 0.040059578 0.09146314 0.038547404 -0.03872529 -0.03515273 -0.0901466
-0.025326876 0.08692257 -0.09744617 -0.16111319 0.07854652 0.08930503 0.12294666 -0.0064487467
-0.11096398 0.025838569 0.09369606 -0.030603282 -0.053328484 -0.07939035 0.010964825 0.01860618
-0.09090801 -0.04358429 0.041684642 -0.014106091 -0.070712484 -0.058330316 -0.022626963 -0.14357764
0.06541268 0.04165993 0.04070061 0.10123391 -0.023357967 -0.03721489 -0.034588963 0.03565316
-0.068141855 0.007498695 -0.0020439117 0.009401327 0.098277874 0.0042515867 -0.077214256 -0.09925202
-0.06805032 0.080696836 0.0039558075 -0.056674562 0.1011079 0.1501535 0.054433066 -0.02032597
-0.043783657 -0.0013653009 0.059591454 0.120010264 -0.010751788 -0.086776994 -0.017010406 -0.049770173
-0.04142396 -0.032716222 -0.12817477 -0.07660529 -0.05746063 -0.04144126 0.03411217 -0.0037304051
0.07698131 -0.014494864 -0.005882426 0.00045408527 -0.008052607 -0.038064796 -0.07118471 -0.046921946
-0.072893456 0.039999027 -0.057452064 0.041374106 -0.08280089 -0.08828006 -0.08937284 0.08126349
-0.10509098 -0.08018229 -0.10244359 -0.0057764975 -0.039409347 -0.033853274 0.086265795 -0.0018637278
-0.0063381577 0.051475096 0.09968686 0.045016784 -0.021552123 -0.0029581124 0.05240177 0.0381464
-0.023919068 0.005115245 0.0042232643 0.052437708 0.06390964 0.10961555 0.06317402 -0.07859013
-0.052837044 -0.023138734 -0.042157285 -0.021491261 -0.023110935 0.042962465 0.08731355 -0.080734976
0.055301726 0.057153203 0.019798992 0.033019185 -0.019402303 -0.05976625 -0.08039218 0.06860829
0.054504357 -0.03188178 0.10860139 -0.06017625 0.090759814 -0.053478707 -0.020369623 0.048911434
-0.086935855 -0.03405392 -0.017055262 -0.0625117 -0.060597505 -0.03955429 -0.0017497201 -0.016516827
0.0059395325 -0.040464167 -0.07421743 0.043129757 -0.023197526 -0.042574193 0.11342349 -0.061271656
0.016342398 -0.027979957 0.005923104 0.04232417 0.08557512 -0.06425018 -0.03623086 -0.0706785
0.013818375 0.027808156 0.08327582 0.04404835 0.005620363 0.008061082 -0.09383978 0.086827144
-0.051600665 -0.010235174 -0.08099535 -0.035152487 0.051053103 0.05310475 0.09199585 -0.051176988
0.04865662 0.11466194 0.0964041 0.099031456 0.017509704 0.08046433 -0.03345932 0.044913832
-0.12167081 0.053226586 0.006443305 -0.028248785 0.09927232 0.083396 -0.06343483 -0.09250335
0.028252952 0.09280275 -0.02166537 -0.030971514 -0.07998954 -0.065609194 -0.0070573264 0.053390753
-0.10572967 -0.08393076 0.05667087 0.07400333 -0.0343384 0.028191112 -0.091512635 0.09450908
-0.056556158 0.06519729 -0.046882533 -0.024654694 -0.061088335 0.08731866 -0.010782606 -0.06449866
0.10865249 -0.033878267 -0.105010755 -0.052296914 -0.024471598 -0.08588074 -0.034705132 0.08831328
0.043051466 0.023731329 0.036684122 0.03424306 0.07662431 0.048451837 0.07796332 0.07363278
0.07411417 -0.042313408 -0.04288809 -0.026687717 -0.10138607 0.06310379 0.046477273 0.07835327
0.0936791 0.004437685 -0.013090452 0.03886015 -0.058359772 -0.043382 0.013811138 -0.02129986

module.features.0.bias f4 [32]
00000000: 8669 773d 118e b73a 1b76 37bd c620 023c
00000010: 1c5e d03d 1443 b93a 7e1c cebd 83b7 3abd
00000020: ae4c 673d c97a a83d 32b9 e3ba 0407 043d
00000030: 0fcd 37bc acbf b4ba 724c 15bd 7531 a73d
00000040: fc87 37bd 8682 f4bc 013c 09bd 3ea5 f93a
00000050: 9611 133d 67e7 c53d 98a0 24bd e78c 2ebd
00000060: c1ee c6bd 2298 8dbd fe26 a1bd 83bb 2bbd
00000070: fa28 b0bd a18a 9c3c d498 14bc 71b7 bf3c
0.06040337 0.0014004131 -0.04479037 0.007942384 0.101742 0.0014134371 -0.10064028 -0.045585167
0.05646961 0.082265444 -0.0017373918 0.032233253 -0.011218323 -0.0013790033 -0.036449857 0.0816373
-0.04480742 -0.029847395 -0.03350449 0.0019046438 0.035905443 0.09663277 -0.040192217 -0.042614844
-0.097135074 -0.06913783 -0.07868765 -0.041926872 -0.08601566 0.019109072 -0.00906964 0.023402901

module.features.1.weight f4 [32]
00000000: 931c 803f 9f0e 7c3f 596a 733f e629 813f
00000010: 56f8 823f 88cf 803f 5056 803f dc31 7b3f
00000020: 38eb 743f d312 813f 4f58 813f e635 853f
00000030: 6638 803f 63fc 803f b649 813f 7bc4 803f
00000040: 6f1a 813f c3df 803f cf72 7f3f 4cbb 853f
00000050: 0891 873f db35 7c3f d9aa 803f ae4a 7c3f
00000060: 2add 813f b9d6 7d3f c6b8 803f 13e2 7d3f
00000070: 7a98 7c3f 851f 7a3f d256 7e3f 88fe 823f
1.000872 0.9845981 0.9508415 1.0090911 1.0232036 1.0063334 1.002634 0.98122954
0.95671415 1.008387 1.0105075 1.0407073 1.0017211 1.0077022 1.010062 1.0059961
1.0086192 1.0068287 0.9978456 1.0447783 1.0591135 0.98519677 1.0052139 0.9855145
1.0145619 0.99155766 1.0056388 0.99173087 0.9867016 0.97704345 0.9935123 1.0233927

module.features.1.bias f4 [32]
00000000: 2489 b93c 3aba acbc 9aaa c6bc 56b2 4f3d
00000010: 92e5 853a 265f 333d a59b fabc 5129 fcbc
00000020: 8642 21bb d598 5dbc b5d0 22bd 1bdd abbc
00000030: 7c58 bfbd 50fe 853c 3822 61bb c68e 7dbb
00000040: e3a0 0fbd 1935 14bd 4fe6 413c d2dc 10bd
00000050: 76f8 423d 2f6e 27bd 56c5 943a 5529 133b
00000060: 3e87 6b3c 4e4e 9c3c 5211 303c 9d1e 04bd
00000070: d39d b83c b899 8abc a81b 9ebc 4bf0 fd3d
0.022648402 -0.021084893 -0.024251271 0.050707184 0.0010215512 0.043791912 -0.030591795 -0.03078142
-0.0024606301 -0.0135252075 -0.03974982 -0.020979455 -0.09343049 0.016356617 -0.0034352671 -0.0038689836
-0.035065543 -0.03618345 0.011834695 -0.03536684 0.047600232 -0.040876564 0.0011350315 0.0022455056
0.014375506 0.019080307 0.010746317 -0.032255758 0.022536194 -0.016919002 -0.019300297 0.12399348

module.features.1.running_mean f4 [32]
00000000: 259a a3c0 a79a 2d40 1692 883f 4e46 32c0
00000010: 9ec5 ebbf 979a 3dc0 73f2 8840 6608 923f
00000020: e1f4 8740 bbb4 76c0 e2c7 84bf 414b bbbf
00000030: add3 84bf 3c16 38c0 82a0 1140 b7ea 5740
00000040: e7d9 4840 0165 56c0 72ea a7c0 ed93 cabf
00000050: 7880 f3bf ea97 b13f cca9 4ec0 ee8c 3e40
00000060: bfca 5fbf 6591 0240 cc71 e4bf eb86 dc40
00000070: 18bb b4bf e099 293f 273c 253f 390b ca3f
-5.1125665 2.7125642 1.0669582 -2.785541 -1.8419683 -2.9625604 4.279596 1.1408813
4.2486424 -3.854781 -1.0373499 -1.4632341 -1.0377098 -2.876357 2.2754216 3.3737009
3.1382997 -3.3499148 -5.247369 -1.5826393 -1.902358 1.3874485 -3.2291136 2.9773517
-0.8741874 2.0401242 -1.7847228 6.8914695 -1.4119596 0.6625042 0.6454491 1.5784675

module.features.1.running_var f4 [32]
00000000: fc70 fe3f 9c55 593f da0c e53e 9c63 123f
00000010: 706e 0d3f f367 363f 5dac 943f 9626 d23e
00000020: fc5b 8b3f 9984 873f 2ab0 d03e be9f d83e
00000030: ba88 e63e babb 393f ac46 043f 73d8 4a3f
00000040: 0808 3b3f 520a 493f b8f5 de3f 2496 a83e
00000050: dc32 e03e c2bb be3e ad0b 403f dde2 473f
00000060: 40a0 5b3e 0e0f e83e 0569 c83e 0d9a 2f40
00000070: f541 873e 12f3 913e 9797 2e3f 0f25 bd3e
1.987823 0.84896255 0.44736367 0.5718324 0.5524664 0.71252364 1.1615101 0.41045064
1.0887446 1.058734 0.40759403 0.42309374 0.4502619 0.72552073 0.51670337 0.79236525
0.7305913 0.7853137 1.7418737 0.32927048 0.43788803 0.37252623 0.75017816 0.7808054
0.2144785 0.45323986 0.39142624 2.7437775 0.2641751 0.2850576 0.6820006 0.36942336

module.features.4.weight f4 [64, 32, 3]
00000000: 667a babd 7485 c83c 9c01 f4bd 0e9a 05bc
00000010: 75df 7a3d d5bb 6a3d cfd9 6dbb b41e 3ebc
00000020: 1954 773d af5b 24bd 4807 fbbd b8c6 08be
00000030: f708 c93d 2a4d d83c 2836 7c3d 930c 1e3b
00000040: 956b 053c e910 6e3d 0b5d 3dbd 90d9 9e3d
00000050: 8e23 74bd 3d2c a93d 4dad e83c 5338 b2bd
00000060: b409 9e3d f8ce e83d a6ea 043d d578 6a3d
00000070: fa86 72bd 2b59 203c 1e23 9a3d ee5f bebd
00000080: d4b3 cfbc 68b6 51bb 9ee2 5ebd 5d79 fa3d
00000090: 9388 e93c a83a a7bc 17c1 3b3d 8e62 32bb
000000a0: 7ef1 0f3d 06d5 2c3d 9a3a 223d 8e6b 36bb
000000b0: b644 4abd 2ae3 b43d 5416 3d3d 3065 7f3c
000000c0: 9245 87bd 17f6 acbd 2de2 05bc fe9f dbbd
000000d0: ee4b 193c c35c 3bbb bc0b 283d 0c85 123b
000000e0: 38f1 f1bb af35 f2bc d5be df3c d8b9 d03c
000000f0: e70a a1bd 86b8 c1bc 4ed7 2b3d dda4 82bd
00000100: f150 06be ec8e 18be 1dba 88bb c7fb 68bc
00000110: 1393 b6bd 79bb 81bd c927 c53c d701 8cba
00000120: 099b 6a3d 6070 7c3d c4a7 853d c85e 563d
00000130: 1e83 693d 91da acbd b22f 10bb 0904 29bd
00000140: 1340 80bd 4a28 84bb afea a9bc 3360 67bd
00000150: ae7a a43d 04cf 113d 7d7e be3d 8fdd c4bd
00000160: b551 c4bc 7303 8e3a 56b8 79bc 762d 72bd
00000170: af78 babd 17b0 c2bc 2f65 513c f61c 9cbc
00000180: 0303 b4bd d8c4 5d3d 5e5b 013d e9b4 37bd
00000190: ec3f 9dbb 56c7 01bc 5de4 78bc f763 183d
000001a0: da24 a53d 3888 1f3d f2fe 00be 1d24 08be
000001b0: ff53 fa3c 285f 2d3c 6200 7b3c 8238 67bc
000001c0: 44da a33d c8d6 de3d 827a eebc 8c51 73bd
000001d0: 6c90 a0bd 75b7 2b3d 7a61 eb3c f556 923d
000001e0: 6ac9 ba3d 5159 5abd 78fd 0abd f4a1 003d
000001f0: 826b 86bd 8aec ebbb 4c08 f63d baa7 a43d
00000200: e7fb 053d 3571 b3bd 2917 63bd 0fa2 5fbd
00000210: 6371 bbbb aba0 56bd ee39 d2bd 2c86 b4bc
00000220: d864 c3bd 8f4a 00be add3 0b3b f9c2 953d
00000230: f1fb d4bc a89f 3f3d 62c1 a8bd 0117 0bbd
00000240: 6256 663c 154a 33bd ed74 01bd d234 493d
00000250: aa43 bbbd 6305 bdbc bc1f b03d c13c f5bc
00000260: ca3b 9e3d 0918 87bd ddd0 093d be81 2ebd
00000270: fef5 883d 6ca4 afbd 9e5e 19bd 95cb 523c
00000280: ca86 b23d 48da 883a 1979 b5bd a2cf afbd
00000290: ed23 413d 0469 96bd 1961 cc3b b89a 50bc
000002a0: 6b88 853d a030 d03c f87c 66bc 7fe0 a4bd
000002b0: bee6 9bbd 42ee c83d 739e 64bc 0591 b83d
000002c0: 9696 533d 3294 bcbd 99e2 a8bd ba80 913d
000002d0: b1bf c93b e562 613d 6a04 0cbb 9fb6 883d
000002e0: ac00 d53d c04c 90bb 4345 4f3d 5664 dc3c
000002f0: fc5f 1ebd bb0b 453c de8e edbd 55dc b5bd
00000300: f6da c2bd f03d 7b3c 7a5f bfbd a63d 71bd
00000310: d8b9 9f3d a9da 873d 9f02 81bd ba32 7dbd
00000320: ef4d 1b3d 01f7 b03c 9962 68bd 3b0b 853c
00000330: 43a5 273d a49a bb3d c134 a9bd 1ae7 5d3d
00000340: 9069 7d3d 9e1e f7bc 2b49 cabc 2050 903c
00000350: 3a49 c83d 106f 233d 17e5 9bbd a524 95bd
00000360: e531 bfbb 1cee 89bd db96 c9bc 101f 14bd
00000370: cde9 d2bd 7f67 8bbd c75b 8ebd d1ac 65bd
00000380: 5444 333d 9d3e ca3d d5e2 2ebd 0083 f73b
00000390: c668 013b bcdb f3bd e4e2 13bd b8d0 233d
000003a0: 7ad5 a2b9 100b 54bd b3a0 823d 5acb 6d3c
000003b0: 3cce e7bc 9931 ae3d b114 2a3d 720c 88bd
000003c0: d3b7 1dbb 082b 363d c9b8 56bd 8753 5fbd
000003d0: 7e91 28bd 31b8 913c 40be 2ebd cd61 213d
000003e0: 1659 243b 69d9 c3bd b696 84bd d6ea 2cbd
000003f0: bb4e 0fbe a892 15bc b3ac 53bd 3375 29bc
-0.09105377 0.024477698 -0.119143695 -0.008154405 0.06124826 0.057308037 -0.0036293154 -0.011604
0.060382936 -0.0401265 -0.12257248 -0.13357055 0.09816163 0.026403982 0.061575085 0.0024116382
0.008143325 0.058121596 -0.04623131 0.077563405 -0.05960422 0.08260391 0.028402949 -0.08702149
0.077166945 0.11367601 0.03245034 0.05724414 -0.059210755 0.009786884 0.07526229 -0.09295641
-0.025354303 -0.0031999592 -0.054415338 0.122301795 0.028507506 -0.020413712 0.04583844 -0.0027219388
0.035142414 0.042195342 0.039606668 -0.0027835104 -0.049381934 0.088323906 0.046163872 0.01558809
-0.06605066 -0.084453754 -0.0081716 -0.107238755 0.009356482 -0.0028589226 0.041026816 0.0022357134
-0.007383492 -0.029566614 0.027312675 0.025479242 -0.078634076 -0.023647558 0.041953377 -0.063791014
-0.13116814 -0.1489827 -0.004172577 -0.014220185 -0.08914771 -0.06334586 0.024066823 -0.0010681701
0.05727676 0.061630607 0.065261394 0.052336484 0.05700981 -0.08440126 -0.0022001085 -0.041263614
-0.06262221 -0.004033123 -0.020741789 -0.056488227 0.08031212 0.035597816 0.093014695 -0.096125714
-0.023964742 0.0010834768 -0.015241703 -0.059125386 -0.0910505 -0.023765607 0.012780472 -0.019056778
-0.08789637 0.054142803 0.031581275 -0.044850264 -0.00479888 -0.007921061 -0.015191165 0.03720471
0.080636695 0.038948268 -0.12597254 -0.13295026 0.03055763 0.010581769 0.0153199155 -0.014112594
0.08000615 0.1088081 -0.02911115 -0.05940394 -0.07840046 0.041923005 0.028733004 0.07145492
0.09120448 -0.053307835 -0.033933133 0.03140445 -0.06563474 -0.0071998285 0.12013301 0.08039804
0.032710936 -0.08761827 -0.05544201 -0.05459791 -0.005720304 -0.05239932 -0.102649555 -0.022036634
-0.09540719 -0.12528442 0.0021335885 0.07312579 -0.025999041 0.04678312 -0.0824001 -0.033957485
0.014058681 -0.043771822 -0.03160565 0.04912264 -0.09143765 -0.023073858 0.08599803 -0.029936196
0.077262476 -0.06596381 0.033646453 -0.0426042 0.06687544 -0.08576283 -0.03744375 0.012865921
0.08717115 0.001044103 -0.08860988 -0.08584525 0.047153402 -0.07344249 0.006237161 -0.0127322
0.0652016 0.025413811 -0.014067881 -0.08050632 -0.0761237 0.09811069 -0.013953793 0.09012035
0.05165728 -0.092079535 -0.08246345 0.07104631 0.0061568846 0.055025954 -0.0021364936 0.06675457
0.10400519 -0.0044036806 0.050603162 0.026903313 -0.038665757 0.012026723 -0.115995154 -0.088799156
-0.0951442 0.015334591 -0.093443826 -0.058896683 0.07799119 0.06633503 -0.06299328 -0.061815955
0.03791612 0.021602156 -0.056734655 0.016240707 0.04092909 0.09160355 -0.08262015 0.054175474
0.06186825 -0.030165967 -0.024693092 0.017616332 0.09779592 0.03990084 -0.07612055 -0.0728238
-0.0058348053 -0.06734869 -0.024608066 -0.036162436 -0.102985 -0.0680685 -0.06951099 -0.056073014
0.043766335 0.09875224 -0.042696793 0.007553458 0.0019746288 -0.119071454 -0.03610505 0.03999397
-0.000310581 -0.051768363 0.06378307 0.014513815 -0.028296582 0.08505554 0.04152364 -0.06642999
-0.0024065867 0.04447463 -0.05242232 -0.054523017 -0.041154377 0.017788025 -0.042661905 0.03939991
0.0025077513 -0.09562952 -0.06474058 -0.042216145 -0.13994877 -0.009129204 -0.05167837 -0.010342884

module.features.4.bias f4 [64]
00000000: 0933 363d c916 c33d fb3e 2d3a 4f9e 863d
00000010: 92ac 423d e9f9 e33c 7a2e 4fbd 3337 063d
00000020: c138 0a3d 2905 30bd 173e f13c 4c0e ae3d
00000030: 4653 b6bd c34b 043d 8acf 9abd 34e0 9cbd
00000040: 373a babd 0908 c43d 2a0f 89bd 2b88 8ebd
00000050: 6dd4 1f3a 941f 2f3d c750 6abd c552 b5bd
00000060: d1c7 9d3c cd91 773d 8f96 3bbd 63f0 003c
00000070: cb73 a5bd 47f8 05bd 52ab 893d 70e1 963d
00000080: cfc7 a3bd 704e c53c e585 203c 688d fb3b
00000090: 6fba 27bd ed40 513d 8e70 a83d d359 c63c
000000a0: c1ef a8bc bec9 1dbb 57aa 35bd b7be 23bb
000000b0: cdec 543d b7dd 94bc 8a29 893d bc8a 4bbc
000000c0: 4096 7b3d 06c3 483d d810 b73c d2a8 a2ba
000000d0: 063d a83d 3a19 1c3d 9e93 bbbd 4402 883c
000000e0: b5e3 8b3b 1391 a43a 20c5 323b 7f3d 2cbd
000000f0: 9160 27bd 782e 933d 4836 de3c 96a0 cfbd
0.044482265 0.0952583 0.0006608811 0.06573164 0.047527857 0.027829127 -0.050581433 0.032767486
0.03374553 -0.04297367 0.029448552 0.08498821 -0.08902602 0.032298815 -0.07559116 -0.07659951
-0.09093135 0.09571845 -0.066923454 -0.06959566 0.00060970226 0.042754725 -0.05720594 -0.08853678
0.019260319 0.06044178 -0.04579788 0.007869813 -0.080787264 -0.03270748 0.0672213 0.073672175
-0.07997095 0.024085253 0.009797548 0.007676769 -0.04094928 0.05108731 0.08224593 0.024212753
-0.020622136 -0.0024076547 -0.0443519 -0.00249855 0.051983643 -0.018172128 0.06697376 -0.012423214
0.061422586 0.049014114 0.022346899 -0.0012409932 0.08214764 0.038109995 -0.09159015 0.016602643
0.004269088 0.0012555443 0.002727814 -0.042050835 -0.040863577 0.071865976 0.027125493 -0.10138051

module.features.5.weight f4 [64]
00000000: 0767 7f3f 5958 823f 2742 803f 5d10 823f
00000010: b361 803f 9649 7c3f 409a 7d3f 4a46 803f
00000020: aca1 783f 0e5f 743f 261d 823f 4aa1 763f
00000030: 3293 723f ea8c 823f 4943 7d3f 3bd5 793f
00000040: e945 803f b075 833f 080e 803f b342 7e3f
00000050: aef7 7d3f 3e5c 833f d253 773f 61c5 7d3f
00000060: c285 843f 6b07 803f c5d0 7b3f a5d3 803f
00000070: 2cfb 7e3f 775f 793f b37b 7f3f ef3b 833f
00000080: cf73 773f d250 833f aa70 6e3f c39a 7f3f
00000090: 72fe 6e3f 3364 813f 7879 7e3f ebb9 833f
000000a0: eafc 813f 7d53 823f 9ddf 843f 6f6f 793f
000000b0: 19e7 873f c396 843f 06bd 7a3f 6989 823f
000000c0: 5c80 833f 2e14 7f3f fe40 7c3f eeb2 773f
000000d0: 7593 733f e850 7f3f bb57 7b3f 2166 7d3f
000000e0: 155a 793f c8da 6f3f 76b0 833f a54a 803f
000000f0: 14df 6a3f f1cd 7c3f d77b 7c3f 9954 853f
0.9976658 1.0183212 1.0020188 1.0161244 1.0029815 0.98549783 0.9906349 1.002145
0.9712169 0.9545754 1.0165145 0.9633986 0.9475585 1.0199254 0.98930794 0.9759099
1.0021335 1.027029 1.0004282 0.99320525 0.99206054 1.0262525 0.96612275 0.991293
1.035332 1.0002264 0.9836543 1.0064589 0.9960201 0.9741129 0.99798125 1.0252665
0.96661085 1.0259039 0.9314066 0.9984552 0.93357 1.0108703 0.99404097 1.0291113
1.0155308 1.0181729 1.0380741 0.9743566 1.06174 1.0358509 0.97944677 1.0198184
1.0273547 0.99640167 0.9853667 0.967574 0.95146877 0.9973283 0.9818074 0.9898396
0.9740308 0.9369321 1.0288227 1.002278 0.9174664 0.9875174 0.98626465 1.0416442

module.features.5.bias f4 [64]
00000000: fec8 9d3d 65e1 7cbd cffe 29bc 156d b7bd
00000010: 5dc0 7ebd 8b9c 12bd 9f2d 91bb 29b0 133d
00000020: 41cf f3bd 6983 26bd 4a7c 81bd 38d5 e2bc
00000030: 146f d1bd de29 34bd a35e c4bd 9db9 5e3c
00000040: 5ced efbc cd58 da3c 9e65 dbbb a88f 97bd
00000050: 4e52 28bc f3af 8ebd 2f58 99bd eae4 8abd
00000060: 4e49 27bc 8ebc 5cbd 0569 05bd a3cf 03bd
00000070: b7e3 b9bc 23cd 40bc 664d 1bbd b379 b6bd
00000080: d14c 803c db98 9dbd 19ed 02bd e69d 96bd
00000090: 0f8c a1bd b547 87bc 67c6 943a 829e 563c
000000a0: 35ad 223b 7b77 fbbc 1d99 4dbd defb 03be
000000b0: 21b8 e0bc 21ff 853b aeda 95bc 8044 c5bb
000000c0: 8416 ff3b 9caf 833c 4eaf 83bd 9227 8abd
000000d0: 9dec 1abd 5e7c 21bd fa0c e2bc 15f5 063d
000000e0: b7c0 62bd 5635 85bd dc72 0cbd 62b6 c2bc
000000f0: f95a aabc d7c7 7ebd 1640 5fbd 9026 95bc
0.07704352 -0.06173839 -0.0103756925 -0.089563526 -0.06219517 -0.035793822 -0.0044304873 0.03605667
-0.11904765 -0.040652666 -0.063225344 -0.027689561 -0.102262646 -0.04398524 -0.09588363 0.013594058
-0.029287986 0.026653672 -0.0066954633 -0.07400447 -0.010273529 -0.069671534 -0.07487523 -0.06781943
-0.010210348 -0.053890757 -0.032570858 -0.03218044 -0.02269159 -0.011767658 -0.03791561 -0.08909931
0.015661629 -0.076951705 -0.031964395 -0.073543355 -0.07888042 -0.016513685 0.0011350632 0.013099315
0.0024822478 -0.030696621 -0.05019485 -0.12889048 -0.02743155 0.0040892516 -0.018292751 -0.0060201287
0.0077846665 0.016074948 -0.06429921 -0.06745829 -0.03782331 -0.039425246 -0.027594078 0.032948572
-0.05535957 -0.06504314 -0.034289226 -0.023768608 -0.020795332 -0.0622023 -0.054504476 -0.018206865

module.features.5.running_mean f4 [64]
00000000: 3dc0 e6bd 4a02 20be da3b 00bf 0fa0 d0be
00000010: 9828 7bbe aa00 893e 24e9 d93e db0b 4dbf
00000020: 8e7f 8c3e 7833 403f 7a4d ccbc c1e4 46bf
00000030: b813 583e f44d e3be c186 f7be f054 26bf
00000040: f6f9 92be e09b 5bbf ded9 e9be 7234 98bf
00000050: 5687 09bf 191a 6bbd 70b2 48bf 1b21 033e
00000060: 99be 97be 62d3 84be c779 a03b 2c66 d8be
00000070: dfc3 4cbf ea3f 633e 2c7e 213f a550 6dbe
00000080: 057f 093c 5d72 06bf a27b 18bd 20af 883f
00000090: 643b fe3e 3fc6 783d 13ad d2bd ff95 dfbe
000000a0: c3aa 08bf 60ea 9dbe f0aa b1be d4ab 0f3f
000000b0: aaf2 86be 2d2e 67bf 9895 6abe e09f 2b3e
000000c0: e340 debe 6e9d a93e bcfe a2be 754c a0bd
000000d0: b30a 043d a5c3 1cbe ea4a 8bbe b4de 48bf
000000e0: 92ae 9abd 5e94 8c3d 70c5 89bf d300 b73e
000000f0: 4c07 febd abd9 8cbe 834e 1bbe b2b9 a0bd
-0.11267135 -0.15625873 -0.50091326 -0.40747115 -0.24527204 0.2675832 0.42560685 -0.80096215
0.27441067 0.75078535 -0.024939287 -0.776928 0.21101272 -0.4439541 -0.48344997 -0.64973354
-0.2870633 -0.8578472 -0.45674032 -1.1891005 -0.5372213 -0.057397936 -0.78397274 0.12805597
-0.29637602 -0.25942522 0.0048973295 -0.4226545 -0.79986376 0.2219235 0.6308315 -0.23175295
0.0083921 -0.52518255 -0.03722728 1.0678444 0.49654686 0.060735937 -0.102869175 -0.43669125
-0.5338556 -0.30842876 -0.34700727 0.56121564 -0.26357013 -0.90304834 -0.22908628 0.16760206
-0.4340888 0.33127922 -0.31834972 -0.07827083 0.032236766 -0.15309007 -0.27205592 -0.7846482
-0.07552828 0.06864236 -1.0763378 0.35742816 -0.124037355 -0.27509817 -0.15166669 -0.078479186

module.features.5.running_var f4 [64]
00000000: d408 d23d 7e84 223e 1442 963e d768 1d3e
00000010: 8589 133e ba4f ab3e 5bdf c73e fbb2 a33e
00000020: 5333 893e 4b00 793e bbf7 093e 5217 a23e
00000030: e605 223e b1c5 603e 80e9 223e a266 7e3e
00000040: 37dc 163e 3167 a03e 5bb9 623e fe28 9f3e
00000050: 7e3a 943e 1bc9 7a3e e615 403e b557 d53e
00000060: 9254 313e a62e 2b3e 90e2 073e e3b1 1a3e
00000070: 2f78 a73e 7196 883e a565 7f3e 788a 003e
00000080: 6eb9 f43d ec65 213e ed6b 1c3f a346 9c3e
00000090: 2215 353e 48e2 423e bd38 2f3e 032c 353e
000000a0: 4566 553e c220 be3e f782 f63d a96b 293e
000000b0: db21 3a3e 08d6 973e 696f 343e 9ebb 4d3e
000000c0: 34c6 403e c922 3b3e d28a 663e 458d f43d
000000d0: 5fcb 333e 0c9a 273e 1fd1 4d3e 0770 043f
000000e0: 358a 6f3e 14d5 c73e 1d88 c43e 9c60 003e
000000f0: 3a03 fb3d 66a3 e63d 1936 173e ce8d d53d
0.1025559 0.15870854 0.2934729 0.15372024 0.14407928 0.33459264 0.39037594 0.3197249
0.2679697 0.24316518 0.13473408 0.31658417 0.15822563 0.21950413 0.15909386 0.24843839
0.14732443 0.3132873 0.2214102 0.31085962 0.28950876 0.24490778 0.18758354 0.41668478
0.17317417 0.16717014 0.1327002 0.15106921 0.3270888 0.26677278 0.24941118 0.12552822
0.119494304 0.15761536 0.6110218 0.30522642 0.17683843 0.19031632 0.17111488 0.1769257
0.20839794 0.37134367 0.12036698 0.16544975 0.18176977 0.2965548 0.17620625 0.20091102
0.18825608 0.18274988 0.22513893 0.119410075 0.17558049 0.16367358 0.20099305 0.5173344
0.23392566 0.39029753 0.38385096 0.12536854 0.12256475 0.112616345 0.1476673 0.10427438

module.features.8.weight f4 [128, 64, 3]
00000000: be93 bbbc 4c91 0fbb ea46 2fbc 0782 cdbd
00000010: 06c0 bebd 0ec8 51bd 0b72 473c c445 3c3d
00000020: 7238 09bd 344e e1bc c153 5a3d 1b3c 823c
00000030: 63c0 a0bd d261 60bd db84 a8bd fcb2 063d
00000040: 94c4 b7bb 3cd9 663c da34 3fbd 6524 6cbd
00000050: 2996 07bb 4346 493d 60c1 83bc c73d 553d
00000060: 68e9 2bbd 9057 0a3d 331c f13c 1804 0fbd
00000070: 6da9 533d d22d b23b e99b 80bd e8c1 b9bd
00000080: 3719 a2bd b930 613d b919 563d dbd9 c0bc
00000090: c36a debb 3893 aebd 43e5 a5bd a4ad d3bd
000000a0: 5b05 113d 2ef6 8abd ef8f 383b bedf 3bbc
000000b0: a3d8 103c c35a 12bd ce3e 6d3d c141 ab3c
000000c0: 2ce4 27bd b51a 4ebd fec1 82bc 1b39 b63b
000000d0: d906 b53d a258 943d 7ae4 f73b d619 60bd
000000e0: cf64 6cbd 14c2 dd3c b862 30bc 2aaa 2ebc
000000f0: 7732 203d 382f 1a3d 8172 6abd f0b0 2cbd
00000100: 8885 26bd c33e 8bbc 5957 6cbd 2c36 6b3d
00000110: a427 64bd c76d 18bd 9d15 80bd f6be 1a3d
00000120: 7541 7fbd b25b 3b3b f8d5 6bbd ba9f 05bd
00000130: 2e12 abbd 4d5c 9cbd 294a afbd d453 31bd
00000140: dd23 663b 4b41 a73c 17f3 5d3d 8223 733c
00000150: bedb 33bd 5698 c6bc 9418 f2bc 1800 f6bc
00000160: 70ba e93c 477b 5e3d a804 11bb 6aa7 453c
00000170: f2fe 37bc a757 303b a50b 6bbd d72f f8bc
00000180: e154 7bbd 490b cb3c f54c aebb 36b4 863d
00000190: dff3 7c3d 71f7 47bd 4f17 893d 5657 383d
000001a0: e058 c3bb ee97 2c3d 4e5c 5dbb e934 d93c
000001b0: b59f 76bd b7a4 04bc 778a c2ba 7c88 7b3c
000001c0: 0031 3fbd 6f84 4f3c 2a1f a4bb b43d b5bd
000001d0: 9163 8abd 3e69 093d 77ef 9dbd 859f 84bb
000001e0: d33f 5cbd 1a38 a93c a282 7dbd 9496 e839
000001f0: 8895 72bc 30e5 5dbd 456b 5b3d 455e fdbc
00000200: ef93 903d 6d4b e2bc f9f8 bebb 5b86 13bc
00000210: d504 2a3d 119d 28bc 4f2f 083b 4afd c5bc
00000220: 7a12 d73d baf0 83bc ae4e 0a3d ae7f 98bd
00000230: 07e4 a33c a7c3 ce3c 902f 43bb 592f e1bd
00000240: 9e41 5d3d db94 4bbb 033d bf3a 71c6 8cbd
00000250: 4739 c4bc 8fa1 69bd 2f80 15bd 48a3 33bc
00000260: 9bdb 44bd 440c 183d 1331 aa3d d099 81bc
00000270: 0295 eb3c d040 ba3c e64e 153d 1977 433c
00000280: 2ba7 143c 8d2b 6bbb 40cf 1c3d 3f7f 7fbc
00000290: 6704 55bc a55e c53c 7cd1 903d 40bc af3c
000002a0: eda5 293c 2640 86bd 7d4c adbd 81de 33bd
000002b0: 1d3e 27bd 7e12 8fbd b63e 8e3d 3948 00bd
000002c0: 32fc 753d 58d7 d03c 8861 a73d 3c88 0abd
000002d0: cafd 96bc 6b23 85bd fd9d a53c 28e1 373d
000002e0: 7db9 84bd eb46 6d3c 8dea 223d d3d7 a33d
000002f0: 85eb 033d 4950 e1bc 38f5 5abd 6cbb b0bb
00000300: cbf2 b3bd 47a7 bd3c 3206 02bd e213 733d
00000310: 0823 1a3d 4697 bebb cd6b 153d 7c06 393d
00000320: d3e8 83bd f4c0 c8bc 8730 513d d283 81bd
00000330: d029 de3d 68ff 163c 8151 9e39 17df 85bd
00000340: 934b 26bd 924a 39bd 14ee 10bb 1599 52bd
00000350: e749 283d 60fa d23c a078 3e3c 556e 70bd
00000360: 7c16 9abd c410 33bd 4652 1ebc 03af 843c
00000370: 158b 45bd 2969 8fbc c15d ad3d 542f aebc
00000380: 72f7 023d 5ec3 823c 71ae 6dbc c173 60bd
00000390: 1048 023d c22c eb3c 3132 833d c57a 95bc
000003a0: 9b52 873d 32f3 d63c 4b9a a6bd d9d8 97bd
000003b0: 0bc7 a3bd 333a bebc 7cb9 f8bc d303 883d
000003c0: d276 d8bc c8cb e2bc e489 a8bc 3bd3 333d
000003d0: 2853 a53c 35ad 3fbd e9eb ddbb 2c15 7bbc
000003e0: 82dd 7bbb e061 74bb e064 4ebd ee47 143b
000003f0: b3b7 bf3d 337a 8b3d b1b1 0abd 4b6d df3c
-0.022897597 -0.0021906672 -0.01069806 -0.100345664 -0.09313969 -0.051216178 0.012173186 0.04596497
-0.033501096 -0.02750311 0.05330253 0.015897801 -0.07849195 -0.05478079 -0.08228465 0.032885537
-0.0056081507 0.014089879 -0.046681263 -0.057651896 -0.0020688868 0.049139272 -0.01608342 0.05206087
-0.04197064 0.033774912 0.029432392 -0.034916013 0.05167525 0.005437591 -0.062797375 -0.09070188
-0.079149656 0.054978106 0.052270625 -0.023541382 -0.0067876293 -0.085241735 -0.08100369 -0.10335854
0.035405498 -0.06785236 0.0028161963 -0.0114669185 0.008840713 -0.03573109 0.057921223 0.020905377
-0.040989086 -0.05031844 -0.015961643 0.0055610067 0.08839197 0.07243468 0.0075650783 -0.05471214
-0.057713326 0.027070083 -0.010765724 -0.010660687 0.039110627 0.037642688 -0.057238106 -0.04216093
-0.04065469 -0.0169977 -0.05770049 0.05742471 -0.055701867 -0.037214067 -0.062541224 0.03777977
-0.062318284 0.002858859 -0.057577103 -0.03262303 -0.08353077 -0.076347925 -0.08559067 -0.043292835
0.003511659 0.020416876 0.054186907 0.014840009 -0.043910734 -0.024242561 -0.029552735 -0.030029342
0.028531283 0.054316785 -0.002212802 0.01206384 -0.011230217 0.0026907714 -0.057384152 -0.03029625
-0.061360244 0.024785655 -0.0053192326 0.06577341 0.06175601 -0.048819963 0.06693899 0.045005165
-0.0059615225 0.04213708 -0.0033776942 0.026514487 -0.060210902 -0.008095912 -0.0014842291 0.015352365
-0.04667759 0.012665852 -0.005008598 -0.088496596 -0.06757272 0.033547632 -0.0771169 -0.0040473365
-0.053771805 0.020656634 -0.06189216 0.00044362678 -0.014806159 -0.05417365 0.053569097 -0.03092874
0.07059466 -0.027623856 -0.0058280197 -0.009004201 0.041508514 -0.010291354 0.0020780151 -0.02416863
0.10501571 -0.016105998 0.03376644 -0.07446228 0.020006193 0.025239779 -0.0029782988 -0.10995359
0.054017656 -0.0031064067 0.0014590326 -0.06873787 -0.023953093 -0.05703884 -0.0364992 -0.010964222
-0.048060995 0.037121072 0.083101414 -0.015820414 0.028757576 0.022735983 0.036452197 0.011930251
0.009073059 -0.0035884113 0.038283587 -0.015594303 -0.013001538 0.024092982 0.07071206 0.02145207
0.010354501 -0.06555204 -0.084618546 -0.043913368 -0.04083072 -0.06985949 0.06945555 -0.031318877
0.060054965 0.025493309 0.081728995 -0.03382133 -0.018431563 -0.06500896 0.020216936 0.04489246
-0.064806916 0.01448224 0.039774466 0.080001496 0.03220703 -0.027504103 -0.053456515 -0.005393436
-0.087865435 0.023151053 -0.03174419 0.059345134 0.037631065 -0.005816373 0.03647976 0.0451722
-0.06440892 -0.02450607 0.05107167 -0.06323971 0.10847819 0.009216167 0.00030196834 -0.06536692
-0.040599417 -0.04523713 -0.0022114562 -0.05141552 0.041086104 0.025754154 0.011625439 -0.05869897
-0.0752382 -0.04371716 -0.00966317 0.016196733 -0.048228342 -0.017506199 0.08465148 -0.021262802
0.031974263 0.015962299 -0.014506922 -0.05479789 0.031807005 0.028707866 0.064060576 -0.018247018
0.066075526 0.026239011 -0.08134898 -0.07414407 -0.07996949 -0.02322111 -0.030361883 0.066413544
-0.026423845 -0.027685061 -0.020573564 0.043902617 0.020181254 -0.046796042 -0.0067725074 -0.015324872
-0.003843159 -0.0037289783 -0.05038917 0.0022625881 0.0936121 0.06810417 -0.033860866 0.027273795

module.features.8.bias f4 [128]
00000000: 6ce6 15bc 3abc 68bd ff97 21bd 026a 82bd
00000010: f9a1 5a3d 758f a93c 57eb e8bc ab3e 63bb
00000020: ce88 763d d7a5 793d 51ca c0bb 4adc 9dba
00000030: dc49 8d3d 3b98 31bd 4569 45bd b9bf 0e3d
00000040: 8eae aabc 1421 5c3d afab dbbb ecec 8abd
00000050: 450b f53c bb53 853d b695 4ebd 4c76 063d
00000060: 512e 38bd 538f 4dbc 4147 873d da65 0d3d
00000070: 754a edbc 64b8 2ebd 2117 4b3d ca90 1cbd
00000080: f51e 823d cc95 113c 7664 8ebd 313f 5d3d
00000090: c0e4 69bd bc39 193d 74f7 3e3d 3b69 4b3d
000000a0: 6730 223d 5412 59bd 7d31 133d 29a2 7dbd
000000b0: 7df6 8a3d ff72 12bd 5c8f 893d f6fd a13c
000000c0: 2f29 9fbb 97f0 8c3c 120c 853c c447 9f3c
000000d0: c58f 1bbd a8e1 6bbd 1e06 fb3c b793 1abd
000000e0: d792 c9bb de9f fb3a b108 4d3d 6e41 593d
000000f0: 711a 28bd 1fd0 33bd bfb4 bfbc b182 b5bc
00000100: ede9 c83c 5d61 843d dd45 3bbc 409b f8bc
00000110: e4fc 01bc bb76 efbc fa9e 6fbd f8db 0abd
00000120: 9d0c 06bb 6e89 79bd dd7c d73a 3ecf 913d
00000130: 60db 87bd 6194 8bbd 1b1e dcbc 187c 0d3d
00000140: 1ca9 bdbc 6f9f 4bbd 5546 46bd 1d44 08bd
00000150: 6894 703c 6dac c43c 6c18 57bd f897 8e3d
00000160: 2af3 193c ce67 093d e7ea 66bc 23a8 61bd
00000170: c2b4 12bd bb49 96bc 4e55 bcbc 69d0 4dbd
00000180: 47a0 33bd c9b8 7bbd c1b0 7fbd d53a 7fbd
00000190: 74c1 3e3b 2788 413d d956 1cbc cb66 44bd
000001a0: 5d4f 273d f4e0 37bd da32 7c39 5009 243d
000001b0: 846b 593d 0e84 a43c 641a 4e3b 7856 01bd
000001c0: defd 3abd cabc 7a3d c437 53bd 3dc3 92bd
000001d0: c271 5e3d 9677 483d 6698 a23c abe5 28bd
000001e0: d897 6b3d 3523 dcbc b40c 35bd 0b45 553d
000001f0: b609 813d 1119 143d 9fd5 233c 2278 633d
-0.009149175 -0.05682013 -0.039451595 -0.06367876 0.053377125 0.020698288 -0.028432531 -0.0034674804
0.06018906 0.060949173 -0.005883493 -0.0012043801 0.06898853 -0.04335807 -0.048196096 0.03485081
-0.020835187 0.053742483 -0.006703816 -0.067834705 0.0299126 0.06510111 -0.050435744 0.03282766
-0.044966046 -0.012546378 0.066053875 0.03452096 -0.028966168 -0.042656317 0.049582604 -0.03822402
0.06353561 0.008885812 -0.06952755 0.054015342 -0.05710292 0.037408575 0.04662271 0.049660902
0.03959694 -0.052995995 0.035935868 -0.061922226 0.06785295 -0.0357542 0.06716797 0.019774418
-0.0048572044 0.017204566 0.016241107 0.0194434 -0.037978906 -0.05758825 0.030642565 -0.037738528
-0.006151538 0.0019197424 0.050057117 0.053040914 -0.04104084 -0.04389965 -0.023401616 -0.022157045
0.024525607 0.06463883 -0.011430231 -0.030347466 -0.007933829 -0.02923142 -0.05850122 -0.033901185
-0.0020454295 -0.06092208 0.001644041 0.071196064 -0.06633639 -0.068154104 -0.026869824 0.034542173
-0.023151927 -0.049712595 -0.048406918 -0.033268083 0.01468382 0.024008 -0.052513525 0.069625795
0.009396354 0.03354626 -0.014094091 -0.05509199 -0.035816915 -0.018345704 -0.022989895 -0.050247584
-0.043854024 -0.06145552 -0.062424425 -0.062311966 0.0029107006 0.047248986 -0.0095421905 -0.047949594
0.04084717 -0.044892266 0.00024051536 0.040047944 0.05308105 0.0200825 0.0031448836 -0.031576604
-0.045652263 0.0612152 -0.051566854 -0.07166145 0.054307707 0.04894217 0.01984806 -0.041234653
0.057517856 -0.026872257 -0.044201568 0.052067798 0.0630068 0.036156718 0.009999662 0.05553449

module.features.9.weight f4 [128]
00000000: dd92 8b3f 735e 803f f380 833f 625a 8c3f
00000010: 3dcc 883f 4cc6 8b3f 80e0 883f 4b81 8c3f
00000020: 0e5e 893f 12ac 8c3f a8c4 873f b453 883f
00000030: 2a25 883f 6e7b 8a3f fa13 823f 6ae6 8d3f
00000040: 8d61 873f bc1a 893f a6bb 873f f8dd 8f3f
00000050: 91de 893f e044 8c3f fbff 873f 1bd3 8a3f
00000060: 37dc 903f abdd 853f 43ca 893f 37f7 8c3f
00000070: eff1 8c3f d05d 8b3f 18a9 883f 30bc 873f
00000080: 8170 8a3f 49b5 8d3f 313e 863f 1ab8 8c3f
00000090: 55c4 863f 892b 8a3f 7e6a 8c3f 117b 8f3f
000000a0: 0fd9 8b3f a4f1 883f 4d9f 8a3f 1df1 883f
000000b0: e679 8a3f 8ef2 873f aa07 8b3f c0d7 8e3f
000000c0: 3079 893f 0081 863f fa30 873f 9714 923f
000000d0: 323b 8c3f d3a1 873f d7fd 833f c6f4 893f
000000e0: 6d54 8c3f 391b 8a3f 466a 863f f666 893f
000000f0: 4f4d 893f d763 813f 3e39 8f3f 716c 853f
00000100: cd6a 923f 0f68 893f cdb3 863f 0c3a 8b3f
00000110: 4bd9 863f 1e3d 863f 777c 8f3f 9515 8a3f
00000120: f6b9 883f 0303 933f 1abe 843f 7acf 853f
00000130: 16fc 893f e916 893f c358 883f f679 8b3f
00000140: 4051 883f 6db9 8a3f 33e9 833f ea36 8f3f
00000150: c9b0 8a3f 812b 8a3f 1109 8d3f 00fb 863f
00000160: 87c1 863f 1a24 853f e533 883f d314 8a3f
00000170: a65e 8b3f 1dde 883f a743 873f 69b8 893f
00000180: 7423 913f 6c3e 913f 564e 903f 9df4 893f
00000190: ef7b 843f e2e3 8b3f bb60 873f f91a 893f
000001a0: ede9 8b3f 52d9 833f d2ce 823f 9e22 8b3f
000001b0: 378e 893f 1877 8a3f 6236 8a3f 8d09 813f
000001c0: 2f2d 893f 08a6 893f 9620 883f 84e2 883f
000001d0: be2a 893f 51cb 893f 7bee 893f 1649 883f
000001e0: 72b3 8b3f de27 8a3f d723 8b3f a776 8d3f
000001f0: 7de3 893f f2d7 893f 7722 8c3f ab46 8a3f
1.0904194 1.0028824 1.0273727 1.0965083 1.0687329 1.091989 1.0693512 1.0976957
1.0731828 1.0990012 1.060689 1.0650544 1.0636342 1.0818918 1.0162346 1.1085942
1.0576645 1.0711284 1.0604141 1.1239614 1.0771047 1.0958519 1.0624994 1.0845674
1.1317204 1.0458273 1.076485 1.1012944 1.1011332 1.0888004 1.0676603 1.0604305
1.0815583 1.1070949 1.0487729 1.0993683 1.0528666 1.0794536 1.0969999 1.1209432
1.0925616 1.0698743 1.0829865 1.0698582 1.081845 1.0620897 1.0861714 1.1159592
1.0740108 1.0508118 1.0561821 1.1412534 1.0955565 1.059626 1.0311841 1.0777824
1.0963265 1.0789558 1.0501182 1.0734546 1.0726718 1.0108594 1.1189344 1.0423719
1.1438843 1.0734881 1.0523621 1.087709 1.0535063 1.0487401 1.1209859 1.0787836
1.0681751 1.1485294 1.0370514 1.0453942 1.0780056 1.0710117 1.0652088 1.0896595
1.0649796 1.0837837 1.0305542 1.1188633 1.08352 1.0794526 1.1018392 1.0545349
1.052781 1.0401642 1.0640837 1.0787605 1.088826 1.0692784 1.0567521 1.0759403
1.1338944 1.1347175 1.1273906 1.0777775 1.0350322 1.0928919 1.0576395 1.0711356
1.0930763 1.0300696 1.0219367 1.0869939 1.0746526 1.0817595 1.0797846 1.008104
1.0716914 1.0753794 1.0634944 1.0694127 1.0716169 1.0765172 1.0775903 1.0647304
1.0914137 1.0793417 1.0870312 1.1051835 1.0772549 1.0769026 1.0948018 1.0802816

module.features.9.bias f4 [128]
00000000: eecf 5e3d a3f7 0dbc f6a9 aebb e44d 6e3d
00000010: e759 303d 8e19 7a3d e4fe f73b 2706 713d
00000020: f8a7 453d 9852 913d 3210 9ebb 1880 a83a
00000030: a7a4 173c 6315 8a3d fa68 0bbc 27cc 9a3d
00000040: e97a 023c a537 4a3d b0df 703a 6d9e 903d
00000050: 1435 3b3d 5c01 5d3d aebc 043d df5d 4d3d
00000060: 33b1 8f3d 84cd 85b8 509d 2b3d 2d76 843d
00000070: 01a3 6c3d 04da 543d 5777 373d b5d5 213b
00000080: 58da 653d 39bf 953d 73b1 863a 14d6 823d
00000090: 2901 afb9 3715 4e3d 8722 8e3d 1c0f 933d
000000a0: 688c 743d d3cb 353d 6d41 463d 1e26 c63c
000000b0: 4f85 693d 9d17 b53b bd08 693d a679 8c3d
000000c0: ccd5 c13c 1cb6 6dbb 796d 0a3d 9dc0 a23d
000000d0: c0d9 be3c f55d e439 7f16 d93b 133a 4d3d
000000e0: ee5e 4d3d 4ecb 493d 6c15 643b 8fd7 1a3d
000000f0: a0e8 113d 6b27 6abc fae4 693d 64e3 953c
00000100: 235c d63d 31de 943c 7bbf d83c 59ea 703d
00000110: e2cc 8abb 703e 9e3b 5589 933d 72fb 413d
00000120: dd48 2a3d b908 c53d 3ac0 8ebb b5d6 053c
00000130: 77b9 193d dd84 863c 0a4d 173d 5c1e 2d3d
00000140: b2cf 453d e393 493d 918d 263b 8693 a03d
00000150: 3bc4 bb3c 4bb1 393d d172 6f3d 1b9e 91bb
00000160: f5d5 333c 0614 d03a 64db 133c 3cdb 633d
00000170: 0e7b 593d 3ebf 443d 7dbf 233d 6ef2 723d
00000180: b3ae 9e3d 87ec 8c3d 7b08 a83d e6f4 433d
00000190: 1fad 643c 6163 533c 1538 8d3c 9dec 183d
000001a0: bff9 843d 318e b0bb d605 f53a 378b 893d
000001b0: d589 1d3d 4efa 563d 8273 a23c 1b15 04bd
000001c0: 1626 1c3d 11ef 173c 48a4 cc3b 574b 3b3d
000001d0: dbeb 443d 854b 373d 4255 443c bd06 7e3c
000001e0: 8874 953d f482 183d f53c 4d3d 7e6d 163d
000001f0: 43d5 483d e7b0 3a3d 3488 cf3c a7e3 1f3d
0.054397516 -0.008664998 -0.0053303195 0.05817975 0.043054488 0.061059527 0.007568227 0.058843758
0.04825589 0.07095832 -0.004823708 0.0012855558 0.009255565 0.067423604 -0.008508915 0.0755847
0.007963874 0.049369473 0.00091886055 0.07061467 0.045704916 0.053956375 0.0324065 0.05013835
0.0701622 -6.3802145e-05 0.04189807 0.06467853 0.05777264 0.05196573 0.044791546 0.002469403
0.056116432 0.073118635 0.0010276273 0.063884884 -0.00033379465 0.0503132 0.06940179 0.07180616
0.059704214 0.044383835 0.04840224 0.024188098 0.0570119 0.0055264966 0.0568931 0.0685914
0.023661517 -0.0036271876 0.033795808 0.07946894 0.02329719 0.00043557552 0.006624996 0.050104212
0.05013936 0.049266152 0.0034802807 0.03780323 0.03562224 -0.014291625 0.057103135 0.018296905
0.104667924 0.018172355 0.026458493 0.05881724 -0.0042358497 0.0048292205 0.072039284 0.047358938
0.041573394 0.09620804 -0.0043564113 0.008168866 0.03753039 0.016420776 0.036938705 0.04226528
0.048293777 0.0492133 0.002541397 0.07840638 0.022920718 0.045335095 0.058459107 -0.0044438965
0.010976304 0.0015875108 0.009024475 0.055629 0.05309587 0.048033945 0.03997754 0.05931323
0.07748165 0.068810515 0.082047425 0.047840975 0.013957291 0.012902112 0.017238656 0.037335027
0.06492948 -0.0053880443 0.0018693756 0.06716006 0.038461525 0.052484803 0.019830469 -0.03224669
0.03812226 0.0092733065 0.00624517 0.045726147 0.04807649 0.044749755 0.011983218 0.015504536
0.07297617 0.03723426 0.05010696 0.036725514 0.049031507 0.045578863 0.025333501 0.039035466

module.features.9.running_mean f4 [128]
00000000: 6528 57bf de1d 05bf 18dd 3c3e 6d32 98bf
00000010: f267 6bbf 5268 67bf 27cb 863e 515a 86be
00000020: eab7 0dbf 15f8 56bf 3d44 bc3d 60aa d93e
00000030: 98c9 1f3e 5b9c dbbe a99f 533e 178c 923e
00000040: 6f6a 923d b4bd 24bf 164e 1b3d ec23 13bf
00000050: 5488 07bf c63c 6dbe 5353 dd3e 94e3 f7be
00000060: 366c 13bf 42a1 b23e 1209 f9be 08e9 12bf
00000070: 0375 cfbe d5fd 0fbf e0e3 31bf fb96 7f3e
00000080: a0e4 0fbf 37cd a0be abaa 753e 780c 5d3e
00000090: 8ce5 cb3e 0fa0 b8be d0aa 05bf 6936 e23d
000000a0: d224 d5bc 74d5 37bf e52d e9be b655 7d3a
000000b0: a75d 5dbf 3ff3 563e 2f7c 50bf 8191 3ebf
000000c0: 8064 b33e 7396 aa3e a2ab c8be e656 ddbe
000000d0: ebe9 3f3e 77d2 1abd 1437 603e 9cce 28bf
000000e0: b34f 9abe 39b0 ddbe 9ec3 af3e e7fd 303e
000000f0: 6c61 0ebd 9ee7 ce3e 94f9 cebe 0e7b 62bf
00000100: 541b 5dbf 32ae 9b3e 6608 71be 4663 39bf
00000110: 4a2f ab3e a530 933e 9c22 babe 8830 49bf
00000120: b313 123f d19e 8ebf 24cc a33e c6ec ec3d
00000130: bb4d cfbd 5c92 ca3d 546e 5dbf 6921 03bf
00000140: 0b44 59bd 7e8a d6be b7dd ac3e 1ac6 0fbf
00000150: fafb 943e 99a0 4abf 72cf 80be 6363 3f3e
00000160: fdcd 433e c57e b63e 4bac 2e3e c68e 6dbf
00000170: 75f9 33bf aaa0 533e 5dad abbf f8bd 7abe
00000180: 8207 9cbe f9ea 63bf 198a 21bf 6c5e cdbe
00000190: d7fd 41be 69e1 173e 044c d83d 8378 2b3e
000001a0: a782 3ebf 7e62 0f3f 1c9f 39be 5a5b 32bf
000001b0: e70f 15bf aad8 29bf 585a e83e ffe1 e83e
000001c0: b4c1 4cbf 1492 9e3e 36bd 4a3e 94d0 9fbf
000001d0: e438 0c3e 2531 ffbe d987 623e 806a 803e
000001e0: 928d a0be f4cf 31bf 439f d6be 77d8 8a3e
000001f0: cc8d 28bf 7070 e2be ac37 713e d334 a63a
-0.8404601 -0.519987 0.18443716 -1.1890389 -0.9195548 -0.90393555 0.26326868 -0.2624078
-0.55358756 -0.83972293 0.09192703 0.42512798 0.15604246 -0.42892727 0.20666374 0.28622505
0.07149207 -0.64351964 0.037916265 -0.5747669 -0.52942395 -0.23167714 0.43227634 -0.48415816
-0.5758699 0.34888655 -0.48639733 -0.5738683 -0.4051896 -0.5624669 -0.69488335 0.24959938
-0.5620823 -0.31406567 0.23990886 0.21586788 0.39823568 -0.36059615 -0.52213764 0.11045534
-0.026018534 -0.7181008 -0.45542827 0.0009663956 -0.8647103 0.20991229 -0.8143949 -0.7444077
0.35037613 0.3331791 -0.39193445 -0.4323036 0.18741576 -0.03779837 0.2189601 -0.6594026
-0.3013893 -0.4329851 0.34328932 0.17284356 -0.034760877 0.40411085 -0.40424788 -0.88469017
-0.86369824 0.30406338 -0.2353836 -0.72417104 0.33434516 0.2874805 -0.3635453 -0.7858968
0.5706131 -1.1142217 0.31991684 0.115685984 -0.10122248 0.09891197 -0.8649647 -0.51222855
-0.053043406 -0.41902536 0.33762905 -0.56161654 0.29098493 -0.791513 -0.25158268 0.18690257
0.19121547 0.35643592 0.17057912 -0.9279598 -0.70302516 0.20666757 -1.3412281 -0.2448653
-0.30474478 -0.89030415 -0.63101345 -0.401111 -0.18944488 0.14832081 0.10561374 0.1674519
-0.7441811 0.5600966 -0.18127102 -0.6967064 -0.5822739 -0.6634623 0.45381427 0.4548492
-0.7998307 0.30970824 0.1979874 -1.2485528 0.13693577 -0.49842182 0.22122134 0.25081253
-0.3135801 -0.69457936 -0.41918382 0.27118275 -0.65841365 -0.44226408 0.23556393 0.0012680538

module.features.9.running_var f4 [128]
00000000: 7072 253e e674 4b3e 05eb 043e 7f38 ed3d
00000010: 2010 4b3e 897b 183e 6cc8 023e 5fda e83d
00000020: 91c6 b03d a110 453e 9965 063e 9d05 e63d
00000030: a47a 023e db14 563e 5e60 173e 4bee 123e
00000040: be91 df3d 0d08 ea3d 2dc4 e23d f504 bb3d
00000050: b241 173e c7c0 503e 6614 4d3e 51f8 f23d
00000060: 3868 f73d 939d bf3d e6b4 d63d 1a0a 2c3e
00000070: 6c1b 1d3e b7a5 b13d 3320 c33d a37c e43d
00000080: 105e 303e 38ba f13d 74de f63d 3a61 163e
00000090: cdd7 e93d c69a 8a3d 4fc3 443e 55a9 023e
000000a0: b79c ee3d e7db 123e 08de 093e 8978 143e
000000b0: 13fe d13d 8efe 0e3e 05b3 1b3e 9743 243e
000000c0: 2ba4 003e 8ba1 233e ae6a b13e 8d76 2d3e
000000d0: 1a94 063e 0023 1f3e 6052 143e 8bef 0b3e
000000e0: dd8a 363e 9a0a 333e f5cb d73d 35bc 073e
000000f0: 80b2 623e 3efa 7f3d 708e 043e d63c 823e
00000100: 166d 323e 13e5 e13d f80c 263e 0093 de3d
00000110: 5ad0 b53d 6a77 013e 499b d23d e6b8 f53d
00000120: 1ff0 103e d3b3 663e 54fe f93d c467 493e
00000130: 7f84 f73d ca18 f23d 0505 c03d 6af2 413e
00000140: e89c 713e 9bcf a23e 9fbc 033e 3738 373e
00000150: 66aa cb3d 8f18 073e 2a95 023e 0b48 d43d
00000160: e71d 1b3e c5e9 dd3d 032b d33d 50fb ee3d
00000170: 8adf 0e3e 2862 523e 776b 963e 90d3 893e
00000180: 1fee 163e c06b 093e 3ace cc3d e4b0 7e3e
00000190: fb75 283e fe9c fc3d fb2c d13d 9434 053e
000001a0: c757 423e b547 3f3e b9ac c83e 2655 0b3e
000001b0: 0835 1b3e b2a3 ff3d 0d3b bc3d 214f db3d
000001c0: 3796 fb3d f6b8 fd3d 9d7f d63d 1212 203e
000001d0: 331b ec3d 2291 e33d 711f d93d 61a9 e73d
000001e0: bb23 243e e924 123e 4e13 153e 1af3 f93d
000001f0: b238 fd3d 9b2c f73d 281e c93d f54c e83d
0.16156936 0.19868812 0.12980278 0.115830414 0.1983037 0.14890875 0.12771767 0.11369776
0.086316235 0.19244625 0.13124694 0.112315394 0.12742096 0.20906393 0.14782855 0.14348714
0.1091647 0.11427317 0.11072574 0.09131805 0.14771155 0.20386039 0.20027313 0.11863769
0.12080425 0.09356227 0.104837224 0.16800728 0.15342492 0.08674186 0.09527626 0.11156585
0.17223382 0.118030965 0.12054148 0.14685526 0.11418114 0.06767802 0.1921513 0.12759908
0.11650985 0.14341699 0.13463604 0.14499106 0.10253539 0.13964292 0.1520501 0.16041408
0.12562625 0.15979593 0.34651703 0.16939755 0.13142434 0.15540695 0.14484549 0.13665597
0.1782641 0.17484513 0.105369486 0.13255389 0.22138405 0.06249451 0.1294496 0.2543704
0.17424425 0.110300206 0.16215885 0.10867882 0.088776305 0.12643209 0.102835245 0.11998157
0.14154099 0.22529535 0.12206712 0.1966849 0.120858185 0.118211344 0.093759574 0.1894013
0.23595011 0.31799015 0.12864922 0.17892538 0.0994461 0.13192962 0.12752214 0.103653036
0.15148126 0.108356036 0.10310938 0.11669028 0.13952461 0.20545256 0.29378864 0.26919222
0.14739273 0.1342001 0.10000272 0.24872166 0.16451256 0.123346314 0.102136575 0.13008338
0.18978797 0.18679698 0.39194277 0.136067 0.15156949 0.12482394 0.091909505 0.10708452
0.122845106 0.12388794 0.10473559 0.15631893 0.11528625 0.11111666 0.106017 0.11311603
0.16029255 0.14271893 0.14558145 0.12204571 0.123643294 0.12069055 0.09820205 0.113428034

module.classifier.weight f4 [1, 128]
00000000: fbab d8bd bce0 113d 6862 e03d 1274 d8bd
00000010: 3fc9 14be eb0d fdbd 9270 123e d59f 24be
00000020: 27cf 1cbe 523c c2bd 8be7 f43d 7f43 053e
00000030: bf4c a23d 53bc 78bd fc10 d23d 59aa 92bd
00000040: d06a e83d bf30 08be daef fd3d 804d c1bd
00000050: 0afe e4bd 6186 c4bd e121 0fbe 227c 14be
00000060: 75d8 b5bd ed38 053e 9cd9 1abe 8ef3 afbd
00000070: ff9a f3bd 031a e1bd be97 e1bd 2e99 ea3d
00000080: 3a18 07be b09b d8bd 047d d73d 4484 90bd
00000090: dcdb e63d 2a54 14be 1296 a9bd bbcc ccbd
000000a0: 66fd f2bd ebe0 f5bd cd87 f5bd 8fb6 9c3d
000000b0: 4d7f ddbd 70d2 ea3d 6615 24be 4997 a5bd
000000c0: 8838 a93d e0f5 e63d f692 04be 60e1 c1bd
000000d0: 9a81 cc3d 9229 ea3d d2b5 3d3d 1d7d 1bbe
000000e0: 7178 e5bd 58fc 1bbe 7db5 e53d 909e 0bbe
000000f0: 640e e7bd f8f6 3d3d d525 98bd 5928 68bd
00000100: d4d8 a7bd e862 c43d f938 4dbd 6e82 0ebe
00000110: 090b 0d3e 7da1 d33d eeaa cdbd ae36 1cbe
00000120: 0f6d 1abe 3631 a4bd 3b16 df3d e04f 7c3d
00000130: 6731 1ebe 136f a03d 06f7 02be 96e8 1dbe
00000140: 5ce7 d3bd a370 f2bd 87dd f03d ab54 a8bd
00000150: 9922 df3d 57d0 16be cac1 16be 9b55 023e
00000160: d374 8c3d 9af3 fc3d c66a b93d 0888 0bbe
00000170: e013 0abe 8a05 1abe 1220 0fbe f229 9bbd
00000180: 39f2 9ebd 82a6 d6bd 33fa a6bd 6c15 b1bd
00000190: e539 67bd 9b19 ef3d 0f14 903d f09f 0abe
000001a0: 198c b2bd 5ed6 58bd eba0 39bd 0f6e a5bd
000001b0: 8de7 0bbe 575c e7bd dfc6 f63d 192e a93d
000001c0: 7510 06be 9db5 bc3d 9a9d fa3d e1fe 0dbe
000001d0: e184 9abd fce1 16be 7553 093e 2c71 a03d
000001e0: f73a ddbd 515b 06be f742 22be 0aa8 cb3d
000001f0: 239a dfbd 1a7c 22be c04b c13d a4f1 d6bd
-0.10579678 0.035614714 0.109562695 -0.10569014 -0.14529894 -0.1235617 0.14300755 -0.16076596
-0.15313397 -0.094841614 0.11958226 0.13014029 0.079247944 -0.060726475 0.10257146 -0.071613975
0.11348498 -0.13299845 0.12399264 -0.0943861 -0.111812666 -0.09595943 -0.13977768 -0.14500478
-0.088791765 0.13009997 -0.15122074 -0.08591376 -0.118947975 -0.109912895 -0.11015271 0.11454998
-0.13192835 -0.1057657 0.10521892 -0.07056478 0.112724036 -0.14485231 -0.08280577 -0.09999987
-0.11864738 -0.1200579 -0.119887926 0.07652008 -0.10815296 0.11465919 -0.16023788 -0.08085496
0.082627356 0.11277366 -0.12946686 -0.09466815 0.09985657 0.1143371 0.046315975 -0.15184446
-0.11204613 -0.1523298 0.11216257 -0.13634706 -0.11282042 0.046378106 -0.07429091 -0.056679104
-0.081956536 0.09589177 -0.05010316 -0.13916942 0.13773741 0.10333536 -0.10042368 -0.15255234
-0.15080665 -0.08017199 0.10892912 0.061599612 -0.15448533 0.07833686 -0.12789544 -0.15420756
-0.10346863 -0.1183789 0.11761003 -0.08219274 0.10895271 -0.14727913 -0.14722362 0.12727968
0.0685822 0.12351151 0.090535685 -0.1362611 -0.13484144 -0.15041175 -0.13977078 -0.0757636
-0.07761044 -0.104809776 -0.081531905 -0.08646664 -0.056451697 0.11674806 0.07035076 -0.13537574
-0.08718128 -0.05293881 -0.04531948 -0.08077633 -0.13662548 -0.11296909 0.120496504 0.082607456
-0.13092215 0.092143275 0.12237091 -0.1386676 -0.07544876 -0.14734644 0.13410743 0.07834086
-0.10802262 -0.13120772 -0.15845858 0.0994416 -0.10918071 -0.15867653 0.09438276 -0.10495308
