.checkpoints/lstm_best_model.pt (torch, 359756 bytes, 13 tensors)

lstm.weight_ih_l0 f4 [256, 19]
0	0x3d1f27db	0.03885637
1	0xbe2795f6	-0.163658
2	0xb8b7e82d	-8.769366e-05
3	0x3cb27986	0.021786463
4	0xbd820bb0	-0.063498855
5	0x3d35a8bf	0.044350382
6	0xbe337664	-0.17525631
7	0xbc91a03b	-0.0177766
8	0xbdec0ead	-0.11526237
9	0xbd67ecce	-0.05662232
10	0xbdb1e64b	-0.08686503
11	0x3d69d345	0.057086248
12	0xbd4f0e94	-0.050551012
13	0xbd9c2848	-0.076248705
14	0xbd09ccd3	-0.0336426
15	0xbe303169	-0.17206348
16	0xbdfe1cd1	-0.1240784
17	0xbe0f5b50	-0.13999677
18	0xbe35c2e4	-0.17750126
19	0x3ddc9392	0.10770334
20	0xbc59ad29	-0.0132859135
21	0x3db0efc8	0.08639485
22	0xbd7a42d3	-0.061098885
23	0x3e159662	0.14608148
24	0x3e05dfd1	0.1307366
25	0x3ddb0e71	0.10696114
26	0xbc7fcaa0	-0.015612274
27	0xbcf976e8	-0.030452207
28	0x3c835613	0.016032254
29	0x3e01ba6d	0.12668772
30	0x3caf022d	0.021363342
31	0x3e156293	0.14588384
32	0x3d8d05f0	0.06885898
33	0x3db2865a	0.08717032
34	0x3cd71c82	0.02625871
35	0x3d0b34de	0.033985965
36	0x3de56418	0.11200732
37	0xbd6db00c	-0.05802922
38	0x3e2e9a55	0.1705106
39	0x3e2482d0	0.16065526
40	0xbe13d5b1	-0.14436986
41	0xbdbe32c5	-0.09287027
42	0xbd045515	-0.032307703
43	0xbce07150	-0.027397782
44	0x3c26ec05	0.010188107
45	0x3de11811	0.109909184
46	0x3e3cbb15	0.18430741
47	0xbc6162b6	-0.013756445
48	0xbdc40b7c	-0.09572503
49	0x3c517775	0.012784828
50	0x3d4879ca	0.048944272
51	0x3dbef2a4	0.09323624
52	0x3e4ed445	0.20198162
53	0x3e293f30	0.1652801
54	0x3d92a33d	0.071600415
55	0x3e024173	0.1272028
56	0xbd3151ca	-0.04329089
57	0x3d48573c	0.04891132
58	0x3dfc251d	0.12311766
59	0x3e16f659	0.14742412
60	0x3d2d5c3b	0.042324286
61	0x3df7fdce	0.12108956
62	0x3e0c6bc0	0.13712978
63	0x3e3429b8	0.1759404
64	0x3b83379c	0.004004432
65	0xbd4a3d4a	-0.049374856
66	0x3dd8f259	0.10593099
67	0x3c8aba21	0.016934456
68	0x3df02bc8	0.117271006
69	0x3e278ded	0.16362734
70	0x3d76d243	0.060259115
71	0x3e0343be	0.1281881
72	0x3d9fa582	0.0779524
73	0x3df0fc42	0.11766864
74	0x3d0fb689	0.03508619
75	0xbcb54bfc	-0.022130959
76	0x3e31fa51	0.17380644
77	0x3d1b5c73	0.037929963
78	0xbe5811fa	-0.21100608
79	0xbd786e78	-0.060652226
80	0xbe15c72c	-0.1462676
81	0xbe388db8	-0.18022811
82	0x3cc599b4	0.024121143
83	0x3e06145b	0.13093702
84	0xbe0ed15e	-0.13947055
85	0xbca2cad9	-0.019872116
86	0xbe3affdf	-0.1826167
87	0xbdaf37bb	-0.085555516
88	0xbc9bafbe	-0.019004699
89	0x3d569bdd	0.052394737
90	0x3dd962f6	0.106145784
91	0x3d28278a	0.041053332
92	0xbe855f82	-0.2604943
93	0xbe303a75	-0.172098
94	0xbdc284dd	-0.09497998
95	0x3d8c87dc	0.068618506
96	0x3d816199	0.063174434
97	0x3d10eec1	0.035383943
98	0xbe0c79da	-0.13718358
99	0x3dc534c4	0.09629205
100	0xbdda9b7e	-0.10674189
101	0x3d36d4af	0.044636425
102	0x3dc0994c	0.09404239
103	0x3d6f1456	0.058369003
104	0x3e7ea498	0.24867475
105	0xbe1a86f5	-0.15090545
106	0x3d870a65	0.065937795
107	0xbda0e630	-0.07856405
108	0x3d2c35b2	0.042043395
109	0xbe2690a8	-0.1626612
110	0x3dca6580	0.09882641
111	0xbd8a2756	-0.06745784
112	0x3d9f6ff4	0.07785025
113	0x3d967768	0.07346994
114	0x3e54a72b	0.20766895
115	0x3db89216	0.09012239
116	0xbe230e1d	-0.15923353
117	0xbd8ada46	-0.067799136
118	0xbec8780b	-0.39154086
119	0xbe98a79f	-0.29815385
120	0x3dfada15	0.12248627
121	0x3c006873	0.007837403
122	0x3e0c003f	0.13671969
123	0x3df9245d	0.12165139
124	0x3e2c4dea	0.16826597
125	0x3e2e083d	0.1699533
126	0xbdd7d11d	-0.10537932
127	0xbe11443e	-0.14186189
128	0x3dde0bfd	0.1084213
129	0xbd20d295	-0.039263327
130	0x3e15f493	0.14644079
131	0xbda8e456	-0.082466766
132	0xbde2b2e4	-0.11069277
133	0xbd0181ce	-0.031617932
134	0xbd23ff19	-0.040038202
135	0x3dd27c0c	0.10277566
136	0x3e110f24	0.14165932
137	0x3da8a057	0.082337074
138	0x3e4b2298	0.19837415
139	0x3d2c8591	0.042119566
140	0x3e350a95	0.17679818
141	0xbc5ed76b	-0.013601164
142	0xbcbabe61	-0.022795858
143	0xbd3a0ee5	-0.04542436
144	0x3da45a73	0.08025064
145	0x3e4db24d	0.20087548
146	0x3cb84989	0.022496002
147	0x3e00efb0	0.12591434
148	0x3e3492ae	0.17634079
149	0x3bff91bc	0.0077993553
150	0x3d755b38	0.059901446
151	0x3e4270ba	0.18988314
152	0x3c85d34a	0.016336102
153	0x3e312406	0.17298898
154	0x3c05aa64	0.0081583
155	0x3b1b7aaa	0.0023724237
156	0x3dd60f87	0.1045218
157	0x3e1b4b69	0.15165485
158	0xbd21baf5	-0.039484937
159	0x3d86996b	0.06572231
160	0xbd470ec4	-0.048598066
161	0x3dfed4ad	0.124429084
162	0xbd9ddbb4	-0.07707921
163	0x3d971bba	0.07378335
164	0xbd177c99	-0.03698406
165	0xbd39413c	-0.045228228
166	0x3da75da2	0.08172156
167	0xbd1730b3	-0.036911678
168	0x3c87831e	0.016542014
169	0xbd6a6561	-0.05722559
170	0xbdbb3f9d	-0.09142993
171	0x3dd3e674	0.1034669
172	0x3dc8ab32	0.09798278
173	0xbbed26f2	-0.0072373087
174	0x3cac895b	0.02106159
175	0xbc88b848	-0.016689435
176	0xbba9670a	-0.005169754
177	0x3e25f6ad	0.1620738
178	0x3db7bcdd	0.0897157
179	0x3da80a07	0.082050376
180	0x3d956ccd	0.07296143
181	0x3e0aa1bb	0.13538258
182	0x3dfe7e45	0.12426428
183	0x3d8a7515	0.06760613
184	0x3d8e3db9	0.069453664
185	0x3d407025	0.04698195
186	0x3c8a8d35	0.016913036
187	0x3de8f6ad	0.11375175
188	0x3c1ba9b0	0.009500906
189	0x3d9a8d7f	0.075465195
190	0xbd7c96b8	-0.061667174
191	0x3dd0046d	0.10157094
192	0xbc827093	-0.01592282
193	0x3d5ce60c	0.053930327
194	0xbd34f497	-0.04417857
195	0x3e3c78ef	0.18405508
196	0x3dac6178	0.08417028
197	0x3d8ef7e8	0.06980878
198	0x3c717aec	0.0147387795
199	0xbd927f0c	-0.071531385
200	0x3d591813	0.053001475
201	0x3dfd62c6	0.12372355
202	0x3e0241fa	0.1272048
203	0x3e048f66	0.12945327
204	0x3d4ac255	0.049501736
205	0x3e0f33bf	0.13984583
206	0x3d9dfc4f	0.0771414
207	0x3dce3371	0.100684054
208	0x3dd57d8d	0.104243375
209	0x3d3d6d4e	0.04624682
210	0xbb988be0	-0.0046553463
211	0xbd88fc8e	-0.06688796
212	0x3c28c2cd	0.01030035
213	0x3dfe62f7	0.1242122
214	0x3e0d3cc9	0.13792719
215	0x3e2ee56a	0.17079702
216	0xbd6495e6	-0.055807017
217	0xbc2f4754	-0.010698158
218	0x3d102db5	0.03519984
219	0x3ded3c5a	0.11583777
220	0x3e31dede	0.17370173
221	0x3dd9e77a	0.10639854
222	0x3b00397d	0.0019565516
223	0xbcfd50a6	-0.030922245
224	0x3db5e7f7	0.088821344
225	0xbc92294b	-0.017841956
226	0xbc92042d	-0.017824257
227	0x3d4fcda6	0.05073323
228	0x3e384cb0	0.17998004
229	0xbd187ef1	-0.037230436
230	0x3de70844	0.112808734
231	0x3dbaa80d	0.091140844
232	0x3da78522	0.0817969
233	0x3bfb77b2	0.007674181
234	0xbc62888a	-0.013826499
235	0xbcf43f13	-0.029815232
236	0x3d2d7bff	0.04235458
237	0xbbe27d38	-0.0069119
238	0x3cd91315	0.026498357
239	0x3c0dc1e2	0.008652182
240	0x3d9cd54c	0.07657871
241	0x3e427fd0	0.18994069
242	0x3d87a943	0.06624081
243	0x3e11de65	0.14244993
244	0x3e4d715e	0.20062777
245	0x3c88840f	0.016664533
246	0xbd2dafba	-0.042403914
247	0x3ca4560b	0.02006056
248	0xbda81b6c	-0.08208355
249	0xbe26198e	-0.16220686
250	0xbd8f1103	-0.069856666
251	0x3d574a83	0.052561294
252	0xbe34f503	-0.1767159
253	0xbe12903f	-0.14312838
254	0xbdb66ab2	-0.08907069
255	0xbd8a4096	-0.067506

lstm.weight_hh_l0 f4 [256, 64]
0	0x3dc2a5dc	0.095042914
1	0xbe0dbd3c	-0.13841718
2	0xbdf65467	-0.12027817
3	0xbbd25166	-0.006418395
4	0xbd4f453a	-0.05060313
5	0x3e31f569	0.17378773
6	0x3d9a2124	0.07525852
7	0xbe77233e	-0.24134538
8	0x3da0265e	0.07819818
9	0xbe145ce8	-0.14488566
10	0x3b29db54	0.0025918083
11	0xbb84373a	-0.004034904
12	0x3d87aea3	0.06625106
13	0xbc956681	-0.018237354
14	0xbe1bc190	-0.15210557
15	0xbd303d31	-0.043027107
16	0x3e23c4c2	0.15993026
17	0xbe86e7b9	-0.26348665
18	0xbe29465c	-0.16530746
19	0x3dd5bb7e	0.10436152
20	0xbc3129bd	-0.010813174
21	0x3d9e3273	0.07724466
22	0xbd646cba	-0.055767752
23	0xbdeffa92	-0.11717714
24	0xbc4dfc3f	-0.012572347
25	0x3ceecc73	0.029150223
26	0xbe39f6e0	-0.18160582
27	0x3d62189d	0.055199254
28	0xbcddcfd0	-0.027076632
29	0xbde2c8d1	-0.11073459
30	0xbe6180b7	-0.22021757
31	0xbe4ab462	-0.19795373
32	0x3e16ba9e	0.14719626
33	0xbe3f3e16	-0.18676028
34	0xbdb58472	-0.088631526
35	0x3c0e673c	0.008691605
36	0xbcf66330	-0.030076593
37	0xbdd8c670	-0.10584724
38	0xbde88d05	-0.11355022
39	0x3dabda5a	0.08391257
40	0xbd033d20	-0.032040715
41	0xbd6d1627	-0.057882454
42	0xbe732595	-0.23744805
43	0x3c851e15	0.016249696
44	0x3e162132	0.146611
45	0xbc0c6884	-0.00856984
46	0x3d9c11cf	0.07620584
47	0xbdec99c1	-0.11552764
48	0xbdcc9448	-0.0998922
49	0x3da0c700	0.07850456
50	0x3df971a0	0.121798754
51	0x3dc2fc11	0.09520734
52	0x3da5c963	0.08095052
53	0xbde0fa81	-0.1098528
54	0x3d3ac6f8	0.045599908
55	0x3e0ba1e7	0.1363598
56	0xbe0a1610	-0.13484979
57	0x3da2ceb4	0.07949582
58	0xbe992972	-0.29914433
59	0xbe29d0d0	-0.16583562
60	0xbd8a3fe2	-0.06750466
61	0x3cbc4a4f	0.022984652
62	0x3d8c321c	0.06845495
63	0xbafb1a3a	-0.0019157596
64	0x3c57af0d	0.013164294
65	0xbd43ba72	-0.04778523
66	0x3e0b2727	0.13589154
67	0xbd89acf7	-0.067224436
68	0x3d23aca9	0.039959583
69	0x3dc3374f	0.09532034
70	0x3d5c1e9c	0.05374013
71	0x3b1161d3	0.0022183552
72	0xbc72b8f8	-0.014814608
73	0xbdb719f1	-0.08940495
74	0xbd413a79	-0.047174904
75	0xbded79d9	-0.11595506
76	0xbe1ed5c3	-0.15511231
77	0x3dab766f	0.08372199
78	0x3de8f553	0.11374917
79	0x3e022a39	0.12711419
80	0xbd9cf764	-0.076643735
81	0xbc9c09b6	-0.0190476
82	0x3ded1077	0.11575406
83	0xbda2ef96	-0.07955854
84	0xbc0d778e	-0.008634461
85	0xbd2e05e1	-0.042486075
86	0x3dae376d	0.085066654
87	0x3dc44759	0.09583921
88	0xbdaa1d79	-0.08306403
89	0x3d9a1db6	0.07525198
90	0x3dc0c936	0.09413378
91	0xbe3c1c1a	-0.18370095
92	0xbcc47d51	-0.023985537
93	0x3cc8316f	0.024437634
94	0xbddb5e11	-0.10711301
95	0x3da9ceff	0.082914345
96	0x3d6156cb	0.055014413
97	0x3c727d88	0.014800437
98	0x3ccd7c05	0.025083551
99	0xbda319f8	-0.079639375
100	0xbdbf5220	-0.09341836
101	0x3d73d33a	0.059527613
102	0x3c507d16	0.012725135
103	0x3da33a18	0.07970065
104	0x3c1c060e	0.009522928
105	0xbdac0211	-0.08398832
106	0xbda70a14	-0.08156219
107	0xbd72dcab	-0.059292477
108	0xbd939839	-0.072067685
109	0x3cd3abea	0.025838811
110	0xbdc6a245	-0.09698919
111	0xbccfe86a	-0.025379378
112	0x3db0eecd	0.08639298
113	0xbd283ac5	-0.041071672
114	0x3c8e73b0	0.017389148
115	0xbe04b6b2	-0.12960318
116	0xbd77e999	-0.06052551
117	0x3d385faa	0.045013107
118	0xbe0a6524	-0.13515145
119	0xbdeeadb6	-0.116542265
120	0xbd623faa	-0.055236496
121	0xbdcc71f2	-0.09982671
122	0xbd138800	-0.03601837
123	0x3e0d6a99	0.13810195
124	0x3d6ffe34	0.058592036
125	0xbdc8b3e6	-0.09799938
126	0xbd3f06b2	-0.046637245
127	0xbe0949d5	-0.13407071
128	0xbdd3643d	-0.10321853
129	0x3bf23fe6	0.007392871
130	0xbd5e7290	-0.054308474
131	0x3ca7c56d	0.020479882
132	0xbc8f2092	-0.017471585
133	0xbe1a4e82	-0.15069011
134	0xbd9acda6	-0.075587556
135	0xbe95f515	-0.29288545
136	0x3c21460f	0.009843363
137	0xbbc2e005	-0.0059471154
138	0x3bd1b331	0.006399535
139	0xbda78006	-0.081787154
140	0x3c263850	0.010145262
141	0x3d27af6c	0.04093878
142	0x3d821e79	0.063534684
143	0x3d0f7de5	0.03503217
144	0xbd2211e6	-0.03956785
145	0x3dd72bee	0.10506426
146	0xbcf8e14e	-0.030380871
147	0x3dcaa402	0.09894563
148	0x3e1b03bd	0.15138145
149	0xbda29c60	-0.079399824
150	0xbdfb52e8	-0.122716725
151	0xbc8da6e7	-0.0172915
152	0x3d1ee756	0.038794838
153	0xbcf2b3a8	-0.029626682
154	0x3e24354d	0.16035958
155	0x3e001df7	0.1251143
156	0xbd4adf8f	-0.04952961
157	0xbdfcc8d3	-0.12342992
158	0x3daa8867	0.08326798
159	0xbe06ada2	-0.13152173
160	0x3d54c938	0.05194971
161	0xbd29abeb	-0.04142372
162	0xbdf0d2ff	-0.11758994
163	0xbe859cad	-0.26096097
164	0x3dafcc78	0.08583921
165	0xbcff966a	-0.031199653
166	0xbda71211	-0.08157743
167	0x3cb57ea0	0.022155106
168	0xbdd34283	-0.103154205
169	0xbe25b168	-0.16180956
170	0x3cd1f30d	0.025628591
171	0xbe319c05	-0.17344673
172	0x3e6ab4cb	0.2292053
173	0x3da4ab45	0.080404796
174	0x3e0fffbc	0.14062399
175	0xbda8a90e	-0.082353696
176	0xbd6b37d3	-0.057426285
177	0xbdedf3c5	-0.11618761
178	0x3de50d9e	0.11184238
179	0x3c77feac	0.015136402
180	0xbd0ec039	-0.034851287
181	0x3db9539f	0.090491526
182	0xbd9dc6d0	-0.07703936
183	0x3d3db340	0.046313524
184	0xbdfd0d07	-0.123560004
185	0x3dccb541	0.09995509
186	0xbe190831	-0.14944531
187	0x3d2472fd	0.040148724
188	0xbd859cf6	-0.065240785
189	0xbdd438e4	-0.103624135
190	0x3d8d210c	0.06891069
191	0xbd972661	-0.07380367
192	0x3c1e6074	0.009666551
193	0xbbe4e79e	-0.0069856187
194	0xbc9ac857	-0.018894358
195	0xbdc466cc	-0.095899194
196	0xbe0f8af4	-0.1401785
197	0x3de3f6d6	0.111310646
198	0xbdbb51be	-0.091464505
199	0xbdb4421e	-0.08801673
200	0x3d32ce2f	0.043653663
201	0xbda86044	-0.08221486
202	0x3de5eb57	0.11226528
203	0xbd050e35	-0.032484252
204	0xbd82f8a7	-0.06395083
205	0x3bbf0f38	0.0058306716
206	0xbd4fed94	-0.05076368
207	0xbd6fa73e	-0.058509104
208	0x3d8dedfc	0.069301575
209	0xbd1dc2b2	-0.038515754
210	0x3d3dbbf1	0.046321813
211	0x3d8a9bb7	0.067679815
212	0x3d2050fc	0.039139733
213	0xbda9a4ba	-0.08283372
214	0xbcd1ec6e	-0.025625434
215	0x3cedbcd3	0.029020702
216	0xbd70c3a5	-0.05878033
217	0xbd86415c	-0.06555435
218	0x3d8697b0	0.06571901
219	0xbdbf2ac2	-0.09334327
220	0x3cbcf8ca	0.02306785
221	0x3d68c44f	0.05682784
222	0x3d20bca0	0.039242387
223	0xbd81aa9d	-0.0633137
224	0x3d987a90	0.07445252
225	0xbcbe0290	-0.023194581
226	0x3d8d685f	0.06904673
227	0xbdeb1462	-0.11478497
228	0xbc19d287	-0.009388573
229	0x3e10f4d5	0.14155896
230	0x3d8694c7	0.06571346
231	0x3d825571	0.06363953
232	0xbcdf09d8	-0.027226374
233	0x3c4d45f7	0.012528888
234	0x3d0a5c2b	0.033779304
235	0xbccf78e5	-0.025326202
236	0x3d3e3f1b	0.0464469
237	0x3ddc5b2a	0.10759576
238	0xbdc76da3	-0.097377084
239	0x3dbfd008	0.09365851
240	0x3c86f11f	0.016472397
241	0xbbde283c	-0.0067796987
242	0x3d325023	0.043533456
243	0xbdba841b	-0.09107228
244	0x3d5569eb	0.052102964
245	0xbdc87e07	-0.09789663
246	0x3d6baf77	0.057540383
247	0xbda86f80	-0.08224392
248	0x3d427f7d	0.047484864
249	0xbdd9bd0b	-0.1063176
250	0xbd800f5d	-0.0625293
251	0xbd84e549	-0.06489045
252	0x3dfac26a	0.12244113
253	0xbe056e50	-0.13030362
254	0xbd7c1ca4	-0.06155075
255	0x3daea915	0.085283436

lstm.bias_ih_l0 f4 [256]
0	0xbde80736	-0.113295004
1	0x3de38908	0.11110121
2	0xbb9d672c	-0.004803559
3	0x3e092a65	0.13395078
4	0x3ca4008c	0.020019792
5	0xbd5009f3	-0.05079074
6	0x3e022737	0.12710272
7	0x3d2a9d3f	0.041653868
8	0x3d5fefac	0.05467193
9	0xbcb6d540	-0.022318482
10	0x3e0eebf0	0.1395719
11	0x3e296f9a	0.16546479
12	0x3dec08aa	0.1152509
13	0xbd9c18d5	-0.07621924
14	0x3e18edb1	0.14934422
15	0x3c5843fc	0.0131998025
16	0xbd176af5	-0.036967237
17	0xbd1f2f76	-0.03886362
18	0x3dd496a0	0.10380292
19	0x3e161dec	0.14659852
20	0x3d948836	0.07252543
21	0xbd541f59	-0.051787708
22	0x3c61fb2d	0.013792795
23	0xbd3d41d5	-0.04620536
24	0xbe3ff0cf	-0.18744205
25	0xbd9523f7	-0.072822504
26	0x3eb898d4	0.360541
27	0xbc29154e	-0.010320021
28	0x3e7b3b45	0.24534328
29	0x3e1cec70	0.15324569
30	0x3e103191	0.14081408
31	0x3e1c80a2	0.15283445
32	0xbc40826c	-0.011749845
33	0x3c1fdf95	0.009757896
34	0x3c9d0947	0.019169463
35	0x3d3f792c	0.046746418
36	0xbd9c571b	-0.076338015
37	0xbb070dac	-0.0020607514
38	0xbdc0ce7d	-0.094143845
39	0x3d94a97e	0.072588906
40	0xbce4eaec	-0.02794405
41	0x3ddd77c4	0.10813859
42	0x3e5cc4df	0.21559475
43	0x3df2d54c	0.118570894
44	0x3cb98355	0.022645632
45	0x3ae7ca4a	0.0017684188
46	0xbdd013f8	-0.10160059
47	0x3d0b0aeb	0.03394596
48	0x3e803d2f	0.2504668
49	0x3dd8fc15	0.10594956
50	0x3da65b2b	0.08122858
51	0xbb820cc8	-0.003968809
52	0xbdd7e665	-0.10541991
53	0xbe900796	-0.28130788
54	0x3dc9ae27	0.0984767
55	0x3d21ecbc	0.039532408
56	0xbd682894	-0.056679323
57	0x3da4f2eb	0.080541454
58	0xbdd27fe8	-0.102783024
59	0xbd7c832d	-0.061648536
60	0xb9e81d0c	-0.0004427213
61	0x3d2b520a	0.041826285
62	0x3e076ce7	0.13225137
63	0x3b6addeb	0.003583784
64	0xbd2b04ca	-0.041752614
65	0x3dafd231	0.08585013
66	0xbdebb822	-0.1150973
67	0xbcb08778	-0.021548972
68	0xbe1d8b44	-0.15385157
69	0xbd9df504	-0.07712749
70	0xbe232efe	-0.15935895
71	0x3d527d33	0.05138893
72	0x3d3cab55	0.046061832
73	0x3e00a85f	0.12564228
74	0x3d77b0c6	0.06047132
75	0x3d849729	0.06474144
76	0x3e0cf7ee	0.13766453
77	0xbe0fa29a	-0.14026871
78	0xbe0ae5c5	-0.13564213
79	0x3d2b2a38	0.04178831
80	0x3d39f3bb	0.045398455
81	0xbde8e229	-0.113712616
82	0xbdaaf061	-0.0834663
83	0xbdaf2a7e	-0.085530266
84	0xbd98fc72	-0.07470025
85	0xbd4a1bc2	-0.04934288
86	0x3dab79ee	0.083728656
87	0xbc9c1bf3	-0.019056296
88	0xbdf81db5	-0.12115041
89	0x3de214a8	0.11039096
90	0x3e1277c3	0.14303498
91	0x3d6af4da	0.057362415
92	0x3d16fb3a	0.036860682
93	0xbdf13ff0	-0.11779773
94	0x3e4289c2	0.18997863
95	0x3e36b38d	0.1784193
96	0x3de5ebc4	0.11226609
97	0x3da05f0d	0.078306295
98	0xbd4cf535	-0.050038535
99	0x3dd7e8fe	0.105424866
100	0x3e1b5bde	0.15171763
101	0x3c8258b1	0.015911432
102	0x3dbee213	0.09320464
103	0xbda0e39d	-0.07855914
104	0xbc9f0662	-0.019412223
105	0x3d0de6c9	0.034643922
106	0x3d356175	0.044282395
107	0xbb37e726	-0.002806136
108	0xbe00bf1c	-0.12572902
109	0x3d92ebc0	0.07173872
110	0x3de31d0a	0.11089523
111	0xbdc05d90	-0.09392846
112	0x3d0b5a6e	0.034021787
113	0xbbb41e79	-0.0054967967
114	0x3db2132e	0.086950645
115	0xbdb32f9d	-0.08749316
116	0x3db901ee	0.09033571
117	0x3e06ca01	0.13162996
118	0x3db62368	0.08893472
119	0xbd9148fb	-0.07093998
120	0x3e05f3cc	0.13081282
121	0xbd784390	-0.060611308
122	0xbdfdf064	-0.123993665
123	0x3d8032d3	0.06259694
124	0x3e0a77f1	0.13522317
125	0x3dfd71a0	0.12375188
126	0x3d37e843	0.044899236
127	0xbde0d6f5	-0.109785
128	0x3d9e19fb	0.07719799
129	0xbdccbbbb	-0.09996744
130	0xbc3cd03a	-0.011524254
131	0x3c6d5ea4	0.014487896
132	0xbc5688b6	-0.013094118
133	0x3cad6065	0.021164129
134	0x3d7f6e4c	0.062361047
135	0x3d85d010	0.065338254
136	0x3ce7e14b	0.02830567
137	0x3cbcd13c	0.02304899
138	0xbd9bca80	-0.07606983
139	0x3d01b161	0.031663302
140	0xbd36ef0d	-0.04466157
141	0xbd5fd39e	-0.054645173
142	0xbdd3cc95	-0.10341755
143	0x3dfc9910	0.12333882
144	0x3da2eb47	0.07955032
145	0xbd63b293	-0.055590224
146	0xbd346a0a	-0.04404644
147	0xbbec1757	-0.0072049308
148	0x3d4c9081	0.049942497
149	0x3d60f527	0.054921295
150	0xbd64a15a	-0.05581794
151	0x3d727910	0.059197485
152	0x3d076f63	0.03306521
153	0xbc9036c9	-0.017604249
154	0x3c7f07aa	0.015565792
155	0x3d8abf0f	0.06774723
156	0xbc976434	-0.018480398
157	0x3df87372	0.121313944
158	0x3d7a6f8a	0.06114153
159	0x3dcd1f4d	0.10015736
160	0xbdd0f0b9	-0.10202164
161	0x3e164fc1	0.14678861
162	0x3df11970	0.1177243
163	0xbd957e16	-0.072994396
164	0xbda4b83e	-0.08042954
165	0x3df4620b	0.11932763
166	0xbdc83bca	-0.09777029
167	0x3d6a1444	0.057148233
168	0xbca7f966	-0.020504665
169	0x3e95d386	0.29262942
170	0x3e1ec0a2	0.15503171
171	0x3ce08409	0.02740671
172	0x3d60f40c	0.05492024
173	0x3d46b1a9	0.048509274
174	0xbd6e6357	-0.058200207
175	0xbd70b4e9	-0.05876628
176	0x3e22d968	0.15903246
177	0x3d9a1e4e	0.075253114
178	0xbdee3ba7	-0.116324715
179	0x3db4cff3	0.08828726
180	0x3df06c59	0.11739416
181	0x3e02c89b	0.12771837
182	0x3d2844c9	0.041081224
183	0xbe0cdeb7	-0.13756834
184	0xba68be69	-0.0008878471
185	0x3be332e8	0.0069335587
186	0xbdf63c31	-0.12023199
187	0xbc7e3b25	-0.015517031
188	0x3dbbf2f7	0.09177201
189	0x3bb0c80f	0.0053949426
190	0xbd42ab0f	-0.047526415
191	0xba154903	-0.00056947785
192	0xbdd9b986	-0.10631089
193	0x3e30fb5a	0.17283383
194	0xbcce5d68	-0.025191024
195	0x3db84c08	0.08998877
196	0x3d20a6bf	0.03922152
197	0xbe0611e6	-0.13092765
198	0xbc75d2ca	-0.015003869
199	0x3d77a405	0.060459156
200	0x3e2e09bc	0.16995901
201	0xbd8cd70e	-0.06876956
202	0x3a6ebc23	0.0009107014
203	0xbdd41b40	-0.1035676
204	0x3d406efe	0.04698085
205	0x3bea73ce	0.0071549183
206	0x3d17eb82	0.037089832
207	0x3e3221c2	0.1739569
208	0x3e491995	0.19638665
209	0xbd1b2427	-0.037876274
210	0xbc739b0d	-0.01486851
211	0xbd2dcfdf	-0.04243457
212	0x3e43168e	0.19051573
213	0xbde1689e	-0.11006282
214	0x3db295f2	0.08720006
215	0x3bcd0931	0.006257199
216	0xbd63bf00	-0.055602074
217	0x3e3d43d5	0.18482907
218	0xbc9d2338	-0.019181833
219	0xbe07ce0e	-0.13262197
220	0x3de86623	0.11347606
221	0x3de91fdc	0.1138303
222	0x3dae4fd7	0.08511322
223	0x3d10111c	0.035172567
224	0xbdff2728	-0.1245864
225	0xbdc73f46	-0.09728865
226	0x3e0cc975	0.13748725
227	0xbc0c47bc	-0.008562025
228	0xbd14fedb	-0.03637586
229	0x3e0ea251	0.13929106
230	0xbe2aacdb	-0.16667502
231	0xbd917052	-0.071015015
232	0x3d0a1696	0.033712946
233	0xbd769f1f	-0.060210343
234	0xbc2883ce	-0.010285331
235	0xbc30e616	-0.010797044
236	0x3db96143	0.09051754
237	0x3da81a04	0.08208087
238	0x3d886388	0.06659609
239	0x3c924dd2	0.017859373
240	0xbd6fe675	-0.05856939
241	0xbbf2a4b8	-0.00740489
242	0x3d8b25d8	0.067943275
243	0x3db1cffc	0.08682248
244	0x3de615e6	0.112346455
245	0xbc835841	-0.016033294
246	0xbd8daa0c	-0.069171995
247	0x3b90f7ed	0.0044240863
248	0x3dd6e127	0.10492163
249	0xbe0f2f68	-0.13982928
250	0x3dd08000	0.10180664
251	0xbd9c3953	-0.07628121
252	0xbe222e03	-0.15837865
253	0x3dc8c947	0.098040156
254	0x3dc8de66	0.09808044
255	0x3d49ad6a	0.049237646

lstm.bias_hh_l0 f4 [256]
0	0xbd41faa5	-0.047358174
1	0x3d0016fc	0.03127192
2	0xbdb732f5	-0.08945266
3	0x3c1915a6	0.00934354
4	0xbc914332	-0.017732237
5	0x3ca9f136	0.020744901
6	0xbad9fad5	-0.001663054
7	0xbdce2283	-0.10065176
8	0x3d392051	0.045196835
9	0x3dc79d4c	0.09746799
10	0x3cbc384a	0.02297606
11	0x3d7e3a14	0.062067106
12	0x3d8bc310	0.068243146
13	0x3cb8d50d	0.022562528
14	0x3e26b81d	0.16281171
15	0x3dfe0a6e	0.12404333
16	0x3bb2e4f3	0.005459422
17	0xbdd4e662	-0.103955045
18	0xbcf84b17	-0.030309243
19	0x3dfa47fe	0.12220763
20	0x3dc3084e	0.09523068
21	0x3e0f03c7	0.13966285
22	0x3c5231e4	0.012829278
23	0x3e0040a2	0.12524655
24	0xbe69d157	-0.22833763
25	0x3c1e2f26	0.009654796
26	0x3e81b616	0.25334233
27	0xbe13ebd7	-0.14445435
28	0x3c8d2ce1	0.017233314
29	0x3ccedead	0.025252664
30	0x3e567311	0.20942332
31	0xbd673d15	-0.056454737
32	0x3d9943c6	0.0748363
33	0x3cd15f78	0.025558218
34	0xbd844c17	-0.064598255
35	0xbd80899c	-0.06276247
36	0xbc1c9ee1	-0.009559364
37	0xbd9d3465	-0.07676009
38	0xb92b32b1	-0.00016326715
39	0x3e3b8033	0.18310623
40	0x3dbbb7bc	0.09165904
41	0x3de349cd	0.11098061
42	0x3d889ffd	0.0667114
43	0xbcb3e2e7	-0.021958781
44	0x3e33593f	0.17514513
45	0xbcdc603e	-0.02690136
46	0x3e005399	0.1253189
47	0xbdb9e68e	-0.09077178
48	0x3e04c3f7	0.1296538
49	0x3d8c4a2f	0.06850087
50	0x3d9cf5e8	0.076640904
51	0x3d5606c9	0.052252565
52	0xbdda910d	-0.106721975
53	0xbe71953c	-0.23592085
54	0x3e48e6f0	0.19619346
55	0xbe1bf898	-0.1523155
56	0x3c9c48fc	0.01907777
57	0xbd159c45	-0.036525983
58	0xbd6e9d87	-0.0582557
59	0x3dbb5c29	0.091484375
60	0xbda5ce8f	-0.080960386
61	0x3d9301c8	0.07178074
62	0xbcfeb76a	-0.031093318
63	0xbd725c15	-0.059169848
64	0x3ddba19d	0.10724185
65	0xbb787d6f	-0.003791656
66	0xbda518a2	-0.08061339
67	0x3e02b16a	0.1276299
68	0xbd4ed46a	-0.050495543
69	0x3d26c60a	0.04071621
70	0xbdc2be5f	-0.09508967
71	0x3caf5d6f	0.021406857
72	0x3d6a9519	0.057271097
73	0x3cea63a2	0.028611962
74	0xbd5a704d	-0.053329755
75	0x3cc9f91e	0.024654921
76	0x3daff5f5	0.085918345
77	0x3d411295	0.04713686
78	0x3d4edf77	0.05050608
79	0x3d8dee47	0.069302134
80	0xbcdb8cf6	-0.026800614
81	0x3c81e5d7	0.015856666
82	0xbd354e02	-0.044263847
83	0x3de19f92	0.11016764
84	0x3d8b204b	0.06793269
85	0xbcca42a7	-0.024689985
86	0xbd1b25d4	-0.037877873
87	0x3df7515e	0.120760664
88	0xbb20021a	-0.0024415315
89	0xbdb290f5	-0.087190546
90	0x3e12face	0.14353487
91	0xbcf17d4e	-0.029478695
92	0xbd48b9b8	-0.04900524
93	0xbde5ba2a	-0.112171486
94	0x3e09c07c	0.13452333
95	0x3e8365ef	0.25663707
96	0x3e042d19	0.12907828
97	0xbd0a2bb6	-0.033733092
98	0x3d1fab4f	0.038981732
99	0xbdbb7f5b	-0.091551505
100	0x3df4ae54	0.11947313
101	0x3dcf6510	0.10126698
102	0xbc21e016	-0.009880086
103	0x3b917693	0.004439184
104	0xbd4a4da1	-0.04939044
105	0xbc8749f2	-0.016514752
106	0xba50aad1	-0.0007960024
107	0x3ccadfe2	0.024764959
108	0x3d7c218d	0.061555434
109	0x3da92d07	0.082605414
110	0x3d748dbc	0.05970548
111	0x3da080b5	0.07837049
112	0xbcfe5cbf	-0.031050084
113	0x3de3e6b7	0.1112799
114	0xbd00fe5c	-0.031492576
115	0xbcf25101	-0.029579641
116	0xbcf1778c	-0.02947595
117	0x3e057b5c	0.13035339
118	0xbd8895b2	-0.06669177
119	0xbe3818ec	-0.17978257
120	0x3d8db680	0.06919575
121	0xbd8e9310	-0.06961644
122	0x39c7f562	0.00038139062
123	0xbd742346	-0.059603952
124	0x3dfc4edf	0.12319731
125	0x3cb5f417	0.022211118
126	0xbda474b8	-0.08030075
127	0xbb88ad19	-0.0041710255
128	0xbdb6f2d8	-0.089330375
129	0x3d4e047d	0.05029725
130	0x3db0928b	0.08621701
131	0xbd55e74f	-0.052222546
132	0xbcb86898	-0.022510812
133	0xbce88b0a	-0.028386611
134	0x3e087fe5	0.13330038
135	0x3dd1a1d9	0.10235948
136	0x3d814dc7	0.06313663
137	0x3d2d6407	0.04233172
138	0xbe229dc3	-0.15880494
139	0xbd82529c	-0.06363413
140	0x3d93cf9e	0.07217334
141	0xbd74a662	-0.059728988
142	0xbda81071	-0.08206261
143	0x3d9f6e4e	0.07784711
144	0x3ceb71e3	0.028740829
145	0xbd6c2d7d	-0.05766057
146	0x3dfa45b9	0.1222033
147	0xbdc5451a	-0.09632321
148	0xbd81ad19	-0.06331844
149	0xbe0b3d3a	-0.13597575
150	0xbdf72b4f	-0.12068807
151	0xbd428ddd	-0.047498573
152	0x3b2baa43	0.0026194013
153	0xbd8feb1f	-0.07027268
154	0x3d9dd0d2	0.07705845
155	0xbbba4ad2	-0.005685189
156	0x3c060283	0.00817931
157	0x3dfa1b34	0.1221222
158	0x3e0a1406	0.13484201
159	0xbe0ed4f1	-0.13948418
160	0xbe019941	-0.12656118
161	0x3d2ee6fa	0.042700745
162	0x3dadfdaf	0.08495652
163	0xbdac39d4	-0.08409467
164	0x3d7f0e7c	0.062269673
165	0x3d7acfd3	0.061233353
166	0x3dabef58	0.083952606
167	0xbdcbe340	-0.09955454
168	0x3dc384d4	0.09546819
169	0x3e57d2dc	0.2107653
170	0x3d007a28	0.031366497
171	0x3d8c162c	0.068401664
172	0xbd97f04a	-0.074188784
173	0x3df4bf1d	0.119505145
174	0xbd498bb9	-0.049205516
175	0xbc2082cf	-0.009796812
176	0x3dbc9e52	0.09209885
177	0x3dc68fce	0.09695397
178	0xbe22be69	-0.15892948
179	0xbd016923	-0.031594407
180	0xbd7f6982	-0.06235648
181	0xbd7e4c07	-0.062084224
182	0xbda38c74	-0.07985774
183	0xbdb392af	-0.08768212
184	0x3e17792e	0.1479232
185	0xbdfcb07c	-0.12338349
186	0xbd6f30e8	-0.05839625
187	0xbc876976	-0.01652978
188	0x3d8d009f	0.06884884
189	0x3d21871a	0.039435484
190	0xbe14068e	-0.14455625
191	0xbd120e59	-0.035658214
192	0xbc9f19a9	-0.019421415
193	0x3e157904	0.14596945
194	0x3aedc102	0.0018139186
195	0x3e069b64	0.13145214
196	0x3e166346	0.14686307
197	0xbe24f67f	-0.16109656
198	0xbd7a7eb7	-0.061156
199	0x3e183995	0.14865716
200	0x3e035704	0.12826163
201	0x3da57124	0.080782205
202	0xbd71058d	-0.058843184
203	0xbd38019d	-0.044923414
204	0x3c1ca68e	0.009561194
205	0x3cb4d330	0.022073358
206	0x3d3815b1	0.04494256
207	0x3e25a6fd	0.16176982
208	0x3e29637e	0.1654186
209	0x3b26e235	0.002546442
210	0xbd9a0ea2	-0.07522322
211	0xbdb563fc	-0.08856961
212	0x3e14b1d2	0.14520958
213	0xbd8a7a14	-0.06761566
214	0xbcbbf052	-0.022941742
215	0x3cf30623	0.029666012
216	0xbe310b60	-0.17289495
217	0x3db3f77d	0.08787439
218	0xbb4ad1cd	-0.0030947805
219	0xbe612c99	-0.21989669
220	0x3d5b7076	0.053574048
221	0x3bef0149	0.0072938544
222	0xbe0e50e7	-0.1389805
223	0x3b5a18ce	0.0033278945
224	0xbd0140fd	-0.03155612
225	0xbdfaa58a	-0.12238605
226	0x3e4437e9	0.19161953
227	0x3e43e332	0.19129637
228	0x3e4ae9bb	0.19815724
229	0x3e2f2503	0.17103963
230	0xbd693feb	-0.056945723
231	0x3d8a5db7	0.06756156
232	0xbd98d751	-0.07462943
233	0x3de71730	0.112837195
234	0xbe158806	-0.1460267
235	0x3d9c37a2	0.076277986
236	0x3d4af684	0.049551502
237	0xbd593e82	-0.053038128
238	0xbdd00469	-0.10157091
239	0x3de9bda0	0.11413121
240	0x3d64d8f6	0.055870973
241	0x3bd6a2d9	0.0065501747
242	0xbdf34f87	-0.11880403
243	0x3b2203c1	0.0024721476
244	0xbd53fb1d	-0.051753152
245	0xbdf00990	-0.11720574
246	0xbe038a33	-0.12845688
247	0xbd53a059	-0.05166659
248	0x3e0f763b	0.14009945
249	0xbe1f0e23	-0.15532736
250	0x3e06e2af	0.1317241
251	0xbc17a286	-0.009255057
252	0xbdef7873	-0.11692896
253	0xbd6a7cb4	-0.057247832
254	0x3de48acf	0.11159288
255	0xbd822a89	-0.06355769

lstm.weight_ih_l1 f4 [256, 64]
0	0x3f01a6d6	0.50645196
1	0xbe9020e3	-0.2815009
2	0xbe73a886	-0.23794755
3	0x3c8307cf	0.015994934
4	0xbda170c9	-0.0788284
5	0x3e5ee377	0.21766458
6	0xbf1b5171	-0.60671145
7	0xbdbf9dce	-0.09356271
8	0x3e38918c	0.18024272
9	0xbee91d06	-0.45529956
10	0x3cfddae0	0.030988157
11	0x3e8ec5e7	0.27885363
12	0x3d991f39	0.074766584
13	0xbda4e9f6	-0.08052437
14	0xbdd94b04	-0.10610011
15	0xbdf97a20	-0.121814966
16	0x3e700b5e	0.23441836
17	0xbe685f9e	-0.22692725
18	0xbe076298	-0.13221204
19	0x3e8a9dd5	0.2707354
20	0x3e76085f	0.24026631
21	0x3e1c3e98	0.15258253
22	0xbe2f79b9	-0.17136277
23	0xbe2b2c4a	-0.16716114
24	0xbe423363	-0.18964915
25	0x3d1db75c	0.038504943
26	0x3d4e859f	0.0504204
27	0xbc67cb7e	-0.014147637
28	0x3cd3d1eb	0.025856933
29	0xbe11973f	-0.14217852
30	0x3d3a01e4	0.04541196
31	0xbe590b0b	-0.21195619
32	0x3dfb651e	0.12275146
33	0xbe21d906	-0.15805444
34	0xbe2866c8	-0.16445458
35	0x3e0049af	0.12528108
36	0xbc43a740	-0.011941731
37	0xbeb593a7	-0.35464212
38	0xbdbfab35	-0.09358827
39	0x3dfb0e43	0.122585796
40	0x3dccbd71	0.099970706
41	0xbe77e30d	-0.24207707
42	0x3e0d9c00	0.1382904
43	0x3d492fc5	0.049117822
44	0x3e111ffd	0.14172359
45	0xbe0c0e72	-0.13677385
46	0xbd97061b	-0.073742114
47	0xbdcabb92	-0.098990574
48	0x3e8f2922	0.2796107
49	0x3e88bd2f	0.26706836
50	0x3d3c2465	0.045933146
51	0x3db6cd6e	0.08925901
52	0xbed46557	-0.41483566
53	0xbec4bcd1	-0.38425305
54	0x3e883f16	0.2661063
55	0x3ef33f0a	0.47509032
56	0xbe7c7259	-0.24652995
57	0x3e83edbd	0.25767317
58	0xbeb9ad1d	-0.36264887
59	0xbe1c9bcb	-0.15293805
60	0xbe8e37d7	-0.27776977
61	0x3e4795af	0.19490694
62	0x3ea8710f	0.32898757
63	0x3e68c417	0.22731052
64	0x3e337ab1	0.17527272
65	0x3da403fd	0.08008573
66	0xbd1eb009	-0.0387421
67	0xbdd870da	-0.105684
68	0x3e0bfcd0	0.13670659
69	0x3d7c7a56	0.061640106
70	0xbd4209c2	-0.047372587
71	0x3e375d14	0.179066
72	0xbc59dc96	-0.013297221
73	0xbabf8552	-0.0014611876
74	0xbc6941b2	-0.014236854
75	0xbd3e68ea	-0.046486773
76	0xbdb494b0	-0.088174224
77	0x3d883355	0.06650416
78	0xba136507	-0.0005622659
79	0xbd84432e	-0.06458126
80	0xbe380fab	-0.17974727
81	0xbd17c56c	-0.03705351
82	0x3d27f7a9	0.04100767
83	0xbdcbea13	-0.099567555
84	0xbe0107f2	-0.12600687
85	0x3e36d5e8	0.17855036
86	0xbcd1634f	-0.02556005
87	0xbb6a9bf2	-0.0035798517
88	0xbdc9346a	-0.0982445
89	0x3e34b4ba	0.17647067
90	0x3de36ff3	0.11105337
91	0x3e4f7632	0.20259932
92	0x3e16d982	0.1473141
93	0xbe183513	-0.14863996
94	0xbd9ed10c	-0.07754716
95	0x3e8b68af	0.27228305
96	0xbd3d70de	-0.046250217
97	0xbde0aed8	-0.10970849
98	0x3e31a19d	0.17346807
99	0xbe9ec6bd	-0.31011
100	0xbe9268dc	-0.28595626
101	0xbd88f15e	-0.06686662
102	0xbe74aa5c	-0.23893112
103	0xbd167d1f	-0.03674042
104	0xbe413a80	-0.18869972
105	0x3dbe01a9	0.092776604
106	0xbe297112	-0.16547039
107	0x3e2d5fb0	0.16931033
108	0xbd779023	-0.060440194
109	0x3c219e59	0.009864413
110	0x3e1f594d	0.1556141
111	0x3d84a39a	0.06476517
112	0xbe14802d	-0.1450202
113	0xbe31faac	-0.1738078
114	0xbd93a3eb	-0.07208999
115	0xbd793324	-0.060839787
116	0x3e069581	0.13142969
117	0xbd46991e	-0.048485868
118	0x3d636463	0.055515658
119	0xbd2b994e	-0.04189425
120	0x3e9b55cb	0.30338892
121	0xbd975da9	-0.07390911
122	0x3e08f05b	0.13372938
123	0x3d283385	0.041064758
124	0x3cc607f5	0.024173716
125	0x3caee4af	0.02134928
126	0xbe148c19	-0.14506568
127	0x3e5fa52f	0.21840356
128	0x3d558036	0.052124225
129	0xbe42523f	-0.18976687
130	0xbcf1b640	-0.029505849
131	0x3ebb1752	0.3654123
132	0x3ef08551	0.46976712
133	0x3e0f3d17	0.13988148
134	0xbe53cfa2	-0.20684674
135	0xbe6d3839	-0.23165978
136	0xbe216901	-0.15762712
137	0xbd8c7356	-0.06857936
138	0x3e957918	0.2919395
139	0x3e3324df	0.17494534
140	0x3e9cd6a4	0.30632508
141	0x3e36db9d	0.17857213
142	0x3dd723e3	0.10504892
143	0xbd9d3abe	-0.0767722
144	0x3ea1bdf0	0.31590223
145	0xbdc4a4cc	-0.09601745
146	0xbeb9d423	-0.3629466
147	0x3db75039	0.08950848
148	0x3e93323d	0.28749266
149	0x3ded9c9c	0.116021365
150	0xbd44e088	-0.048065692
151	0xbddf0bd6	-0.108909294
152	0xbc50e1bd	-0.012749133
153	0xbe855715	-0.26043
154	0xbe487049	-0.19574083
155	0xbeb390ae	-0.3507132
156	0xbe9fa985	-0.3118402
157	0xbe0bc55d	-0.13649507
158	0xbeb0d702	-0.34539038
159	0xbecb559c	-0.39713752
160	0x3d839251	0.06424392
161	0xbd61cf10	-0.05512911
162	0xbeab7e08	-0.33494592
163	0xbf01864d	-0.5059555
164	0x3e705695	0.23470528
165	0xbe94d652	-0.29069763
166	0x3b5d3eda	0.0033759386
167	0x3df2ff90	0.11865151
168	0x3e5f7dc0	0.21825314
169	0xbe86d37a	-0.2633322
170	0xbec8fe21	-0.39256385
171	0xbef24e73	-0.47325477
172	0x3ebd671b	0.36992726
173	0xbde1c41a	-0.110237315
174	0xbe847f2b	-0.2587827
175	0x3d03f8d1	0.03221971
176	0xbee0edc8	-0.43931413
177	0x3e520b04	0.20512015
178	0x3ee53d91	0.44773534
179	0x3eb1cf30	0.34728384
180	0xbe367a36	-0.17820057
181	0xbcd7a93e	-0.026325818
182	0xbcc1674f	-0.023608832
183	0xbc95607e	-0.018234488
184	0xbebefa50	-0.37300348
185	0x3d355630	0.044271648
186	0xbeaeff1d	-0.3417901
187	0xbe48761c	-0.19576305
188	0xbe8ac824	-0.2710582
189	0x3d4fa270	0.05069202
190	0x3e6fd9ff	0.23423003
191	0x3e258fe8	0.16168177
192	0x3e8e6cea	0.2781747
193	0xbcf74349	-0.030183451
194	0xbe2feaa8	-0.17179358
195	0x3e0a2a8e	0.13492796
196	0xbdd8fb60	-0.10594821
197	0x3e88ec17	0.26742622
198	0x3d96ff3f	0.07372903
199	0x3db84350	0.08997214
200	0x3e199c7e	0.15001103
201	0xbe3838d2	-0.17990425
202	0xbd01f53b	-0.03172801
203	0x3dbf7ff4	0.09350577
204	0xbdcf3de2	-0.10119225
205	0x3d1bd4dc	0.038044795
206	0xbdd1ecda	-0.10250254
207	0xbd82fdc6	-0.0639606
208	0xbaa6b7c2	-0.0012719559
209	0xbcb9b45b	-0.022669008
210	0x3c7286ba	0.014802629
211	0x3e7b94a7	0.24568425
212	0xbc8e3e4f	-0.017363695
213	0x3d8abf46	0.06774764
214	0xbdc81f33	-0.09771576
215	0xbdb691cc	-0.08914527
216	0xbebd21b6	-0.36939782
217	0xbd0650a5	-0.032791752
218	0xbdb6b045	-0.089203395
219	0xbd0106a2	-0.031500466
220	0x3d8691c3	0.065707706
221	0xbe0acc26	-0.13554439
222	0xbdfe2e92	-0.12411226
223	0xbdd9ba9a	-0.106312945
224	0x3dc75321	0.097326525
225	0xbe0b853d	-0.13625045
226	0x3dcf18f0	0.10112178
227	0x3d5cc1fc	0.053895935
228	0xbc92ba01	-0.01791096
229	0xbd440b2f	-0.047862228
230	0xbe905298	-0.28188014
231	0x3de1111e	0.10989593
232	0xbd872a62	-0.06599881
233	0x3d0600df	0.032715674
234	0xbe2cdb33	-0.16880493
235	0x3d9012c2	0.07034828
236	0xbddb0d0d	-0.106958486
237	0xbe4c5833	-0.1995552
238	0xbca71842	-0.02039731
239	0xbd68ab88	-0.05680421
240	0xbe21e659	-0.15810527
241	0x3e5bf78a	0.21481147
242	0x3b886426	0.0041623292
243	0x3c84044f	0.016115336
244	0x3b1edfc9	0.0024242273
245	0xbe2be9f1	-0.1678846
246	0x3e7713e8	0.24128687
247	0x3e1fb4e3	0.15596347
248	0x3e07f210	0.13275933
249	0x3e546d4c	0.20744818
250	0xbe779f7a	-0.24181929
251	0xbdb73ccf	-0.08947145
252	0xbde467fb	-0.11152645
253	0x3cf12dfc	0.029440872
254	0xbd3d048d	-0.046146918
255	0xbe0cbe7a	-0.13744536

lstm.weight_hh_l1 f4 [256, 64]
0	0x3ea08003	0.31347665
1	0xbd967557	-0.073465995
2	0xbf0f0829	-0.55871826
3	0x3e70580a	0.23471084
4	0xbe64141c	-0.22273296
5	0x3ea845fa	0.32865888
6	0x3d2ab902	0.041680343
7	0xbed71690	-0.420094
8	0x3e71bf34	0.23608094
9	0x3e63974e	0.22225687
10	0xbe237c7d	-0.15965457
11	0x3df4123b	0.1191754
12	0xbe881975	-0.26581922
13	0xbe433279	-0.19062223
14	0xbdb1246b	-0.08649524
15	0xbdddf3d1	-0.1083752
16	0x3dc0fe21	0.09423471
17	0xbc070045	-0.00823981
18	0x3d9390e0	0.07205367
19	0x3d5c3138	0.053757876
20	0x3d9aec4a	0.075646
21	0x3dbc11eb	0.09183105
22	0xbe34dac9	-0.17661585
23	0x3e2288b2	0.15872458
24	0xbd84e083	-0.06488135
25	0xbe67f347	-0.22651397
26	0x3e62ecdb	0.22160666
27	0xbdea2452	-0.11432709
28	0xbe0161e2	-0.12634996
29	0x3e3b9c99	0.18321456
30	0x3df4893e	0.11940239
31	0xbe104562	-0.14088967
32	0xbdd3bbfa	-0.10338588
33	0x3e21bb6b	0.1579415
34	0x3d92b67f	0.071637146
35	0xbdcb37ac	-0.09922728
36	0xbe0cd6a1	-0.1375375
37	0x3e844e2c	0.2584089
38	0xbd5458b9	-0.051842425
39	0x3e5b3d0a	0.21410003
40	0xbeb820d7	-0.35962555
41	0x3e3fd796	0.18734583
42	0xbb22acdb	-0.0024822268
43	0x3eae53b9	0.3404825
44	0x3baecc83	0.0053344383
45	0x3d2e40f3	0.04254241
46	0x3d083923	0.033257615
47	0x3c72369b	0.014783527
48	0xbd111d82	-0.03542853
49	0x3d8cfd65	0.06884269
50	0x3dc2d62c	0.09513506
51	0xbc5276e1	-0.012845726
52	0x3d4d0d7c	0.050061688
53	0x3e121179	0.14264478
54	0x3e51c61e	0.20485732
55	0x3e2b1ee7	0.16711007
56	0x3e43df07	0.19128047
57	0x3e99766d	0.29973164
58	0xbddc7cf9	-0.10766024
59	0x3eaa04a0	0.33206654
60	0x3cebbf34	0.028777696
61	0xbe2387d5	-0.15969785
62	0x3cd879bb	0.026425233
63	0x3e0e4b72	0.13895968
64	0x3e095ae4	0.13413578
65	0x3dda5e07	0.106624655
66	0x3da168f2	0.07881345
67	0x3e06d712	0.1316798
68	0xbdcf91a6	-0.10135202
69	0x3e217856	0.15768561
70	0xbbe1ba62	-0.0068886736
71	0xbe6f38b5	-0.23361476
72	0x3e807832	0.25091702
73	0x3d1bc60e	0.038030677
74	0x3d7e43af	0.062076267
75	0x3e19fc5b	0.15037672
76	0x3e85e672	0.26152378
77	0xbe081ed6	-0.13293013
78	0xbe7b6194	-0.24548942
79	0x3c821119	0.015877293
80	0xbe62c826	-0.22146663
81	0xbd5fc39d	-0.05462991
82	0x3e4c3739	0.19942941
83	0x3ebaf7dd	0.3651723
84	0xbdd11850	-0.10209715
85	0x3d49b8d6	0.04924854
86	0xbe3935c1	-0.18086912
87	0xbcf2e8c2	-0.029652003
88	0x3dbc2b33	0.09187927
89	0x3d838ece	0.06423722
90	0x3d6cf696	0.05785235
91	0xbd445502	-0.047932632
92	0xbd7f43fb	-0.06232069
93	0xbe777549	-0.24165834
94	0xbc6cd1d2	-0.014454322
95	0xbd6042eb	-0.054751318
96	0xbccfe49b	-0.025377562
97	0x3d9b1eb3	0.07574215
98	0xbd4f86dd	-0.050665725
99	0x3e6e7295	0.23285897
100	0x3e06f70c	0.13180178
101	0x3e33895c	0.17532867
102	0xbdd55454	-0.10416475
103	0xbc03065d	-0.007997123
104	0x3c82ff12	0.015990768
105	0x3da1d3f5	0.07901756
106	0x3df9d453	0.12198701
107	0x3e1ca25e	0.15296313
108	0xbe1e7caa	-0.15477243
109	0x3e7d0ec7	0.24712668
110	0xbe17197d	-0.14755817
111	0x3dbe1389	0.0928107
112	0xbc5a46fb	-0.013322587
113	0xbd95015e	-0.072756514
114	0x3e8ef34a	0.2791999
115	0xbc332d9d	-0.010936168
116	0xbe598cdb	-0.21245138
117	0x3ecaf1d2	0.3963762
118	0x3d3a92de	0.04555022
119	0xbcde93c8	-0.027170077
120	0x3cd51a40	0.026013494
121	0x3ea067d8	0.31329226
122	0x3de68c97	0.11257284
123	0x3daffacb	0.08592757
124	0xbd2b1627	-0.041769173
125	0x3e725967	0.23666917
126	0x3e51b014	0.20477325
127	0x3d5d7b1d	0.054072488
128	0x3e1e444e	0.15455744
129	0x3db578cf	0.08860933
130	0xbd97fa19	-0.07420749
131	0xbddac70d	-0.10682497
132	0x3d0ab785	0.033866424
133	0xbe45c690	-0.19314027
134	0x3e1e70d0	0.15472722
135	0x3e3759e7	0.17905389
136	0x3c211c74	0.009833444
137	0x3b2e4b5c	0.002659521
138	0x3bf7c48f	0.0075612734
139	0x3e632c75	0.22184928
140	0x3ea56e42	0.32310683
141	0xbda92807	-0.08259588
142	0xbe548dc2	-0.20757201
143	0x3de86c7e	0.11348818
144	0x3e6281c8	0.2211982
145	0xbe4f63b3	-0.20252876
146	0x3d8b0960	0.067888975
147	0x3e6423a9	0.22279228
148	0x3d48de60	0.0490402
149	0xbb167f70	-0.0022964142
150	0x3dc4281f	0.09577965
151	0x3e4b3df2	0.19847849
152	0xbe8f7289	-0.2801707
153	0xbec57605	-0.38566604
154	0xbec89b39	-0.39180925
155	0xbe2f0428	-0.17091429
156	0xbd740bc8	-0.059581548
157	0xbd02c7ba	-0.031928755
158	0xbe3a6d24	-0.18205696
159	0xbee24d6a	-0.44199687
160	0xbe7182bb	-0.23585026
161	0xbd9509b9	-0.07277245
162	0x3e7a3aaf	0.24436449
163	0xbe1abe4a	-0.15111652
164	0xbe7a35b8	-0.24434555
165	0xbe01e81f	-0.12686203
166	0xbe5db685	-0.21651657
167	0x3e267689	0.16256155
168	0x3ed732bf	0.42030904
169	0x3ce64c9e	0.028112706
170	0xbb25aada	-0.0025278837
171	0xbe2edd6b	-0.17076652
172	0xbdba0e54	-0.09084764
173	0x3dec5194	0.11538997
174	0x3ea07c4f	0.3134484
175	0xbdddc9ce	-0.10829507
176	0xbcc5a981	-0.024128677
177	0x3c97dc1c	0.018537574
178	0x3c6a7ce4	0.014312003
179	0x3bc2d101	0.0059453254
180	0x3e21a132	0.15784147
181	0x3db4677b	0.088088
182	0x3e475224	0.19464928
183	0x3dae0d9b	0.08498689
184	0x3e6f1c51	0.23350646
185	0xbc137aed	-0.009001476
186	0xbd9f7235	-0.07785455
187	0x3de60b94	0.11232677
188	0xbe1936cc	-0.1496231
189	0xbe98b6c4	-0.2982694
190	0x3dfb6af5	0.1227626
191	0x3ed5a385	0.41726318
192	0x3efbb110	0.49158525
193	0x3d0c08db	0.034188133
194	0xbca9000a	-0.020629901
195	0x3e965808	0.29364038
196	0xbdc79ef5	-0.097471155
197	0x3c0ac67d	0.008470175
198	0x3ccbccb8	0.024877891
199	0xbe94d2da	-0.29067117
200	0x3e9c3429	0.30508545
201	0x3d374c25	0.04475035
202	0x3d6a55a1	0.05721057
203	0x3e85697b	0.26057038
204	0x3db3829c	0.08765146
205	0x3d50127a	0.05079887
206	0xbcc6f873	-0.024288392
207	0xbd705541	-0.058675054
208	0xbe04d0ef	-0.12970327
209	0xbe4528c2	-0.19253829
210	0xbd66d8d2	-0.05635912
211	0xbce05f9c	-0.02738934
212	0x3de492fc	0.111608475
213	0xbc6fa2f6	-0.014626255
214	0xbe82f568	-0.25577855
215	0x3dd054ba	0.1017241
216	0xbd6fdbe2	-0.058559306
217	0xbdc26315	-0.09491555
218	0xbef9a6b6	-0.48760003
219	0xbe8eac03	-0.2786561
220	0xbe8689d4	-0.2627703
221	0x3e120341	0.14259054
222	0x3d9cb48b	0.07651623
223	0xbe01775d	-0.1264319
224	0xbe4826d1	-0.19546057
225	0x3e1366a7	0.14394628
226	0x3e1ccbe4	0.15312153
227	0xbe1fbd26	-0.15599498
228	0x3ce23d85	0.027617225
229	0x3e2c3488	0.16816914
230	0xbe87fb38	-0.26558852
231	0x3dd56c11	0.10421003
232	0xbd9cb0a8	-0.07650882
233	0xbc7c52cb	-0.015400599
234	0xbcd18f48	-0.025581017
235	0xbbcc9ef4	-0.0062445346
236	0xbe71d2a9	-0.23615517
237	0x3e4588b4	0.1929043
238	0x3d16a406	0.03677752
239	0x3df93799	0.121688075
240	0xbd1b10a2	-0.03785766
241	0xbe6a1fe6	-0.22863731
242	0x3e4ff96d	0.20309992
243	0x3df07be3	0.117423795
244	0xbe0afb7d	-0.13572498
245	0x3e1425af	0.144675
246	0x3ea9f32a	0.33193332
247	0x3e942c1f	0.28939912
248	0xbbc1e2db	-0.005916936
249	0x3dbe7881	0.09300328
250	0x3e1ffe96	0.1562446
251	0x3cbcdf67	0.023055745
252	0xbd05c7e5	-0.032661337
253	0xbd007376	-0.031360112
254	0x3d2f1f00	0.042754173
255	0x3e196b2c	0.14982289

lstm.bias_ih_l1 f4 [256]
0	0xbe3bc9a0	-0.18338633
1	0xbd8a732e	-0.0676025
2	0xbe60f91b	-0.21970026
3	0xbe2e013b	-0.16992657
4	0xbd616ab9	-0.05503342
5	0xbdc99c08	-0.09844214
6	0xbe169fec	-0.14709443
7	0xbe13a92d	-0.14420004
8	0x3cb92f65	0.022605607
9	0xbe11bf42	-0.14233115
10	0xbcd1dc96	-0.025617879
11	0xbe41deb4	-0.18932611
12	0xbe84021c	-0.2578286
13	0xbd847d89	-0.064692564
14	0xbe45527f	-0.19269751
15	0x3c233a60	0.009962648
16	0x3db8b8eb	0.09019645
17	0x3d1bd2f4	0.038042977
18	0xbe1694b7	-0.14705168
19	0xbd23577c	-0.039878353
20	0x3d98d1c2	0.07461883
21	0xbdc6804d	-0.0969244
22	0xbd7df220	-0.061998487
23	0x3dab5ddd	0.083675124
24	0xbe20c66b	-0.1570069
25	0xbdfce5fe	-0.12348555
26	0xbe320948	-0.17386353
27	0x3d9e8e7d	0.07742021
28	0x3da6010b	0.08105668
29	0xbcec33c5	-0.02883328
30	0xbe19fa1e	-0.15036818
31	0x3cc6ec7d	0.024282688
32	0xbd9d26ec	-0.076734394
33	0x3d1ab84a	0.037773408
34	0xbdcb5875	-0.09928981
35	0x3b69631b	0.003561205
36	0x3d03416a	0.032044806
37	0xbc4048ce	-0.011736108
38	0x3dbaab39	0.091146894
39	0xbdae579b	-0.08512803
40	0xbe09fcdd	-0.13475366
41	0xbdb315a3	-0.08744361
42	0xbd8b8b2e	-0.06813656
43	0x3c8f473d	0.017490024
44	0x3db56527	0.08857184
45	0xbd9d0234	-0.07666436
46	0xbe19a99f	-0.15006112
47	0xbe33f29b	-0.17573015
48	0x3d356621	0.04428685
49	0x3ca16848	0.019703045
50	0xbe1df4d7	-0.1542543
51	0x3cb2cc64	0.021825977
52	0xbc937267	-0.017998887
53	0xbdbb256f	-0.09137999
54	0xbce50b4c	-0.027959488
55	0x3e9e9b72	0.3097797
56	0x3d73ed08	0.059552222
57	0xb937f8c1	-0.00017544908
58	0xbe786768	-0.24258196
59	0x3d3fb9b0	0.046807945
60	0x3de98d67	0.114039235
61	0xbd5d3932	-0.054009624
62	0x3c65f59e	0.0140356105
63	0xbdbbf1f2	-0.09177007
64	0x3e3e3699	0.18575515
65	0xbdc3cd54	-0.095606476
66	0x3e143e34	0.14476854
67	0xbe16ecb6	-0.14738736
68	0x3daf084f	0.085465066
69	0x3e20a43b	0.15687649
70	0xbd3561c5	-0.044282693
71	0x3e09bb04	0.13450247
72	0x3d856def	0.06515109
73	0x3b0206e5	0.0019840535
74	0x3dacab81	0.08431149
75	0x3e505035	0.20343097
76	0x3eb6dc7a	0.35715085
77	0x3e24e517	0.16103016
78	0xbd628638	-0.055303782
79	0x3d22ec16	0.03977593
80	0x3d06994e	0.032861046
81	0xbd34cd94	-0.044141367
82	0x3c110bdc	0.008852925
83	0x3e4c3bf0	0.1994474
84	0x3c1edfd3	0.009696919
85	0xbc37b189	-0.011211761
86	0x3e0874ad	0.13325758
87	0x3e3c2f70	0.18377471
88	0x3cdfba3d	0.027310485
89	0xbcd434e2	-0.025904123
90	0x3d0a72b8	0.03380081
91	0x3c006244	0.007835928
92	0x3e71a02e	0.2359626
93	0x3de66f46	0.112516925
94	0xbd0cf6d8	-0.034415096
95	0xbc6c4290	-0.014420167
96	0x3e03b206	0.1286088
97	0xbd00ed7a	-0.031476475
98	0x3de34f79	0.110991426
99	0xbd64dbc2	-0.05587364
100	0x3ce3f672	0.027827475
101	0x3cab304d	0.020897055
102	0xbd891780	-0.066939354
103	0x3d811111	0.06302083
104	0x3d31edba	0.043439604
105	0x3e401882	0.18759349
106	0x3e4efe49	0.2021419
107	0xbd0cc1e2	-0.03436459
108	0x3d873e42	0.066036716
109	0x3d66b8ed	0.056328703
110	0x3d13fd42	0.036130197
111	0xbd949d90	-0.07256615
112	0x3d4b6778	0.049659222
113	0x3e490f74	0.19634801
114	0x3d8d12af	0.06888329
115	0x3d856364	0.06513098
116	0x3e9ab21b	0.3021401
117	0xbe0b67b5	-0.1361378
118	0xbd6d5653	-0.057943653
119	0x3db46bfc	0.08809659
120	0x3dff8b9b	0.124777995
121	0x3dce7d93	0.10082545
122	0x3e8065be	0.25077623
123	0x3e24db74	0.1609934
124	0x3ddbda12	0.10734953
125	0x3c5c45d9	0.013444387
126	0x3da45567	0.08024102
127	0x3df3c6c6	0.119031474
128	0x3cfb1b7e	0.030652758
129	0x3d099e91	0.033598486
130	0x3d907787	0.07054048
131	0xbe339981	-0.17539026
132	0x3dc0411b	0.09387418
133	0xbd52b541	-0.05144239
134	0x3cc11e87	0.023574127
135	0x3e66d0b8	0.22540557
136	0xbd0325af	-0.03201836
137	0x3dd10ad6	0.10207145
138	0x3dd58786	0.1042624
139	0x3afe5263	0.0019403215
140	0x3c595edb	0.013267244
141	0xbd774c42	-0.06037546
142	0xbcd63ee9	-0.026153045
143	0x3dc05a19	0.09392185
144	0xbd2ad0d2	-0.041703053
145	0xbd5ae32d	-0.053439308
146	0x3cff0787	0.031131519
147	0x3d21151e	0.03932678
148	0x3c9cca07	0.019139303
149	0x3d872905	0.06599621
150	0xbded772e	-0.11594997
151	0xbd2f3b71	-0.042781297
152	0xbde4d824	-0.11174038
153	0xbcd26f94	-0.02568797
154	0x3da01ac8	0.07817608
155	0xbd6a0797	-0.057136144
156	0xbd3292ee	-0.043597154
157	0xbd2e5c25	-0.042568345
158	0x3c3bfeaf	0.0114742955
159	0xbd9f599e	-0.07780765
160	0x3cbce53f	0.023058532
161	0xbd3e28cb	-0.046425622
162	0xbe3688ce	-0.17825624
163	0x3d987a55	0.07445208
164	0x3c6b358a	0.014356026
165	0xbd8b5989	-0.06804187
166	0x3e60b3b1	0.21943547
167	0xbdbb62ff	-0.091497414
168	0x3d0d3926	0.03447833
169	0xbd78f2ce	-0.06077843
170	0x3de2cef4	0.110746294
171	0xbd21597b	-0.039391976
172	0xbc94b6b1	-0.01815352
173	0x3d689cba	0.05679009
174	0x3d538b2c	0.051646397
175	0x3d82a541	0.06379176
176	0x3df2d8c1	0.11857749
177	0xbce80f79	-0.02832769
178	0xbd9dd578	-0.077067316
179	0xbc185dcd	-0.009299708
180	0xbd955df9	-0.072933145
181	0xbc772316	-0.015084049
182	0xbd66068f	-0.0561586
183	0xbd86b7e5	-0.06578044
184	0x3d37fbe3	0.044917952
185	0x3be9beec	0.0071333554
186	0x3d85aa5e	0.065266356
187	0xbc5d87a7	-0.013521112
188	0x3dbb029f	0.09131359
189	0x3e159c77	0.14610468
190	0xbe5990e3	-0.21246676
191	0xbba30a31	-0.00497558
192	0x3e7ed0a6	0.2488428
193	0x3dabb49f	0.0838406
194	0x3e7453a0	0.23860025
195	0x3d575d68	0.052579314
196	0xbe3805f0	-0.17971015
197	0x3ddc33a2	0.10752036
198	0x3d90d147	0.070711665
199	0x3e120727	0.14260541
200	0xbe16ab76	-0.14713845
201	0x3c6a3271	0.014294253
202	0xbcc74a1c	-0.02432733
203	0x3da169df	0.078815214
204	0x3da4f710	0.08054936
205	0xbe0c8025	-0.13720758
206	0xbd733353	-0.05937512
207	0xbde9e720	-0.11421037
208	0x3e8b1bb4	0.27169573
209	0x3d13d762	0.036094077
210	0x3d29eff3	0.0414886
211	0x3e085d12	0.13316754
212	0xbdd9c2f1	-0.10632885
213	0xbe13a4ea	-0.14418378
214	0x3d673788	0.056449443
215	0x3cca4cb2	0.024694774
216	0xbd870fcf	-0.06594812
217	0xbb91d86c	-0.0044508483
218	0x3e7c60ed	0.24646349
219	0xbdd15a0d	-0.10222254
220	0x3ba296e2	0.0049618343
221	0xbc92b138	-0.01790677
222	0xbe8cd903	-0.27509317
223	0x3db3410d	0.08752642
224	0xbdbb6f4f	-0.0915209
225	0x3d4e145b	0.05031238
226	0xbd9960ed	-0.0748919
227	0xbdd94aae	-0.10609947
228	0x3c5a338d	0.013317955
229	0x3dc80fa8	0.09768611
230	0x3df0d048	0.117584765
231	0x3d841f64	0.064513
232	0x3d7bf873	0.061516237
233	0xbe097818	-0.13424718
234	0x3da717e5	0.081588544
235	0x3e2a3699	0.1662239
236	0xbd10107f	-0.035171982
237	0xbcca5c68	-0.024702266
238	0xbd220b67	-0.039561655
239	0x3db35952	0.08757271
240	0xbe318011	-0.1733401
241	0x3d1c958b	0.038228553
242	0x3d061a48	0.032739908
243	0xbe04da61	-0.1297393
244	0xbe059b12	-0.13047436
245	0xbdb740e8	-0.08947927
246	0x3d8f2333	0.069891356
247	0xbe2df2cd	-0.16987152
248	0xbb90f272	-0.004423433
249	0x3d3bd10b	0.045853656
250	0x3e2bfe42	0.1679621
251	0xbe1a1a10	-0.15049005
252	0x3d62c8ac	0.055367157
253	0x3d1a9385	0.03773834
254	0xbdd58a47	-0.10426765
255	0x3df11b12	0.117727414
