.checkpoints/lstm_best_model.pt (torch, 356492 bytes, 13 tensors)

module.lstm.weight_ih_l0 f4 [256, 19]
000000 90 db c2 3d 1b 86 fd 3d f3 cf 05 3c 46 5b 24 3e
       0.095145345 0.12379094 0.008167255 0.16050443
000010 16 0f be bc 62 24 37 3d c2 95 bb bd 53 0d 53 3d
       -0.023200553 0.04471243 -0.091594234 0.05152638
000020 c9 d8 a7 3d 23 c0 d9 bd 0f dc 09 3e f8 c8 1b 3d
       0.08195645 -0.1063235 0.13462852 0.038033456
000030 15 a5 dc 3d 1b 06 a5 3c c8 b8 5b 3d 07 3f 3a bd
       0.107736744 0.020144513 0.053643018 -0.045470264
000040 f4 a5 ce 3d 0f cf b1 3b d2 57 a1 bd b4 26 a1 3d
       0.10090247 0.0054262946 -0.078780785 0.0786871
000050 ea 82 58 bc 99 05 10 3d 60 d5 3d bb 4c b3 01 3e
       -0.013214806 0.03516159 -0.0028966293 0.12666053
000060 c4 70 7c bd 91 26 c3 bc 91 af 16 3c b8 0d 13 bd
       -0.06163098 -0.0238221 0.009197132 -0.035901755
000070 e8 8c 74 3d b9 03 73 bd 98 11 2e 3e 44 ef 66 bd
       0.05970469 -0.059329722 0.16998899 -0.056380525
000080 4a cc 20 3e 09 2e 72 3d 8c c7 22 3c 3c e1 ed 3d
       0.1570293 0.059125934 0.009935271 0.11615226
000090 d7 0d 62 3d 8a 15 0d 3e 58 c8 85 3d 1c 0b 4d 3c
       0.05518898 0.13777748 0.06532353 0.012514856
0000a0 8f 5b b9 3d 83 f7 8e 3c d6 5a e2 3d db 8e 2b 3e
       0.090506665 0.017452007 0.11052482 0.16753714
0000b0 4c e8 ff 3d d7 f7 9d 3a cf e8 02 3e 5e 8a a9 3d
       0.12495479 0.0012052011 0.12784122 0.082783446
0000c0 c8 53 ed 3d 48 03 c1 bc 6a b0 8d bd a3 d5 1a 3c
       0.11588246 -0.023561135 -0.06918414 0.009450349
0000d0 f5 9a 15 bd 61 67 25 3e 48 85 ae 3d 22 0e d0 3d
       -0.03652473 0.16152717 0.08521515 0.101589456
0000e0 8e c8 ba 3d c7 6d a4 3d 0d b5 20 3e bc 5a a2 bd
       0.09120284 0.08028751 0.15694065 -0.079274625
0000f0 d2 1c 12 39 33 eb f9 bd 50 9b c5 bc e8 33 f9 bd
       0.00013934381 -0.12203064 -0.02412191 -0.121681035
000100 8c c2 21 bd a1 c6 f2 bd 87 01 a0 3d e6 4d 46 bd
       -0.039492175 -0.11854292 0.07812791 -0.048414133
000110 b4 42 82 bc 8f 08 0e be 6f 44 91 3d 94 c4 40 bc
       -0.015900947 -0.13870452 0.07093131 -0.011765618
000120 d8 aa 82 3d ac 5c cf bd 50 d4 4b be e8 33 8c be
       0.06380242 -0.10125098 -0.1990521 -0.2738335
000130 22 4d 0d bd 8d 30 cf 3d 9d 10 cb 3d 72 b5 24 3e
       -0.034497388 0.10116682 0.09915278 0.16084841
000140 77 68 a9 bc 03 39 3b bd b5 7d cf 3d 5a 76 a5 bb
       -0.020679696 -0.045708667 0.101313986 -0.005049509
000150 6f 5c ec 3d 4c ab be 3c b1 f2 0a 3e c1 55 0b bd
       0.11541068 0.02327504 0.13569142 -0.03401733
000160 68 0d 12 bc 57 a7 c8 3d 59 8d 91 3d 9a cb 97 3c
       -0.008914329 0.097975425 0.07107038 0.018529702
000170 63 7b e9 3d 03 59 e6 3d 1f f1 7b bd 61 bd 62 bd
       0.11400487 0.112474464 -0.061509248 -0.055356387
000180 9e 0b 40 3e e7 1d 9a bd 8b 42 56 bd cf 2e e5 bd
       0.18754432 -0.07525235 -0.052309554 -0.11190569
000190 50 bb 52 bd 6d 6b 47 bc 8b 11 54 bd a3 e5 b5 bd
       -0.051448166 -0.012171608 -0.051774543 -0.0888169
0001a0 69 a8 4b bd e2 ca 26 be 70 bc 27 be a8 71 0b bd
       -0.049721155 -0.16288331 -0.16380477 -0.034043938
0001b0 76 9c 07 be 17 b6 de bd e0 36 96 3d 9d 89 2d bd
       -0.13243279 -0.10874575 0.07334685 -0.042367566
0001c0 36 89 3a bb 92 31 ac bd 91 bf b9 bc 7f b3 a0 3c
       -0.0028463132 -0.08407892 -0.022674354 0.01961684
0001d0 4e a2 94 3d 82 25 8a bd 78 d0 9c bd 30 38 16 bd
       0.0725752 -0.06745435 -0.0765695 -0.03667468
0001e0 6f 47 9d bd 15 a2 dd bd 42 c7 3f bd 91 ec 18 be
       -0.076796405 -0.1082193 -0.046820886 -0.14933993
0001f0 bf da 0b be b3 a4 eb bd 85 5b 52 bb 4f 83 0b be
       -0.13657664 -0.11506023 -0.0032098007 -0.13624309
000200 aa fc b0 3d 68 51 c6 bd b6 6b 06 3e 55 61 6f 3d
       0.08641942 -0.09683496 0.13127026 0.058442432
000210 08 ed 14 be 78 fd a8 3d a8 a0 41 3c ec 3a cf bd
       -0.14543545 0.0825147 0.011818089 -0.1011866
000220 62 2c 15 be d2 9b 0e be 06 6f 20 3d 2f eb a4 bd
       -0.14567712 -0.13926628 0.03916838 -0.0805267
000230 55 da 65 3c c1 1e ab bd ba c9 8e 3d fb fe 58 be
       0.014029105 -0.08355475 0.0697207 -0.21191017
000240 65 1d fe bd bd a7 51 3d 3d 73 c7 3c d7 15 89 3d
       -0.1240795 0.05118536 0.024346942 0.06693619
000250 11 32 8c 3d 63 2f 33 be 77 c5 c9 bc f5 f6 08 bd
       0.06845487 -0.17498545 -0.024630291 -0.03343864
000260 a9 cf ea bc 62 f9 3d be 49 8f c8 3d 17 e0 06 be
       -0.028663473 -0.18552163 0.097929545 -0.13171421
000270 96 5b 18 bb ba 04 b8 3b 1d 20 2c bc 4c 89 ee bd
       -0.002324795 0.005615798 -0.010505703 -0.11647281
000280 6b e2 ef 3c 45 d5 26 3c b7 a5 96 3b 28 8f 14 be
       0.02928277 0.010182683 0.0045973915 -0.14507735
000290 b7 5b a6 bc 44 1b a1 bd af c3 c6 bd 26 1d c1 3d
       -0.020307405 -0.07866529 -0.097052924 0.09429388
0002a0 b6 9c e2 3c 74 98 e0 bd cb 3c 6e be 98 7e ec 3c
       0.027662616 -0.10966578 -0.23265378 0.028868958
0002b0 88 15 f3 3d c3 81 c8 ba 70 f5 1b bd d2 b5 17 bd
       0.11869341 -0.0015297461 -0.038075864 -0.03703863
0002c0 90 89 cb bd dc f5 0f 3d 72 eb ca 3d 80 f1 0b be
       -0.09938347 0.03514658 0.09908189 -0.13666344
0002d0 38 27 88 3d f7 45 03 3e 9d f1 b0 3d 5a 52 f0 bc
       0.066481054 0.12819658 0.08639834 -0.029336143
0002e0 0d 5f bf 3d 98 e1 f1 3b 6e 9d af 3d 8b bb db 3c
       0.093443014 0.007381629 0.08574949 0.026822826
0002f0 d8 fc 35 bc fd 4c 5c 3d dd 70 3c bd e0 66 43 bc
       -0.011107646 0.05378436 -0.046006072 -0.011926383
000300 3a e8 bf 3d 28 52 04 3e 68 f4 5a bc 74 e4 2e bd
       0.093704656 0.12921965 -0.013363935 -0.04269834
000310 ce 1a ae 3c af 5f 81 ba 39 ec 61 3d 70 23 51 3d
       0.021253016 -0.0009870435 0.05515692 0.051059186
000320 5f 70 e3 bd ae 23 0a bd bb a8 da 3d 90 d2 73 3d
       -0.111054175 -0.033725433 0.10676714 0.05952698
000330 d3 87 6c 3c c1 a7 ad bd c6 1f c6 bd b9 da 27 be
       0.01443668 -0.08479262 -0.09674029 -0.1639203
000340 04 1d 83 bd 7a 91 b1 3d 34 09 03 3e 1a 36 eb 3d
       -0.06402019 0.086703256 0.1279648 0.114849284
000350 bd e7 72 bd e4 22 c6 bc 61 6b bf 3c a6 bb 2a 3e
       -0.059303034 -0.024186559 0.023366632 0.16673145
000360 9f 87 a0 3d 8c db c4 3c 00 26 e6 3d 2a 8b 1c 3c
       0.07838368 0.02403047 0.11237717 0.009554664
000370 a7 6b 8a bc b3 17 14 3e b3 35 81 3b 8f 95 dc 3c
       -0.016897036 0.14462166 0.003943169 0.026926784
000380 10 92 88 bd 4c 7b 06 3e b8 72 0e 3e a0 94 ae 3d
       -0.06668484 0.13132972 0.13910949 0.08524442
000390 88 d4 2e 3d 44 c2 88 be bf c3 34 3e a4 04 2c 3e
       0.042683154 -0.26710713 0.17652796 0.16798645
0003a0 85 7a cd bb 3e dd b8 3e fe d6 09 be bd 31 fa 3b
       -0.006270709 0.36106294 -0.1346092 0.007635324
0003b0 23 dc 8e be fd 1e 1f be 43 35 a6 be 1c bb 2f be
       -0.27902326 -0.15539165 -0.3246251 -0.1716122
0003c0 d2 8a 09 3e 45 98 ad 3e d6 f3 4d bd e2 71 a4 3c
       0.13431862 0.33905235 -0.05028137 0.020073835
0003d0 49 81 37 3d 2a 40 78 bd 7d 82 cb bd 41 7f cb 3d
       0.04480103 -0.060608067 -0.09936998 0.09936381
0003e0 77 69 97 3c 69 d9 09 3e 29 51 81 3c 0c aa 0d bd
       0.018482907 0.13461842 0.01578577 -0.034585997
0003f0 39 48 15 3d d8 2d 2f bb 4c fb b6 3c 08 e5 75 bd
       0.03644583 -0.0026730206 0.022336625 -0.060032874

module.lstm.weight_hh_l0 f4 [256, 64]
000000 d8 0e ec 3d 8d d0 79 3c 0a f1 d3 3d 3d 77 46 bc
       0.11526269 0.015247476 0.10348709 -0.01211339
000010 0b 75 f4 bd 4d 31 84 3d 95 3f 83 3d 40 9e ba 3d
       -0.11936387 0.06454716 0.06408612 0.09112215
000020 a5 75 74 3c 57 8e d7 bc 52 6c e9 bd 1d 78 e4 bd
       0.014920627 -0.02631299 -0.113976136 -0.11155722
000030 f9 4e 7c 3d 12 3c fb 3d ed 31 eb bb 72 bd 0a bd
       0.06159875 0.12267317 -0.0071775825 -0.033872075
000040 84 cc 82 3d 7e 90 89 3c 6b 29 ac 3d 2e 45 de bd
       0.063866645 0.016792532 0.08406337 -0.10853039
000050 a0 df e5 bd 88 d9 85 bd af f3 11 bd 8d 83 cb 3d
       -0.11224294 -0.065356314 -0.035632785 0.09937201
000060 3a 9c d6 3c c5 53 de bd e7 bd d9 bc 9c bd 10 3d
       0.026197542 -0.108558215 -0.02657981 0.035337076
000070 b1 1d ae bc d7 93 54 bc e6 87 84 3d da 05 1f bd
       -0.021254392 -0.012974701 0.06471233 -0.03882394
000080 9c 2a 21 3d 3a de cb 3d 3f 76 7a 3c 68 2b 36 3d
       0.039347276 0.09954496 0.015286981 0.04447499
000090 4e 3b 8e bd 80 25 e7 bd e2 71 b6 bd 29 7d 68 3d
       -0.06944905 -0.112864494 -0.0890844 0.056759987
0000a0 f9 34 be 3d a5 f8 db 3c 29 cb eb 3d 23 ba 4c bd
       0.092874475 0.026851961 0.11513359 -0.0499822
0000b0 9b fa 2b 3d 6e a9 cb bd 8c 8f 37 3d 60 ea 3a 3e
       0.041987043 -0.099444255 0.04481463 0.1825347
0000c0 47 f0 61 3d 28 bf 06 bf aa 20 3e 3c 65 19 83 bd
       0.055160787 -0.5263543 0.011604467 -0.06401328
0000d0 4e e6 b8 bd 60 a5 20 be 0d 39 e2 3d b0 ae 44 bd
       -0.09028302 -0.15688086 0.11046038 -0.048018157
0000e0 74 09 1d bd 01 fb cc bd 40 0b cf bc b2 f7 d9 bd
       -0.038339093 -0.10008813 -0.02527392 -0.10642947
0000f0 f5 8a a8 3c 02 f4 3a ba 9e 58 98 3d 2c 13 3e 3d
       0.020574072 -0.0007131697 0.074387774 0.046405002
000100 da 3e 09 3e 64 77 30 bd 9c df 20 bd e2 b1 20 be
       0.13402882 -0.04308261 -0.03927575 -0.15692857
000110 ef ff 24 bd c0 26 0a 3e 37 31 b2 bd 34 90 94 bc
       -0.04028314 0.13491344 -0.08700793 -0.018135168
000120 85 cb c6 3d 6e 0e 36 3e 17 21 d7 bd bd 52 09 be
       0.09706787 0.17778942 -0.10504358 -0.13410468
000130 1f 91 10 be c2 c0 c0 3d 87 6e 49 3d 92 e4 08 3e
       -0.1411786 0.09411766 0.049177673 0.13368443
000140 38 9b 0b 3e 2c f7 a5 bd a0 d3 92 3d 57 c0 5e 3d
       0.1363343 -0.08103785 0.071692705 0.05438265
000150 80 b2 29 bd d2 21 d7 3c e8 fe c3 3c 23 55 3b 3d
       -0.041429996 0.026261244 0.02392526 0.04573549
000160 de f5 4a bc 77 11 14 3e 1b b2 4b 3c 32 5b a4 3d
       -0.012387721 0.14459787 0.0124326 0.080252066
000170 5a 18 74 3d 83 bb 92 3c 33 89 28 bc 46 eb 63 bd
       0.059593536 0.017911678 -0.010286617 -0.055644296
000180 4b 81 89 3d 7f 83 37 3d ea b7 30 3d 99 b3 10 3d
       0.06714114 0.04480314 0.043144144 0.035327528
000190 42 13 ba 3b 1d a3 e7 bd f5 cb ab bd 8c af 86 3d
       0.0056785652 -0.11310408 -0.08388511 0.06576452
0001a0 f8 63 04 3d 77 b7 91 3a 1a b4 48 bd 8b 0a 96 3d
       0.0323219 0.0011117299 -0.048999883 0.0732623
0001b0 af 42 db 3c c3 62 9c bd bb 8e 1f be 5f be b3 3d
       0.026765196 -0.07636025 -0.15581791 0.08776545
0001c0 07 9e 35 3a 37 a1 be bc 60 34 e7 bd 75 a2 1d 3d
       0.000692815 -0.023270233 -0.112892866 0.03848501
0001d0 d0 3b 39 bd ed 38 ad 3c bc 41 93 bd 8d a1 29 be
       -0.045223057 0.021145308 -0.07190272 -0.16565533
0001e0 42 d7 99 bd 77 90 80 3d 1d a9 83 3d 58 6e 13 be
       -0.0751176 0.062775545 0.0642874 -0.14397562
0001f0 f1 2d 53 3d ed ef 78 bd b7 c6 05 be 56 e9 07 3e
       0.051557485 -0.060775686 -0.13064085 0.13272604
000200 4c f9 d1 3d 36 7c ff 3d bf ee 6c bc a3 12 9a 3d
       0.10252628 0.12474863 -0.014461218 0.07523086
000210 90 4c 97 bd 58 19 e2 3d 62 eb 0c bd c3 18 58 3d
       -0.0738765 0.1103999 -0.034404166 0.05275799
000220 a4 e5 c4 3d e4 e7 57 bd df 30 d5 3d 90 35 94 bd
       0.09614113 -0.052711383 0.10409712 -0.07236779
000230 68 bc fa 3c 34 39 a2 bc b1 98 e9 3c c9 d5 32 3e
       0.030607417 -0.019802667 0.028515192 0.17464365
000240 9c 24 93 3b 46 01 15 be df 1f 01 3e 00 23 aa bc
       0.004490448 -0.14551267 0.12609814 -0.020768642
000250 18 16 c1 bc 3b c6 fd 3d 03 da 70 bd 8d be 22 3e
       -0.023570105 0.12391325 -0.058801662 0.15893002
000260 3b 69 af 3d 82 4f 79 3c 8d ea 8f 3d 4a d4 4f 3d
       0.08564993 0.01521671 0.07027159 0.050739564
000270 17 e1 a2 3d a4 e0 e3 3c aa 90 0e bd 32 7e bb 3c
       0.07953089 0.027817078 -0.03480593 0.022887323
000280 02 2f d2 3d c3 fd 31 3e d9 f2 7b 3d 10 79 a3 3c
       0.10262872 0.17381959 0.061510894 0.019955188
000290 1f 00 69 bd 64 11 6d bd c9 66 0d be 59 cc 8e 3d
       -0.05688488 -0.057877913 -0.1380874 0.0697257
0002a0 f0 21 32 3e 2c a0 e2 3c 39 f4 71 bd 4f 01 6c 3d
       0.17395759 0.027664267 -0.0590708 0.057618435
0002b0 33 7d 20 be b0 66 82 3d 2c da 25 be 4e 17 72 bd
       -0.1567276 0.06367242 -0.16196507 -0.059104256
0002c0 dd 08 c0 bd ec 7a b7 3c b6 5d 10 ba 3b f3 7e 3d
       -0.093766905 0.02239748 -0.0005507128 0.06224368
0002d0 c0 af a4 3d a1 6a 8a 3d ae 4a 08 3e c4 35 3d 3d
       0.08041334 0.06758619 0.13309738 0.046193853
0002e0 b8 26 23 3e 02 02 aa bd 83 ba 9e bd 0c 64 fd bb
       0.15932739 -0.08301164 -0.07750418 -0.007732874
0002f0 36 dc 7b 3d 54 49 8b bd 41 51 0b be 67 65 5e bd
       0.061489306 -0.068010956 -0.13605215 -0.054295924
000300 8f 23 d4 bc cd 00 2b 3c ae 3f 0e 3d 6c 21 1d be
       -0.025895862 0.010437203 0.0347287 -0.1534478
000310 63 e5 25 be e2 9f 8a 3d 66 91 bc 3d f0 98 3c bd
       -0.16200785 0.067687765 0.0920742 -0.04604429
000320 c9 a0 d1 3d f7 ee 55 3e 4e 4f 8f 3d 17 d5 23 bd
       0.102357455 0.20891939 0.06997548 -0.03999814
000330 bd 10 3d 3d 0a 9a 4c 3e 0e b6 44 3c 67 ad 07 be
       0.04615854 0.19980636 0.012006296 -0.13249741
000340 14 e7 1d 3c 8c 2a b1 3d e0 78 a5 3e 45 96 33 3d
       0.009637613 0.08650693 0.32318783 0.04384448
000350 93 e8 cf 3d df fe 83 3e f7 ed ac 3e f6 16 25 be
       0.10151782 0.2578039 0.33775303 -0.1612204
000360 0d 0c 79 3d 39 1f 94 bc d3 cd 72 be c1 bb b8 3d
       0.06080251 -0.018081294 -0.23711328 0.09020186
000370 0b 2d b4 3c 85 7f 89 be 95 2a 8f be d8 5e 06 3e
       0.021994134 -0.26855102 -0.27962175 0.13122118
000380 72 a9 c2 3d cf e2 de bd 2d 3f 7e 3e c6 11 0f be
       0.095049754 -0.10883104 0.24828787 -0.13971624
000390 83 23 cd 3d 9c 4c a4 3d a8 00 61 bd 97 4f 6f 3e
       0.10016539 0.080224246 -0.054932266 0.23370205
0003a0 a3 d9 3a bd 82 dc da bd 70 81 60 3e 82 7b 04 3e
       -0.04561771 -0.1068659 0.21924376 0.1293774
0003b0 60 05 5e bd d0 74 f5 3d 9a 9a 20 3d 99 c1 8b 3d
       -0.054204345 0.11985171 0.03920994 0.06824035
0003c0 d1 09 e4 3c cb d4 aa 3d ba 5f 43 be 02 f5 88 3e
       0.027836712 0.08341368 -0.19079486 0.26749426
0003d0 5f 31 a7 3e 8f 99 9c 3d 06 f4 06 be 62 e1 bb 3d
       0.32654855 0.076464765 -0.13179025 0.09173848
0003e0 67 b1 88 3d 45 f5 b5 3d 6e ce f4 3d 7f 48 0a be
       0.06674462 0.08884672 0.11953436 -0.13504218
0003f0 e1 49 78 3d 74 7b 22 3f d9 60 d2 be d5 c5 36 bd
       0.06061733 0.63469625 -0.41089514 -0.04462226

module.lstm.bias_ih_l0 f4 [256]
000000 4f 47 92 bd 18 cd 89 3d d4 f6 0c 3c 6f fd 6d 3b
       -0.07142507 0.06728572 0.00860377 0.0036314388
000010 92 64 56 3d eb 56 df 3d 71 7f 89 bc 58 91 86 bd
       0.052342005 0.1090525 -0.016784402 -0.06570691
000020 0c f8 ce bc ba 05 11 be 8c a9 31 bd e3 1e 13 bd
       -0.025264762 -0.14162341 -0.043374583 -0.035918128
000030 27 b9 31 be 50 b6 ec bd c5 c8 86 bd 12 5b 66 3d
       -0.17355786 -0.11558211 -0.065812625 0.056239195
000040 48 24 fb bd 2a 76 11 3e d4 e1 08 bd f3 47 01 3e
       -0.122627795 0.14205232 -0.03341849 0.12625103
000050 69 c9 b4 bd 55 da 21 3e 4a a8 8c 3d 1b 41 20 3e
       -0.088274784 0.15805943 0.06868036 0.15649836
000060 26 c5 82 3d c6 4e 41 3d 07 e5 8e bd a4 62 af bd
       0.06385259 0.047194265 -0.06977277 -0.08563736
000070 43 15 a2 bd d8 13 c9 3d 7a c5 f6 3d 15 aa 12 3e
       -0.079142116 0.09818238 0.120493844 0.14322694
000080 34 96 cd bd df 84 95 bc 7d 25 9c 3d 82 8e ae bd
       -0.100384146 -0.018251834 0.07624338 -0.08523275
000090 d0 4d 92 3d 12 b4 b3 3d dd 60 2c 3d e4 58 88 bd
       0.07143748 0.0877458 0.042084564 -0.066575795
0000a0 af d9 f0 3d 93 c5 11 3d c6 77 15 3e 86 3c be bd
       0.1176027 0.035588812 0.14596471 -0.09288888
0000b0 4a 2c 29 bd 1d 80 46 3c fd ab 25 be 68 4b c2 bd
       -0.041302003 0.0121155055 -0.1617889 -0.09487039
0000c0 10 a3 59 be 9d 68 66 3d 13 c2 bd 3d d0 c0 f6 3c
       -0.2125361 0.05625211 0.09265532 0.030121237
0000d0 39 b1 08 3e 2c b7 ab 3d 4c 73 bc 3d af 9d 1e 3d
       0.13348855 0.08384547 0.09201679 0.038724598
0000e0 56 7d 40 be 27 2a ab bd e9 dd a9 3d 40 36 54 bd
       -0.18797812 -0.08357649 0.08294279 -0.05180955
0000f0 75 48 5d 3d ae 04 09 bd fb d3 98 bb 95 9e c1 3b
       0.05402418 -0.03345173 -0.004663942 0.005908797
000100 45 ce 0a 3d e8 75 3a 3d 23 ba 1d 3e 93 bb 3a 3d
       0.03388812 0.0455226 0.15403037 0.04558904
000110 94 f7 90 bc e3 6e 09 bd 70 47 57 3d 04 73 1b bd
       -0.01769618 -0.033553015 0.052558362 -0.037951484
000120 3e 65 e9 bb 75 77 01 3e 40 89 f4 bb 10 75 2b 3e
       -0.0071226647 0.12643225 -0.0074626505 0.16743875
000130 bc da f0 3d 9b 92 4c bd d1 e3 29 3e 16 15 d7 bb
       0.1176047 -0.0499445 0.16590811 -0.006563793
000140 a7 fa ed 3d 57 9e 06 bd 5c f9 79 3d c0 67 e1 3d
       0.11620074 -0.03286585 0.061028823 0.11006117
000150 d9 cb fd 3d 4e 05 9d 3c 1d 03 16 3e c6 ee 3e 3e
       0.123923965 0.019167569 0.14649625 0.18645772
000160 b5 18 20 bb c6 b0 41 3e f3 ac 8d 3c d7 07 05 bd
       -0.002442879 0.1891509 0.017294383 -0.03247818
000170 92 17 c5 3d a8 2d ca 3d fd bc 5c bd 12 6b 97 bb
       0.09623636 0.098719895 -0.05389117 -0.004620918
000180 b7 79 6c 3d 31 b4 14 3e b5 b7 30 3d 41 eb a1 bd
       0.057733264 0.14521863 0.043143947 -0.07906199
000190 39 2d 31 3d b5 a1 96 3d a2 4c eb bc 7a dc c6 3d
       0.04325602 0.07355062 -0.028723065 0.09710021
0001a0 06 7f 9e bc f9 e7 03 3e 99 f4 f6 bc ef 7d b6 bc
       -0.019347679 0.1288146 -0.03014593 -0.022276847
0001b0 54 c5 ac bc 84 23 0a 3d 6a 6d 82 bd 44 8b 49 be
       -0.021090187 0.033725277 -0.06368525 -0.19682032
0001c0 73 54 3a 3e e5 f5 c0 3d 2b 36 3d 3c 1a a2 8a bc
       0.18196277 0.09421901 0.011548559 -0.016923
0001d0 d3 e4 36 bd 7f 48 9c 3d 4b f0 8d 3c 52 74 a6 3d
       -0.044651818 0.07631015 0.017326495 0.08127655
0001e0 1a 64 1d ba 65 b6 c4 3d 1f eb 9a bc b0 ae c8 bc
       -0.0006003991 0.096051015 -0.018910943 -0.02449736
0001f0 d9 2d a3 3d 72 27 27 3e 21 bd 83 bc 46 51 dd 3d
       0.07967729 0.16323641 -0.016081395 0.10806517
000200 17 ef 70 3c 4f a7 1a 3e 0c 88 94 bd 01 c7 85 3d
       0.014705441 0.15102886 -0.072525114 0.065320976
000210 56 da 96 3d f8 18 96 3d d4 4b 59 3a 6e 58 52 3d
       0.07365863 0.07328981 0.00082891923 0.051353864
000220 53 b1 3b 3d 8c 5e 27 bd cb d8 57 bd c1 e7 f4 3c
       0.045823406 -0.04086165 -0.052696984 0.029895665
000230 0d 5c 27 3e 29 92 41 3d ca d6 c7 bd a1 9b 19 bd
       0.16343708 0.04725853 -0.09757765 -0.037501935
000240 45 b6 c2 3d 55 15 cb bc 2e 4d 26 3d 1e 64 81 3c
       0.095074214 -0.024790445 0.040600948 0.01579481
000250 52 50 b4 bd 5a 22 72 bd 22 0a 86 3d cf 76 96 bd
       -0.088043824 -0.05911479 0.065449014 -0.0734688
000260 e7 3a 1e bd 72 4e 3d 3e 80 89 84 3b d7 3a 1b 3d
       -0.038630392 0.18486956 0.0040447116 0.03789791
000270 69 07 81 bb 00 dc 49 bd d9 0b 96 3c 0b 8f ae 3d
       -0.003937651 -0.049282074 0.018316196 0.08523377
000280 de 44 75 3d 24 3f df 3b b8 3d d5 3d ec 73 a2 bd
       0.05988013 0.006812947 0.104121625 -0.079322666
000290 91 e5 86 bd 5a cb e1 3c 2b 34 a7 bb 28 18 ae bb
       -0.06586755 0.027562786 -0.0051026545 -0.0053129382
0002a0 d5 71 1f 3d 51 a5 bd bd da 60 b8 3d da 20 4b 3d
       0.038926918 -0.09260047 0.09002848 0.049591877
0002b0 98 c2 ff bd f8 58 38 bd 5e 4d b6 bc 3c b5 99 3d
       -0.12488288 -0.045006722 -0.022253688 0.07505271
0002c0 25 dd 6c 3b 7b 57 8c 3d 99 9b 52 be a9 46 0f 3e
       0.0036142555 0.06852623 -0.20567168 0.13991798
0002d0 c5 ca a4 3d 66 57 ed bd a2 71 7a 3d 2b 6a 68 bd
       0.08046488 -0.115889356 0.061143525 -0.056741875
0002e0 85 72 10 3e 04 62 ad bd 48 08 14 be f5 71 00 be
       0.14106186 -0.084659606 -0.14456284 -0.12543471
0002f0 0e 10 c1 3d 6e 13 50 3d 42 20 99 bd a0 87 14 be
       0.0942689 0.05079978 -0.07476856 -0.14504862
000300 29 f9 86 3d 0c 9c c3 3c cd d5 88 bd 86 85 0f bd
       0.06590492 0.02387812 -0.06681404 -0.035039447
000310 06 19 01 bd ba 2a 22 bd e4 64 29 3c a5 87 c0 3d
       -0.031518005 -0.03959153 0.010338996 0.09400872
000320 af ea 45 3d c3 88 c0 3d 2e 1f f7 bd 9f 5d 3f 3d
       0.048319515 0.09401085 -0.12066494 0.046720143
000330 6a 89 4b 3d 27 90 e8 3a 97 9d 06 3d ec 81 8e bd
       0.049691595 0.0017743156 0.032865133 -0.069583744
000340 f1 cb 1a 3c 06 14 72 bc a4 9d 9b bc e1 7c 7f 3c
       0.0094480375 -0.014775282 -0.018996067 0.015593738
000350 a7 14 3d bd d0 c3 07 bd 7b 16 c3 bd 9a f6 de 3d
       -0.046162274 -0.033145726 -0.09525772 0.10886879
000360 9d 52 99 3d 04 22 ac bc e7 78 9a bd 63 39 77 3d
       0.0748646 -0.021012314 -0.075425915 0.060357463
000370 3a af 1f bd db 58 2d 3d 7f ee 20 3d 70 96 c7 ba
       -0.03898547 0.042321067 0.039289948 -0.0015227329
000380 51 ac 9a 3d 27 30 e3 bc f2 e1 4e 3d a9 97 8f bd
       0.07552398 -0.027732922 0.050508447 -0.07011349
000390 a1 7b f6 3c cb 33 0e 3e 9c 69 02 3e f5 bc a8 3d
       0.030088248 0.13886945 0.127356 0.08239166
0003a0 1c 59 df 3c 6a ea 36 3d 11 ad 07 3e 57 0a 2b bc
       0.02726417 0.04465715 0.13249613 -0.010439477
0003b0 08 10 37 3d e1 25 f6 3d 49 6f 4c 3d 30 89 ae bd
       0.044693023 0.120189436 0.049910817 -0.0852226
0003c0 c1 7a 8f 3d a6 a7 7a bd 15 d5 94 3d 79 50 c1 3d
       0.07005835 -0.06119504 0.07267205 0.09439177
0003d0 67 bb 07 bc 8a 9b d3 3d 7b 8a cb bd f1 da 0d 3d
       -0.008284426 0.10332401 -0.099385224 0.034632627
0003e0 1b 99 fc 3c ce 97 ef 3d f1 75 c7 3d 38 cf 2c 3e
       0.030834725 0.11698876 0.097392924 0.16875923
0003f0 a6 69 c0 bd 90 d7 60 3e ac 4b 1a bd ce c9 8f bc
       -0.09395151 0.2195723 -0.037669823 -0.017552283

module.lstm.bias_hh_l0 f4 [256]
000000 3c 2c 1f 3d 06 7a 23 3d 2d 80 e8 3d 8a c5 8e 3d
       0.038860545 0.039911292 0.113525726 0.06971271
000010 61 07 ac 3c 94 de 48 3d 59 d0 c1 ba f5 25 b0 3d
       0.020999612 0.049040392 -0.0014786824 0.0860099
000020 01 f1 a6 3d 1c b1 1d bd a2 1c b8 bd 36 aa 81 3d
       0.081514366 -0.038498983 -0.08989836 0.06331293
000030 6d 1a 35 3b be 17 3e 3c 5c 3b cd 3d 84 6a 04 3d
       0.002763416 0.01160234 0.100210875 0.032328144
000040 25 e7 06 be c6 28 de bc 50 e0 12 bb 86 16 13 bd
       -0.13174112 -0.027119052 -0.0022411533 -0.035910152
000050 7b 7b 62 bc 2a 46 fa 3b fe a2 86 bd d1 82 1f 3e
       -0.013823385 0.0076377587 -0.06574057 0.15577246
000060 e8 c2 4b 3d ec ac 86 3d 18 0b d4 bc 17 c2 23 be
       0.049746424 0.06575951 -0.025884196 -0.15992008
000070 7e 24 de bc 4d 06 7a bd f9 05 37 3b 8f ba b6 3d
       -0.02711701 -0.061041165 0.0027927144 0.08922302
000080 81 cf 95 bd a5 95 9d 3c 3a d8 91 3d 3c 83 c8 3d
       -0.07314969 0.019236395 0.0712132 0.09790656
000090 06 df 15 3e 2d d5 25 3e b3 b8 5d bb fc 02 b1 bc
       0.14635858 0.16194601 -0.0033832013 -0.021607868
0000a0 5f 18 cf bd 56 7a 84 3d a9 1a c3 3d 6e 84 16 3d
       -0.1011207 0.06468646 0.095265694 0.03674739
0000b0 0d 80 c7 3d 75 42 66 bd 75 ce 2b bd 22 88 21 3d
       0.097412206 -0.056215722 -0.04194494 0.039436467
0000c0 26 71 68 be 5d 61 24 bd 0f db 2c 3d aa ab a5 bd
       -0.22699413 -0.040131915 0.042201098 -0.08089383
0000d0 30 8e 42 3c 6b ef 04 bd d4 34 00 3e ba 53 68 3b
       0.01187472 -0.03245489 0.12520152 0.0035450296
0000e0 de cf d1 bd 99 31 03 3e a6 90 7c 3d ce ef 1f bc
       -0.10244726 0.12811889 0.061661385 -0.009761764
0000f0 c7 59 9e 3c 23 43 e4 bd 72 98 2a 3e 56 28 af 3c
       0.019329919 -0.11145618 0.16659716 0.021381538
000100 bb bb e9 3d 48 48 4b 3c 10 28 e6 3d ee f8 50 3e
       0.1141276 0.01240737 0.1123811 0.20407459
000110 60 ba 2a 3c 2a c6 90 3d 86 b2 01 bd 54 ff f3 3d
       0.010420412 0.07069047 -0.031664394 0.11913934
000120 b8 b1 18 bd 7d af c6 3d 08 8b 08 bd 0c 63 57 3c
       -0.03727886 0.097014405 -0.033335716 0.013146173
000130 4c 3a 49 3c de d5 04 3e 10 9f 2a 3e a0 2c 16 3d
       0.012281965 0.12972209 0.1666224 0.03666365
000140 98 ab e3 3d f6 b5 8e bd d9 fa 90 3c 06 04 1b 3e
       0.11116713 -0.069683 0.017697738 0.15138254
000150 f4 89 43 3b c3 ef 77 bb fc d5 65 3c cb 02 48 3e
       0.0029836865 -0.0037832118 0.014028069 0.19532315
000160 52 83 41 3d 17 a3 07 3e 1b 41 68 bc e3 c6 cf 3d
       0.047244377 0.13245808 -0.014175679 0.101453565
000170 d5 47 50 3d 7c 87 40 3e 15 e7 0e 3e 6a d6 7a bd
       0.050849754 0.18801683 0.13955338 -0.061239637
000180 e9 3a 44 3e 47 a6 a5 bc f8 bd 23 3c e8 78 71 3d
       0.19163097 -0.020220889 0.009994023 0.058953196
000190 f4 cb 9c bd 37 3c 0c 3d 00 10 ea bd a3 a0 13 bd
       -0.076560885 0.034237113 -0.11428833 -0.036041867
0001a0 1e 5f d2 3d 48 0a c3 3d 13 89 a7 3d 07 69 89 ba
       0.102720484 0.09523445 0.08180442 -0.0010483571
0001b0 58 bb 9a 3d a1 f2 7c 3d 03 53 47 3c bc 7b 47 be
       0.07555264 0.061754826 0.012165788 -0.19480795
0001c0 0a 95 25 3e 67 6b b2 bd ef ef 94 3d a5 52 ce 3d
       0.16170135 -0.087118916 0.07272326 0.10074357
0001d0 c6 03 ea 3d 17 21 a5 bc dc c2 30 3e cb be 16 bd
       0.11426501 -0.02015738 0.17261833 -0.036803048
0001e0 13 d8 98 bd e6 cc a9 3d f1 f2 bb bb 3e 02 2f bd
       -0.07463088 0.082910344 -0.005735748 -0.042726748
0001f0 e7 b9 78 3d 20 42 2e 3e ad 98 01 3e 95 6a b2 3d
       0.060724165 0.17017412 0.12655897 0.08711735
000200 73 f4 bb 3d 4a 95 05 3e 33 0c 98 bd d3 c2 6d 3d
       0.09177484 0.1304523 -0.07424202 0.058047127
000210 19 b4 65 3d f4 97 7a 3d 07 46 f5 bd 23 d0 8b bb
       0.056079958 0.06118007 -0.11976247 -0.004266755
000220 11 b6 1c 3d e8 eb 3a bd 5f 4c f9 bd 08 38 9f bc
       0.03825957 -0.045635134 -0.1217277 -0.019435897
000230 25 97 71 3c b9 74 c3 bd 40 c4 99 3d 1d ff c5 bd
       0.014745508 -0.095437475 0.07508135 -0.096677996
000240 24 09 22 3d 38 56 a1 3d a0 c7 d5 3d c2 06 9a 3d
       0.0395595 0.07877773 0.10438466 0.0752082
000250 59 fe 83 ba 50 f1 df 3d 8a 03 c3 3c 12 d1 31 bd
       -0.0010070308 0.109346986 0.023805398 -0.043412276
000260 db ac 90 bd d0 48 87 3d a5 0f 4e bd 65 7f f2 bd
       -0.070642196 0.06605685 -0.05030789 -0.11840705
000270 4f 9f 25 3d bc 86 16 be ea 5e 47 bd 1e bc e0 3b
       0.04043513 -0.14699835 -0.0486745 0.006858363
000280 f3 01 be bd 5d 5c 60 bd 0f 5d 03 bc ad 29 c4 3b
       -0.092777155 -0.054775584 -0.008017792 0.0059864135
000290 0c 0c 99 3c 11 32 04 3e 49 69 bc bd 8f 2a 12 bd
       0.018682502 0.12909724 -0.09199769 -0.03568512
0002a0 51 01 34 bd e3 e2 8b bd 27 60 e1 3d 9d 1d ae 3d
       -0.043946568 -0.068303846 0.11004668 0.08501742
0002b0 36 bc 26 3c db 0f b6 3d 81 4a 43 3c 3e 40 4d 3d
       0.010176709 0.08889743 0.011919619 0.050110094
0002c0 a3 11 df 3c c0 ce 67 3d f8 9e 78 bd 26 55 87 3d
       0.02723009 0.056593657 -0.06069848 0.06608038
0002d0 8a cb 8b bd 18 1c 7d 3d 13 39 8c 3d a5 fc 37 3d
       -0.06825931 0.06179437 0.068468235 0.044918675
0002e0 94 da 0b 3e 76 19 94 3d e5 48 b5 3d ad 19 91 3d
       0.136576 0.07231419 0.08851794 0.070849754
0002f0 21 3f cd bc 81 b3 fa bc e9 df 8b 3d e3 cb 08 3d
       -0.025054516 -0.030603172 0.06829817 0.033397567
000300 87 aa d6 bd c4 8d 00 3e cb 0e 9b 3d b2 1a 2b bd
       -0.10481744 0.1255408 0.07571181 -0.041773506
000310 46 33 3b bd 3a 98 a6 bc 2b 37 40 3e af 3b 91 3d
       -0.045703195 -0.02033626 0.18771045 0.07091462
000320 1b 89 41 bd 7f e5 4b 3d 92 5b b2 bd 16 f5 2f bd
       -0.047249895 0.04977941 -0.08708872 -0.04295834
000330 29 85 2d 3e 50 92 8f 3d 01 11 64 3a 56 e5 7f 3d
       0.16945328 0.07010329 0.00087000435 0.06247457
000340 c9 4a 19 3d 07 1a 92 3d d8 fe 0b 3c 5b e3 99 3d
       0.037424836 0.071338706 0.008544646 0.07514068
000350 94 b2 d9 ba d3 6f 70 ba 02 52 d8 bd b1 08 fe 3c
       -0.0016609007 -0.00091719365 -0.10562517 0.031010004
000360 05 c7 97 bd 55 af 0f 3e e9 14 a7 3d aa f1 03 3e
       -0.07411007 0.14031728 0.08158285 0.12885156
000370 74 59 96 3d d0 80 1e 3d 0c a0 a1 3c 20 a9 91 3d
       0.073412806 0.038697064 0.019729637 0.07112336
000380 91 24 13 3e a3 eb 05 be 93 90 f5 bc d0 94 37 bd
       0.14369418 -0.1307817 -0.029976165 -0.044819653
000390 ea b2 f9 3d c1 da 9e 3c a1 29 e2 3d bb a6 52 bd
       0.12192328 0.01939142 0.11043096 -0.051428538
0003a0 c5 42 45 3d f0 39 84 3d 25 ff 66 bc 80 d2 e8 3d
       0.04815938 0.06456363 -0.014098917 0.11368275
0003b0 ba c9 d3 3d a7 99 19 3c e7 2c b1 bd bd 00 6c 3d
       0.10341211 0.0093750125 -0.086511426 0.05761789
0003c0 5f 32 00 3e 8a 78 53 3d 7f 00 51 3e a0 9d 4f 3d
       0.12519215 0.051628627 0.20410345 0.050687432
0003d0 b6 6a 11 be ea 16 5d bd 61 61 9f 3d f5 cc 46 bd
       -0.14200863 -0.05397693 0.077822454 -0.048535306
0003e0 e2 c4 63 bd 6d f2 e7 bc a7 97 ae bd 1c c4 e0 3d
       -0.055607684 -0.02831384 -0.08525019 0.10974905
0003f0 dc 58 e9 3c 52 ab 1a 3d 1b 27 98 3d f8 67 02 3e
       0.028484754 0.03776104 0.07429334 0.12734973

module.lstm.weight_ih_l1 f4 [256, 64]
000000 8b 9e 03 3e e9 49 42 bd 06 a3 9f 3d d9 6e 5c bd
       0.12853448 -0.047433767 0.07794766 -0.05381665
000010 53 f8 0b be 94 67 10 3e 36 b4 8c 3d c9 82 1f 3e
       -0.13668947 0.14102012 0.0687031 0.15577234
000020 20 fd e5 3c be bd dc 3d c5 34 d2 3c 76 e2 24 3d
       0.028074801 0.10778378 0.025659928 0.040255032
000030 36 e9 9c 3d f5 49 ac bd 78 e6 cb 3c e2 5f 46 be
       0.07661669 -0.08412544 0.02489017 -0.19372514
000040 00 9c cb ba b1 95 e6 bc fd 48 0d 3e 63 da 0d bd
       -0.0015534163 -0.02814755 0.13797374 -0.034632098
000050 10 3d 87 bd fe 19 96 3d af 3c 57 bd d1 d2 94 bc
       -0.066034436 0.07329176 -0.052548107 -0.018166931
000060 64 80 db bd 24 1f e1 3d 73 59 58 bd 99 d0 15 be
       -0.10717848 0.10992268 -0.05281968 -0.14630355
000070 7a 45 d6 3d 0b a8 31 be 9c 1f e3 bc b7 d0 94 3d
       0.1046247 -0.1734926 -0.027725033 0.07266372
000080 68 5b 51 3d d5 c0 32 bd 4a 06 ef bc 13 7b e0 3c
       0.051112562 -0.04364093 -0.029177804 0.027402436
000090 b2 f8 03 3e dc b1 a6 3d 4f a8 2e 3e 1a 7d 43 3c
       0.12887838 0.08139393 0.17056392 0.011931682
0000a0 a7 e9 97 3d dc 4a 16 be 67 61 ac bc fb ea 1a 3e
       0.074176125 -0.14676994 -0.021042539 0.151287
0000b0 22 02 0b be e4 22 e7 3d 99 67 45 3e 14 59 67 3d
       -0.13575032 0.11285952 0.192778 0.056481436
0000c0 50 a3 9a 3d 40 dd c0 3e 01 12 0b be f5 19 88 bd
       0.07550681 0.376688 -0.13581087 -0.06645576
0000d0 8d 16 aa bd 8a 6e 23 3c 18 ef bb bd 27 71 07 3e
       -0.083050825 0.009975085 -0.09176463 0.13226758
0000e0 e0 20 38 bc f1 b5 e8 bc 48 7d ce 3d 28 2e 7f bd
       -0.011238307 -0.028407069 0.10082489 -0.062299877
0000f0 88 9e eb 3c ed 97 99 be fc d3 c6 bd 07 cd 68 3d
       0.028762117 -0.29998723 -0.097084016 0.056836154
000100 0f f6 ae 3d a5 b1 a3 bd 52 c9 ac 3d cd e9 13 be
       0.08543026 -0.079928674 0.08436836 -0.14444657
000110 cc e1 fe 3d c0 53 f0 3d 23 84 99 3d 65 1d 79 bd
       0.12445411 0.11734724 0.07495906 -0.06081905
000120 77 d2 9e bd 79 b1 9b bc e6 a5 8d 3d 8d a6 cf 3d
       -0.07754987 -0.019005524 0.06916408 0.10139189
000130 19 31 30 3d 93 de ef 3a 0a 92 c4 bd 49 27 b7 bd
       0.043015573 0.0018300585 -0.09598167 -0.0894304
000140 63 8f 9b 3b 69 3c 51 bd 5e ee 40 bc 58 88 9b 3c
       0.0047473176 -0.051083002 -0.011775581 0.018985912
000150 61 98 c4 bd 78 69 bc 3c 83 0a 59 bd 8b c9 0f be
       -0.095993765 0.02299951 -0.05298854 -0.14041726
000160 8a cb 31 be 20 c8 73 bd 04 59 34 3e 95 e1 7a bd
       -0.173628 -0.059517026 0.17612082 -0.061250288
000170 0b e9 b6 3b 97 2b 56 bc 5b 61 9f 3d 90 e8 d7 bd
       0.00558198 -0.013071916 0.07782241 -0.10542405
000180 c0 ba cb 3d ce a8 de 3d 95 fc 67 bd 36 26 2b 3d
       0.09947729 0.10872041 -0.056637365 0.041784488
000190 b7 b3 f1 bd 08 7c 83 bd 96 1d 2e be 38 7d 81 bd
       -0.11801856 -0.064201415 -0.17003474 -0.06322712
0001a0 7c f4 3f bc e5 94 9c bb 04 25 4a bc 09 a5 46 3d
       -0.011716004 -0.004778492 -0.012337927 0.048497234
0001b0 bf 85 81 3d 1e 54 93 bd 8e 95 c3 bd dc 82 84 bd
       0.06324338 -0.071937785 -0.0955001 -0.06470272
0001c0 34 7c cd 3b 63 cb 86 3d 6e 3d 30 bd ee df d1 3d
       0.0062709097 0.06581762 -0.043027334 0.10247789
0001d0 58 a3 09 bd 41 1f 15 be 8a cf 83 bc 1a 16 4e 3d
       -0.033603042 -0.14562704 -0.016090173 0.050314046
0001e0 c5 f8 3d bd c5 e6 11 be cd 1f 1c bd a6 81 b9 3d
       -0.046379823 -0.14248188 -0.038116265 0.090579316
0001f0 44 8a 9d 3c 43 d0 33 be 00 e4 c0 bd b7 7e 86 bd
       0.01923097 -0.17559914 -0.094184875 -0.06567138
000200 73 fb ec 3d b3 34 52 3d de ba 51 bd ff 39 bc 3d
       0.11571398 0.05131979 -0.0512036 0.091907494
000210 63 4a 35 3d c8 df d2 bd 5d fe 06 3e 3f 35 18 3e
       0.044260394 -0.10296589 0.1318297 0.14864062
000220 91 9c 18 3d 3e ea a3 bd 36 12 62 3d 5a 7c d5 3d
       0.03725869 -0.080036625 0.05519315 0.10424109
000230 e9 55 fd 3e cb 68 9b 3d ba 6a 4f 3d 68 18 57 be
       0.49479607 0.07588347 0.05063889 -0.21005404
000240 95 12 12 be 61 96 09 3e ea 5d a7 3d 18 26 0b be
       -0.14264901 0.13436271 0.081722096 -0.1358875
000250 24 1c 4b 3e fa af 1c be c2 82 b8 3d fd 74 1e be
       0.19834954 -0.15301505 0.09009315 -0.15474315
000260 c2 ae 42 be fc 89 04 3d c2 c3 b6 3d 46 bc ac bd
       -0.19011977 0.032358155 0.089240566 -0.08434348
000270 1a 16 c6 3d d0 7c 91 3d 1d b6 96 bd 44 f5 ff bd
       0.09672184 0.07103884 -0.07358954 -0.124979526
000280 d8 83 a6 3c 2d 76 6a be 32 01 3e be 8e 8a 66 3e
       0.02032654 -0.22896643 -0.18555143 0.22513792
000290 d7 18 ac 3c 25 88 16 3d d3 98 dd 3c 35 56 49 be
       0.021007938 0.03675093 0.027050411 -0.19661792
0002a0 65 b1 49 bd aa c1 ae 3d 9c e3 17 3d 65 e8 d6 3c
       -0.049241442 0.08533032 0.0370823 0.026233861
0002b0 3e 1a ee bc bb b4 5f 3d 34 0c 0b 3e 62 54 95 3c
       -0.029065248 0.054615717 0.13578874 0.018228713
0002c0 f7 41 80 3c b8 55 ba 3e a2 2f 02 bd 58 db 83 3e
       0.015656454 0.36393523 -0.031783707 0.25753284
0002d0 33 27 22 be 10 7d bb 3c c9 82 5d 3b 2b 25 c3 3c
       -0.15835266 0.022886783 0.0033799878 0.023821434
0002e0 6d 67 fd bd 44 e2 be 3c 22 a8 93 bd 67 13 f0 3d
       -0.123732425 0.023301251 -0.07209803 0.11722451
0002f0 6e 87 5f 3d 59 2b fb bd 53 ca 93 bd 5b a5 93 3a
       0.054572515 -0.12264127 -0.07216325 0.001126449
000300 09 43 98 bd 07 b5 af bd 05 7e 72 3d 90 f5 17 be
       -0.07434661 -0.0857945 0.059202213 -0.14839768
000310 82 62 20 be f6 e7 d1 bc 79 73 52 bd 40 0e d5 3d
       -0.15662578 -0.025623303 -0.051379655 0.104031086
000320 c8 d4 d0 bd 54 15 9d bd ab a0 9a 3c 34 b6 8c 3d
       -0.10196835 -0.07670084 0.01887544 0.0687069
000330 ff f0 fe 3d f9 6f 80 3e c1 2b 28 be 58 78 c5 bc
       0.1244831 0.25085428 -0.16422941 -0.024105236
000340 85 8d 17 3d cb ab 15 3e 75 33 c8 3c 41 d1 d2 3d
       0.037000198 0.14616315 0.0244386 0.10293818
000350 10 84 44 3d 6b 61 0e bc 34 f4 e4 bd c4 45 7e be
       0.047977507 -0.008690218 -0.111793905 -0.24831301
000360 a7 31 06 bd b4 b6 4d 3d 7e bd 11 3e 1b 45 ba bd
       -0.032762196 0.050223067 0.14232442 -0.09095212
000370 f4 ab aa bd 54 24 2b 3e 0e 18 46 3d 0a 78 a5 bc
       -0.08333579 0.16713077 0.048362784 -0.02019884
000380 7d 26 0d be 38 b7 6e 3d b4 3a 27 3d 4e 38 f8 3d
       -0.13784213 0.0582802 0.040827468 0.12120114
000390 ee 91 a7 3d d6 51 4e 3e e6 f3 25 be 09 5f b2 be
       0.08182131 0.20148405 -0.16206321 -0.3483813
0003a0 99 ea 5c bd 85 6f e4 3c e1 09 77 3d ce 0e a2 3d
       -0.053934667 0.027885208 0.060312156 0.0791298
0003b0 78 ce 3e 3d 41 54 98 bd 21 c9 67 bc 19 44 f8 bb
       0.046583623 -0.07437945 -0.014147074 -0.0075764772
0003c0 fc 8c 9f bd ec ec 4a 3e f8 f4 34 bd 3f 75 31 3e
       -0.077905625 0.19816941 -0.044178933 0.17329882
0003d0 b2 44 60 bd 36 8a 4f bd 4d 39 97 3d a6 9a d8 3d
       -0.054753013 -0.050668918 0.07383976 0.10576372
0003e0 c0 34 20 bd b4 31 6f bd c0 2c b4 3d bc ff 5a 3e
       -0.039112806 -0.05839701 0.08797598 0.21386617
0003f0 82 6f b2 bd b7 a0 2f 3d 96 38 89 bd f1 1f 9a bd
       -0.08712675 0.04287788 -0.06700246 -0.075256236

module.lstm.weight_hh_l1 f4 [256, 64]
000000 a5 71 1d be 97 55 43 3d 93 ec 8a 3d 09 88 ba 3d
       -0.15375383 0.047689047 0.06783404 0.09107978
000010 bf 83 15 3e 86 8a e2 3d f5 66 28 3e 14 1c a6 3d
       0.14601038 0.110615775 0.16445525 0.08110824
000020 a8 f1 8a 3d 6b 6e 28 bc b5 9e 1d 3d 39 24 b1 bd
       0.067843735 -0.010280232 0.038481433 -0.08649487
000030 a7 ed cf bc 6e 01 bb 3d 48 e2 4e 3d ef 56 3a 3e
       -0.025381876 0.09131132 0.050508767 0.18197225
000040 cb e0 5c bc 1f c5 70 bc 0c 32 87 3c 37 fb 3c be
       -0.013481329 -0.014695435 0.016503356 -0.18455206
000050 e6 30 c8 bd fa c4 99 3e 37 96 01 be 43 64 a8 bd
       -0.09774952 0.30033094 -0.12654959 -0.082222484
000060 4f 74 91 3c c9 a1 0e 3d 69 fd c7 3d 5e 89 00 bd
       0.017755656 0.03482226 0.09765131 -0.031381004
000070 18 bf af bd c0 3a 43 3d 81 72 63 bd 92 0e 28 bd
       -0.0858137 0.04766345 -0.05552912 -0.04102952
000080 2b 3f 32 3e 81 7b fa bd e0 8d 95 bd 30 16 0f bb
       0.17406909 -0.12230588 -0.07302451 -0.0021833293
000090 28 a8 d0 bc 4d ab 3c 3e a6 b4 8c 3c b5 89 0d bd
       -0.025470808 0.18424721 0.017175984 -0.034555156
0000a0 20 12 49 3c 88 25 25 be bb 8b b4 3d 5b 80 38 3c
       0.012272388 -0.16127598 0.08815714 0.011261071
0000b0 68 9a 1f 3e 59 b6 ce bd 8f d5 3a 3e 86 ae c4 3d
       0.15586245 -0.10093374 0.18245529 0.096036
0000c0 3d 94 44 be 4d 04 14 be a1 f1 a6 3e ed a4 4f bb
       -0.19197173 -0.14454766 0.32606223 -0.0031683997
0000d0 c5 88 f4 3d 58 2f 2b bd 79 c0 07 3e 55 0e 26 bd
       0.11940149 -0.041793197 0.13257016 -0.04054101
0000e0 07 cc dd 3c 6e a8 4f bd e5 47 83 bd b2 a9 11 3e
       0.027074827 -0.050697736 -0.06410197 0.1422489
0000f0 49 bc d6 3d 93 9b 57 be 82 bd a2 bd 5e af e1 3d
       0.10485131 -0.2105544 -0.07946302 0.11019777
000100 ec ed 21 3e 50 d5 e8 3c f4 b4 a4 bd b0 3d e4 bc
       0.15813416 0.028422028 -0.080423266 -0.027861446
000110 22 db 2e be b4 f6 bd bd 1d 33 c4 bc 70 a5 23 bd
       -0.1707578 -0.092755705 -0.023950154 -0.039952695
000120 fa 77 e5 bc 00 bb ab bc c1 89 00 3d 71 52 e0 3d
       -0.02801131 -0.020963192 0.031381372 0.109532245
000130 c3 a2 e7 3b be 2d 83 bd 5e 2f 0f bd 65 0e f1 3c
       0.0070689633 -0.06405209 -0.034957282 0.02942581
000140 60 e7 56 bd d4 18 88 3d 0e a0 40 3d 76 02 2b bd
       -0.05246675 0.066453606 0.04702764 -0.041750394
000150 0c fe 5d bd 21 ba 05 3d 66 1e b7 3d 0f fd 66 bd
       -0.054197356 0.03264821 0.08941345 -0.05639368
000160 23 da ad bd d7 ef 10 3e 43 f0 fa bd 23 4a 3f bd
       -0.08488872 0.14153992 -0.122528575 -0.04670156
000170 e6 74 9d bd 6d 3f c4 bd 42 fa df 3d 2c 3d e4 bb
       -0.07688312 -0.0958241 0.10936405 -0.0069653
000180 df 84 81 bd b5 0f 01 3e 8b 3f 6d be 50 77 a8 bc
       -0.06324171 0.12603648 -0.23168771 -0.020564705
000190 c5 f8 19 be ac d8 fd 3d 43 d0 8a 3c 8b 94 8f 3d
       -0.15036304 0.123948425 0.01694501 0.07010754
0001a0 6c f1 a3 bd e2 ef f7 bd e8 7e d9 3d 46 8b 1a 3d
       -0.08005032 -0.12106301 0.106199086 0.037730478
0001b0 a1 0d 16 3e ca 1b 29 bd b7 bd 24 3e f4 da 9d be
       0.14653637 -0.041286267 0.16087995 -0.3083111
0001c0 dd 3c 83 3e 10 d2 f0 3d 52 b2 e8 3d 10 23 92 bb
       0.25632372 0.11758816 0.11362137 -0.004459746
0001d0 7f e7 c3 3d 18 95 0a 3d f5 7c d5 bd 99 0f 2d 3c
       0.09565639 0.033833593 -0.10424224 0.010562801
0001e0 d5 67 2c 3d ea 18 d5 3c 63 a0 0f be 9e cf 6e bd
       0.04209121 0.026012857 -0.14026026 -0.058303468
0001f0 87 74 08 be ab c2 a6 bd 5c e8 2b bd 14 23 7e 3e
       -0.13325702 -0.08142599 -0.041969642 0.24818069
000200 ad 46 af bd ca 7b 08 bd 29 e3 f4 bd 5a 6f df 3d
       -0.08558402 -0.03332118 -0.1195739 0.109099105
000210 22 0b 1d 3d 6e 28 82 3d 36 5e a3 bd 81 c3 2f 3e
       0.038340695 0.063553676 -0.07976954 0.17164423
000220 20 07 78 bd 84 a5 b4 bd 02 d5 dd 3c 94 7d 28 bc
       -0.06055367 -0.08820632 0.02707911 -0.010283846
000230 4a b9 32 3d a2 42 13 be eb e9 b0 3c 83 1b 60 bd
       0.043633737 -0.14380887 0.021595916 -0.054713737
000240 19 bc 40 bd 23 0c eb bd 86 f4 50 bd 89 89 7f be
       -0.047054384 -0.11476924 -0.051014446 -0.24954809
000250 e4 d7 42 be b6 47 8a 3d 74 b7 eb 3c 45 56 be 3d
       -0.19027668 0.06751959 0.028774 0.09293798
000260 d1 f4 f9 bb c2 02 6e 3e 2d 78 8f 3b 50 6e 0e be
       -0.0076280613 0.2324324 0.0043783397 -0.13909268
000270 cb 77 0f 3e bb 03 9b bc f5 50 ab bd de b2 d8 3d
       0.14010541 -0.018922677 -0.08365051 0.10580991
000280 82 36 9d bd 1a 94 b7 3c eb 30 b4 3d 53 c6 8a bd
       -0.07676412 0.022409488 0.08798393 -0.067761086
000290 ab 92 1d bb 4a ef 65 3e 94 4f 33 bd e7 02 4a be
       -0.002404372 0.22454563 -0.043777063 -0.1972767
0002a0 3d d9 59 3e ab e1 86 be 34 db 0c 3d 6f 02 1f be
       0.21274276 -0.26344046 0.034388736 -0.15528272
0002b0 a8 17 2e 3c 59 a9 93 bd 2f d4 41 3e 5c e2 b3 3d
       0.010625757 -0.07210035 0.18928598 0.08783409
0002c0 07 90 62 bd e8 45 1c be fc 27 08 bc cf f1 b3 bd
       -0.055313136 -0.15261042 -0.008310314 -0.08786356
0002d0 4a 8a 06 3e ad d4 46 be 49 c0 08 3c dd 1f 7e 3d
       0.1313869 -0.19417067 0.008346626 0.062042106
0002e0 b0 8a 92 3d 97 ec 31 bd 70 d7 fe 3d d0 cd 84 3c
       0.07155359 -0.04343852 0.12443435 0.01621142
0002f0 de c6 6a 3d 12 bf 56 be 0c 46 ec bd 85 9b be 3c
       0.05731856 -0.20971325 -0.11536798 0.023267517
000300 3a b6 2e 3e 03 a4 00 bd a4 ab 93 3d 8e dc 1d bd
       0.17061701 -0.031406414 0.07210472 -0.038540415
000310 c1 5e 88 bc 86 19 1a 3e 75 df 28 3e 6d 53 3f 3e
       -0.016646745 0.15048799 0.16491492 0.18684168
000320 d9 82 da 3c 0a 50 28 3d e9 69 59 3d ac 91 3d 3d
       0.026673721 0.041091956 0.05307952 0.0462815
000330 d4 9b 88 bc 7c 86 3a be 28 15 9d bd 62 56 81 3e
       -0.016675867 -0.18215364 -0.07670051 0.25261217
000340 30 e1 af 3c a7 db 15 3c fe b3 3c 3e fa 8f d7 bc
       0.021469682 0.0091466075 0.18428037 -0.02631377
000350 1d 32 cd 3c ed b7 2b 3e e7 c0 d5 bd 49 67 06 3c
       0.02504831 0.16769381 -0.10437184 0.008203336
000360 dd db 05 be 0d 78 97 bd 60 15 cf 3c 63 26 a5 3c
       -0.13072152 -0.07395945 0.025278747 0.020159906
000370 26 48 ca bd ba 13 ee bd 81 2d 8b 3d 16 08 1d bd
       -0.098770425 -0.11624856 0.067957886 -0.03833779
000380 a0 89 87 bd 89 cd 8d 3d 69 54 3d be b5 c4 30 be
       -0.06618047 0.06923968 -0.18489231 -0.17262538
000390 3a 2e b3 3d 61 5e a6 bc d6 33 b2 3d bf 40 77 3d
       0.087490514 -0.020308675 0.08701293 0.06036448
0003a0 08 6d bd 3d d5 90 c3 bd 19 fb 6b bd 7c 0c d2 bd
       0.09249312 -0.09549109 -0.057612512 -0.102562875
0003b0 08 a8 7a 3d 7d 9f 03 3d 6e c3 9b 3d 1e 2a 77 be
       0.061195403 0.03213452 0.07605635 -0.2413716
0003c0 79 c5 fe 3c 4c c3 dd 3d ab d5 c1 3d 5c 9d 92 3c
       0.031100022 0.108282655 0.09464582 0.0178973
0003d0 c2 6a eb bd 23 bc d0 bd 9b 53 25 bd dd fa 9d bd
       -0.11494972 -0.10192134 -0.040362936 -0.07713864
0003e0 72 93 be 3c 38 10 bc bd 4f 75 c9 bd e8 86 23 3d
       0.023263667 -0.09182781 -0.09836828 0.03992358
0003f0 5b 12 e0 3a f9 02 0f be 51 67 58 3d d4 ad 18 3e
       0.0017095314 -0.13965978 0.052832905 0.1491006

module.lstm.bias_ih_l1 f4 [256]
000000 e6 8a fd bd 42 7f a8 3d 35 f9 12 3d 46 39 b3 bd
       -0.123800084 0.082273975 0.035882194 -0.087511584
000010 90 33 dd 3d 93 92 c4 3d 27 5a 16 bd c6 00 85 3d
       0.108008504 0.09598269 -0.03670707 0.06494288
000020 08 71 1b 3e 3f c3 3a 3d 8f 3d 38 bb 24 53 e3 3c
       0.15179837 0.045596357 -0.0028112864 0.027749605
000030 91 14 46 3d 07 91 44 bd 86 46 97 3e 0c 0f 64 be
       0.048359457 -0.04798987 0.29545993 -0.22271365
000040 fe 0e 17 be 8a b8 06 bd bf 83 7b bd 22 07 76 bb
       -0.14751813 -0.032890834 -0.06140494 -0.0037540873
000050 4f 66 9f bd 0a fe a9 bd 84 f7 09 3e 1b 46 11 3e
       -0.07783186 -0.08300407 0.13473326 0.141869
000060 61 b9 22 3e fd 68 a1 bb 3b c4 65 3e 2b 70 bc 3c
       0.15891029 -0.0049258457 0.22438137 0.023002705
000070 d9 fe bc 3d ce f3 6e bd ce 6c f4 bc 57 d3 32 be
       0.09228296 -0.05833798 -0.029837038 -0.17463432
000080 27 29 cf ba ea 6a 51 3c 27 a6 ad bd d7 4a d2 bd
       -0.0015805111 0.012781838 -0.08478957 -0.10268181
000090 5f a8 28 3d 32 00 63 bb 1e a6 12 bc 27 66 88 bb
       0.041176196 -0.0034637568 -0.008950738 -0.004162568
0000a0 e9 76 d8 bd b6 d7 ba bd be 7e 94 bd 3c 50 3f be
       -0.10569555 -0.09123175 -0.07250737 -0.1868295
0000b0 94 f5 b7 bb 2b e3 ac 3c e5 13 dd bd 9a 23 52 3e
       -0.005613992 0.021104416 -0.1079481 0.20521393
0000c0 75 56 cd 3b e6 8a 08 3c 58 d9 b6 bd 4f d4 81 bd
       0.00626641 0.008333897 -0.08928174 -0.06339323
0000d0 8a d9 86 3d f9 66 5c 3d 5c 23 04 be f2 a7 cc bd
       0.06584461 0.05380914 -0.12904114 -0.099929705
0000e0 8f be 71 3d 4d 1d 0e 3e 4c 64 e6 bc 72 08 ab 3c
       0.05901962 0.13878365 -0.028123997 0.02087805
0000f0 06 88 b5 bc f4 16 04 3d 33 b8 d2 bd 1c 2f 8b bd
       -0.022159588 0.032248452 -0.102890395 -0.06796095
000100 db 1e 4b 3d d4 9c 41 3d 96 b0 ba bd fb 45 15 3c
       0.049589973 0.047268704 -0.09115712 0.009110923
000110 6a d5 02 3e af b0 90 3d 59 e2 4c 3c da 1c 99 3d
       0.12776724 0.0706495 0.012505137 0.07476206
000120 28 0b 25 3e f8 73 20 3d 01 ac 13 3e 86 1d 14 3d
       0.16117537 0.039173096 0.14421083 0.03616097
000130 17 6b b7 bd 33 e2 05 3d 12 fa de 3d b4 7d b0 3e
       -0.08955973 0.032686424 0.10887541 0.34470904
000140 b2 a1 2b 3e fb ce 4b 3e 0f e5 8d bd 3e 15 1e 3e
       0.167609 0.19903176 -0.06928455 0.15437791
000150 22 7f 9c bd 7c 47 84 3d e5 1b 37 3e 00 9c b8 bc
       -0.07641436 0.06458947 0.17881735 -0.022535324
000160 e2 89 2a 3e ca 4e d3 3d 73 b0 08 3e 31 b7 a9 bd
       0.1665416 0.10317762 0.1334856 -0.08286894
000170 a9 8a 2a 3e 04 b7 2d 3e cd 50 ab bd 52 16 16 3c
       0.16654457 0.16964346 -0.08365021 0.009160595
000180 77 ed 00 3e 33 34 ec 3d 7a b0 55 bd 17 91 1a bd
       0.12590586 0.11533394 -0.052170254 -0.037736025
000190 b9 53 09 be 8c 33 46 3e 37 95 e1 3d 59 33 d3 bc
       -0.13410844 0.19355601 0.110147886 -0.02578132
0001a0 5a 03 bc 3c 0b a4 8b bd 25 e6 21 3e d9 80 1b 3e
       0.022950817 -0.06818398 0.1581045 0.1518587
0001b0 36 12 5c 3e 4d 2f 2a bc bf 1d d1 bc c0 22 3b bc
       0.21491322 -0.010387254 -0.02552688 -0.011421859
0001c0 c7 77 e7 bd 20 26 db 3d a1 a5 86 3c 19 91 ef 3c
       -0.113021426 0.10700631 0.0164364 0.029243993
0001d0 e5 b2 c3 3d 86 e9 ed 3d 63 a2 08 3e 23 67 0c 3e
       0.09555606 0.11616807 0.13343196 0.13711219
0001e0 ed c2 09 3e f8 0f 5c bd 5d 13 bb 3c 8b 24 b3 bd
       0.13453265 -0.053726166 0.022836382 -0.087472044
0001f0 c9 fd db b9 bc 94 a8 3b b2 de 4b 3e 8e f0 84 bc
       -0.0004196002 0.0051446836 0.1990917 -0.016227987
000200 8b 15 80 bd bf 70 24 bd 15 18 b6 bd 1c 6b 92 bd
       -0.06254109 -0.040146586 -0.08891312 -0.07149336
000210 a3 25 86 3d 52 b2 74 3d 3e 44 cc 3c 7b 77 64 3d
       0.065501474 0.059740372 0.024934884 0.055778008
000220 8c 75 59 3d 86 6c 11 bc 24 d8 d0 bd 23 1b 89 3d
       0.053090617 -0.008875972 -0.101974756 0.06694629
000230 07 10 99 3c 61 a5 8b bb 1e 48 19 3d 25 ec 97 bc
       0.0186844 -0.004261658 0.037422292 -0.01854522
000240 94 75 99 bc b9 02 ce 3d 17 9c 88 3d 75 57 cd 3d
       -0.018732823 0.10059113 0.06670397 0.10026447
000250 fe ba cc bc e0 65 9b 3d 2b f1 21 3e f2 52 9e bc
       -0.024991509 0.075877905 0.15814655 -0.01932666
000260 e7 67 88 bd 84 64 93 3d 71 63 3e be ce b0 85 3d
       -0.06660443 0.07196906 -0.18592621 0.065278634
000270 d6 40 85 3c a7 6d 08 be 49 27 84 3d a0 c4 8b bd
       0.016266268 -0.13323079 0.064528055 -0.068246126
000280 03 74 16 be d1 9a 79 3e 88 78 f9 3c f9 6c 04 bd
       -0.14692692 0.24375464 0.030452982 -0.032330487
000290 90 24 1f be 6f 1f 2c 3d c8 d0 0c bd d3 04 ff bb
       -0.15541291 0.042022165 -0.034378797 -0.0077825575
0002a0 22 76 6a bd 05 cc 1d bd d9 51 12 3d 8c 52 3a bd
       -0.057241566 -0.038524646 0.035722587 -0.04548888
0002b0 f2 12 1d bc d7 f9 1c bc 4f 31 5c 3d cd af a4 3c
       -0.009587036 -0.009581051 0.05375796 0.02010336
0002c0 9b 67 6b bd 70 a2 96 3c 16 ea cb bd f6 8c a2 3d
       -0.057471853 0.018388003 -0.09956758 0.079370424
0002d0 50 4d d0 bd 23 23 f1 3d 92 07 ec bd 5d d0 a5 bd
       -0.10170996 0.1177428 -0.115248814 -0.08096383
0002e0 c1 c1 ad bd 84 0f 87 3c 43 4a 05 be 85 d1 08 3d
       -0.08484221 0.01648689 -0.1301661 0.03340294
0002f0 09 3f 23 bd 6c dd 4d bd 9d 5a 95 bb 5e 17 ff bc
       -0.039855037 -0.050259992 -0.004557921 -0.031139072
000300 2b 2e 10 bd 70 8a 41 3d 44 b4 1a bd 90 bf f3 3d
       -0.03520028 0.047251165 -0.03776957 0.11901772
000310 1a ee 9e bc e3 ea 21 3d 79 03 0c 3e 2d 46 d7 3d
       -0.019400645 0.039530646 0.136732 0.10511432
000320 95 c9 cc bd 8a ce 2c 3e d4 a7 94 bd a7 56 02 3e
       -0.09999386 0.16875663 -0.07258573 0.12728368
000330 fc b8 fa bd e1 3d a2 3d 09 fe c7 3c 2a 23 9e 3e
       -0.12242314 0.07921959 0.024413126 0.30886203
000340 7d db 82 3d b4 62 81 3d 1e 57 28 3d 74 ae 05 3c
       0.0638952 0.06317654 0.041098706 0.008159269
000350 5c 6f 5d bd 58 50 9e bd 63 aa c8 3d cd fc a7 bd
       -0.05406128 -0.07730168 0.09798124 -0.08202515
000360 ca d8 9d 3d c9 01 28 3e f8 d8 e7 bc 48 c2 39 bd
       0.07707365 0.16406931 -0.028301701 -0.045351297
000370 2f 33 46 bc 7b 27 c5 3d af 11 3c bd b9 36 20 bd
       -0.012097164 0.09626671 -0.045915302 -0.039114688
000380 da 3e 07 be 16 ae ac 3d cc 69 3f bd 83 0b 04 3e
       -0.1320757 0.08431642 -0.046731755 0.12895016
000390 94 20 e9 3c 38 28 f4 bd 60 16 24 3d 2c 8b 85 bc
       0.028457917 -0.119217336 0.0400604 -0.016301714
0003a0 24 c1 16 3e 26 3a 09 3d 77 d2 e9 bc f0 6e 95 bc
       0.14722115 0.03350272 -0.02854274 -0.018241376
0003b0 2a fd 12 bc 57 23 c4 bd b2 aa e6 3d 99 c1 6e bd
       -0.008971492 -0.09577053 0.11263026 -0.058290098
0003c0 7a 3e 4f bd ae ac 4e 3d 01 78 13 3e 2c 62 b0 bd
       -0.05059669 0.05045765 0.14401247 -0.08612475
0003d0 f6 6b 42 bd 3b d5 fd b9 63 d3 6d bd 6c c9 fc 3c
       -0.04746624 -0.0004841479 -0.058062922 0.030857764
0003e0 67 37 cd 3d e7 c8 ab bd de 4b de 3c 0c 25 8f bd
       0.10020333 -0.083879285 0.027135786 -0.06989488
0003f0 5b 82 8d bd 1f bd ba bd 28 9c 0a bc 1d 3a b4 3d
       -0.06909629 -0.09118103 -0.008460082 0.08800147
