.checkpoints/lstm_best_model.pt (torch, 356492 bytes, 13 tensors)

module.lstm.weight_ih_l0 f4 [256, 19]
0.090786286 0.11974036 0.00014753596 0.15564163 -0.028950574 0.03998859 -0.09792064 0.04451626
0.07521785 -0.112854734 0.12976432 0.033585124 0.10189842 0.015652627 0.047690902 -0.051642817
0.097236685 0.0022635814 -0.08256187 0.070545726 -0.019960163 0.026998483 -0.009554529 0.11965375
-0.067594945 -0.029645106 0.00033027542 -0.041153926 0.051715765 -0.06780859 0.16398923 -0.0631577
0.14768213 0.0523466 0.0005759731 0.10670781 0.045130696 0.13087766 0.054782435 0.0023052997
0.076605245 0.0071632243 0.098806314 0.15677947 0.11299739 -0.011694556 0.11672123 0.07150595
0.10475485 -0.03466618 -0.08154882 -0.0019065844 -0.047820188 0.14980245 0.075462796 0.09160997
0.08125557 0.07739932 0.15438636 -0.07952549 0.0006670884 -0.12358433 -0.02359814 -0.123854674
-0.03865574 -0.11735418 0.077628165 -0.04813534 -0.016896378 -0.13836265 0.07027903 -0.013363889
0.063905865 -0.10237747 -0.19894114 -0.27325848 -0.047193795 0.088617414 0.08346155 0.1481135
-0.03416588 -0.05843794 0.08710668 -0.020217365 0.102238886 0.009841035 0.122349314 -0.04636122
-0.022911333 0.085539885 0.057402037 0.0047530304 0.10285053 0.101123564 -0.07384105 -0.054032326
0.18669407 -0.07397046 -0.0527972 -0.11104049 -0.051953077 -0.011053283 -0.051532708 -0.0880543
-0.05000742 -0.16215515 -0.16337875 -0.034180794 -0.1310135 -0.10652266 0.074276224 -0.041372456
-0.0017156999 -0.08445043 -0.022658061 0.019875117 0.07211215 -0.06881315 -0.076092586 -0.037757378
-0.077559486 -0.108674526 -0.047078997 -0.1494636 -0.13618112 -0.11517489 -0.0041894917 -0.13602862
0.08591793 -0.09646544 0.12955722 0.057398584 -0.14615193 0.08141095 0.010501785 -0.10099439
-0.1470344 -0.13858943 0.03764669 -0.08083309 0.012090689 -0.085248664 0.06684511 -0.2134643
-0.12369438 0.04889043 0.02378812 0.06621763 0.06627252 -0.1756702 -0.024834191 -0.035123214
-0.025673034 -0.18183996 0.10055938 -0.1272354 0.00076784653 0.009750374 -0.006730623 -0.11223187
0.033239216 0.014775114 0.006935256 -0.14114362 -0.017258745 -0.075976945 -0.093838535 0.09653525
0.030350761 -0.10618444 -0.22987707 0.028461028 0.11726781 -0.0016920156 -0.036670096 -0.036051255
-0.09912328 0.035978705 0.09884529 -0.1349681 0.06656081 0.12570797 0.08600347 -0.030476963
0.09289346 0.009416359 0.08398452 0.025114873 -0.01027943 0.050895214 -0.037931215 -0.005978688
0.098813064 0.13476901 -0.008526675 -0.03556989 0.025977423 0.0037600761 0.058300763 0.05629383
-0.104889944 -0.026867818 0.1135365 0.06518274 0.019014176 -0.07824704 -0.08878711 -0.15524793
-0.0579049 0.096642874 0.13723871 0.11599228 -0.051480267 -0.022682166 0.02916191 0.17019852
0.07825883 0.027072968 0.114643544 0.018461283 -0.011319525 0.15027137 0.008239476 0.029167889
-0.06471614 0.13171911 0.14316946 0.09256534 0.047775935 -0.26253724 0.1772239 0.16799162
-0.004550717 0.3593511 -0.13513532 0.004289352 -0.28051594 -0.1591006 -0.323552 -0.17142104
0.13969101 0.33852422 -0.049330782 0.018506879 0.04572102 -0.059787024 -0.102185376 0.09100658
0.011560967 0.123967 0.0075537255 -0.04310626 0.028707184 -0.010945485 0.012730585 -0.06808607
00000000: 29ee b93d 6f3a f53d e2b3 1a39 8560 1f3e
00000010: c129 edbc 13cb 233d 9e8a c8bd af56 363d
00000020: d10b 9a3d 6220 e7bd f0e0 043e 8e90 093d
00000030: 1eb0 d03d f039 803c 8957 433d 6b87 53bd
00000040: 0724 c73d 9858 143b 3316 a9bd 477a 903d
00000050: 7f83 a3bc ec2b dd3c 998a 1cbc 060d f53d
00000060: 386f 8abd 4bda f2bc d128 ad39 0591 28bd
00000070: e9d3 533d 3bdf 8abd cbec 273e d358 81bd
00000080: fc39 173e 6369 563d e7fc 163a a089 da3d
00000090: f7da 383d cb04 063e 8c63 603d 8314 173b
000000a0: 36e3 9c3d 7bb9 ea3b f75a ca3d cc8a 203e
000000b0: 2d6b e73d 869a 3fbc 8a0b ef3d b671 923d
000000c0: b689 d63d 20fe 0dbd 1103 a7bd 5be6 f9ba
000000d0: 1adf 43bd d065 193e 3d8c 9a3d 029e bb3d
000000e0: 5269 a63d 8983 9e3d 7517 1e3e 43de a2bd
000000f0: 8bdf 2e3a c819 fdbd e350 c1bc 85a7 fdbd
00000100: 7b55 1ebd 6357 f0bd 84fb 9e3d 9029 45bd
00000110: 466a 8abc f0ae 0dbe 74ee 8f3d 37f4 5abc
00000120: 14e1 823d 47ab d1bd 3ab7 4bbe 89e8 8bbe
00000130: 484e 41bd 0c7d b53d e4ed aa3d 11ab 173e
00000140: 86f1 0bbd 9f5c 6fbd fd64 b23d e39e a5bc
00000150: 9f62 d13d 4b3c 213c 4792 fa3d 43e5 3dbd
00000160: 8cb0 bbbc 892f af3d 661e 6b3d 4fbf 9b3b
00000170: 4ca3 d23d df19 cf3d fa39 97bd 0051 5dbd
00000180: bb2c 3f3e d37d 97bd e041 58bd 3269 e3bd
00000190: c0cc 54bd d418 35bc f613 53bd d055 b4bd
000001a0: 95d4 4cbd 000c 26be c24c 27be 2901 0cbd
000001b0: 6728 06be 8d28 dabd 221e 983d 2a76 29bd
000001c0: 56e1 e0ba 59f4 acbd 669d b9bc 24d1 a23c
000001d0: 89af 933d e9ed 8cbd 6ed6 9bbd 7ba7 1abd
000001e0: 82d7 9ebd c090 debd e8d5 40bd fc0c 19be
000001f0: 1073 0bbe d0e0 ebbd 0148 89bb 164b 0bbe
00000200: bdf5 af3d ac8f c5bd a6aa 043e c71a 6b3d
00000210: daa8 15be c9ba a63d ae0f 2c3c 26d6 cebd
00000220: 3090 16be 63ea 0dbe 6a33 1a3d d28b a5bd
00000230: 0618 463c da96 aebd 17e6 883d 6396 5abe
00000240: 7b53 fdbd 5541 483d 4edf c23c 1c9d 873d
00000250: e3b9 873d e4e2 33be 1371 cbbc 5cdd 0fbd
00000260: 4150 d2bc 4134 3abe 14f2 cd3d ff49 02be
00000270: 4f49 493a 08c0 1f3c 8f8c dcbb d3d9 e5bd
00000280: d825 083d 5213 723c 2541 e33b f487 10be
00000290: 3662 8dbc cd99 9bbd 6b2e c0bd 46b4 c53d
000002a0: 29a2 f83c 3a77 d9bd e564 6bbe 1a27 e93c
000002b0: 1b2a f03d 9fc6 ddba 6233 16bd 7baa 13bd
000002c0: 2501 cbbd 685e 133d 666f ca3d 1435 0abe
000002d0: 0951 883d 97b9 003e 9622 b03d d3aa f9bc
000002e0: ed3e be3d 1247 1a3c 1300 ac3d b5bd cd3c
000002f0: 0e6b 28bc 8077 503d c35d 1bbd dfe8 c3bb
00000300: 815e ca3d e300 0a3e 78b3 0bbc bcb1 11bd
00000310: 9bce d43c 9c6b 763b c8cc 6e3d 5c94 663d
00000320: 8ad0 d6bd e619 dcbc d385 e83d 877e 853d
00000330: 9ec3 9b3c fc3f a0bd 04d6 b5bd 50f9 1ebe
00000340: b02d 6dbd b3ec c53d 4e88 0c3e 5c8d ed3d
00000350: f9dc 52bd f3cf b9bc f5e4 ee3c 8548 2e3e
00000360: 2a46 a03d 21c8 dd3c 3cca ea3d 1e3c 973c
00000370: 8775 39bc bde0 193e defe 063c 7ff1 ee3c
00000380: e589 84bd 60e1 063e 049b 123e e692 bd3d
00000390: b3b0 433d 486b 86be 2f7a 353e ff05 2c3e
000003a0: 2e1e 95bb defc b73e ea60 0abe b18d 8c3b
000003b0: c99f 8fbe 45eb 22be 9ca8 a5be ff88 2fbe
000003c0: 290b 0f3e 0c53 ad3e 130f 4abd bd9b 973c
000003d0: f745 3b3d 3de3 74bd 9146 d1bd a861 ba3d
000003e0: 366a 3d3c 69e2 fd3d 3e85 f73b 3190 30bd
000003f0: 542b eb3c b154 33bc f293 503c b670 8bbd

module.lstm.weight_hh_l0 f4 [256, 64]
0.113530435 0.015450263 0.10491567 -0.011460394 -0.120285265 0.063876905 0.0631498 0.0898974
0.017394952 -0.02404066 -0.11186265 -0.11174153 0.060497448 0.12356213 -0.00561963 -0.03371593
0.06405313 0.016129956 0.0844159 -0.109694086 -0.11247157 -0.06720163 -0.03461965 0.09620146
0.02509912 -0.10966748 -0.027841477 0.035196107 -0.021723732 -0.010514301 0.06284396 -0.04033564
0.03714688 0.09856704 0.01415535 0.0454704 -0.067895256 -0.10971977 -0.085981235 0.05607335
0.09160915 0.024538616 0.114542715 -0.048970584 0.043471772 -0.09925433 0.047595553 0.17955023
0.05682493 -0.52240264 0.0130872205 -0.060153622 -0.10277933 -0.15588953 0.108530685 -0.04825099
-0.03821455 -0.098800436 -0.022632645 -0.10291602 0.020705337 0.0035710318 0.06742502 0.046816193
0.1333291 -0.05100877 -0.038018845 -0.15661973 -0.04036564 0.13489065 -0.08714289 -0.018250521
0.09693279 0.17760932 -0.104168504 -0.1261685 -0.13368268 0.09427274 0.04963646 0.125479
0.12847584 -0.08101869 0.06587371 0.051705256 -0.033582754 0.025508968 0.02405873 0.04537566
-0.014870162 0.14316471 0.010651797 0.07994484 0.06691794 0.019941699 -0.010652739 -0.056205068
0.06720763 0.03968407 0.040819 0.036845416 0.007759459 -0.11288809 -0.08408345 0.07113972
0.03233969 0.0011288294 -0.049478948 0.07356989 0.026896378 -0.0843091 -0.15468304 0.08795145
0.0007137161 -0.023474 -0.11079842 0.038860455 -0.034394022 0.021062389 -0.075606324 -0.15771945
-0.07512426 0.06722375 0.06726996 -0.14278705 0.053389907 -0.06785734 -0.12783946 0.12530197
0.10242608 0.12341437 -0.014414363 0.07525639 -0.07390378 0.11038508 -0.034409896 0.05273943
0.096515656 -0.052146737 0.10431704 -0.07102912 0.030871535 -0.019792197 0.028560638 0.17346236
0.003220824 -0.14551128 0.1258032 -0.020896457 -0.022241596 0.12366547 -0.058714256 0.15852126
0.085569315 0.015218217 0.07007708 0.05072664 0.080813065 0.027883818 -0.034882262 0.022868218
0.10233049 0.17341052 0.06142776 0.020016436 -0.05674629 -0.057538252 -0.1376124 0.07003495
0.17388083 0.0273992 -0.05911292 0.057655092 -0.15668978 0.0623999 -0.1617671 -0.059592925
-0.093636535 0.022941738 -0.0004569289 0.06267282 0.08046636 0.06770246 0.13291587 0.04753212
0.15934469 -0.082849644 -0.07731304 -0.0073120464 0.061767604 -0.06795753 -0.13570361 -0.05559677
-0.02586296 0.010532874 0.030573934 -0.14607792 -0.15932819 0.06897619 0.09442046 -0.0385712
0.1140018 0.20716807 0.0723737 -0.040090747 0.04871187 0.19408292 0.012537645 -0.13317649
0.009736372 0.075469725 0.31881744 0.044389304 0.10143235 0.25233412 0.33478293 -0.1599838
0.06422283 -0.013091275 -0.23498197 0.088873684 0.021892196 -0.26914185 -0.27759105 0.13221532
0.097263515 -0.10902322 0.24940613 -0.1425429 0.09791392 0.075195484 -0.052843213 0.23422807
-0.047044568 -0.10578547 0.21989292 0.12144567 -0.05472659 0.11994792 0.0352719 0.068247296
0.034764796 0.08346155 -0.18334816 0.26195374 0.29611406 0.079506874 -0.12894209 0.091697544
0.070886165 0.08902656 0.11841539 -0.13441657 0.058078747 0.6245946 -0.39418212 -0.043272372
00000000: a582 e83d 1a23 7d3c 07de d63d 60c4 3bbc
00000010: 1f58 f6bd e5d1 823d af54 813d 211c b83d
00000020: dc7f 8e3c ebf0 c4bc 3f18 e5bd bed8 e4bd
00000030: 2ccc 773d 240e fd3d e024 b8bb b719 0abd
00000040: 4a2e 833d f822 843c 3ee2 ac3d 4ba7 e0bd
00000050: 7f57 e6bd 02a1 89bd 56cd 0dbd 4505 c53d
00000060: ab9c cd3c 5899 e0bd cf13 e4bc cb29 103d
00000070: f8f5 b1bc 2d44 2cbc 56b4 803d fc36 25bd
00000080: 5427 183d 84dd c93d d7eb 673c 2c3f 3a3d
00000090: ab0c 8bbd c2b4 e0bd ee16 b0bd 2bad 653d
000000a0: 949d bb3d 3505 c93c 5f95 ea3d 6195 48bd
000000b0: 750f 323d db45 cbbd 8ef3 423d 04dc 373e
000000c0: 42c1 683d 2ebc 05bf c86b 563c a563 76bd
000000d0: f87d d2bd 81a1 1fbe 5645 de3d d5a2 45bd
000000e0: dc86 1cbd e257 cabd 1968 b9bc a2c5 d2bd
000000f0: 3d9e a93c f907 6a3b 2116 8a3d 56c2 3f3d
00000100: 6c87 083e 92ee 50bd a6b9 1bbd ec60 20be
00000110: 7156 25bd c620 0a3e f977 b2bd 1e82 95bc
00000120: b384 c63d 38df 353e 4c56 d5bd 5132 01be
00000130: 1de4 08be 1112 c13d 9a4f 4b3d 917d 003e
00000140: 2c8f 033e 20ed a5bd cce8 863d e4c8 533d
00000150: 128e 09bd 2ff8 d03c d016 c53c d4db 393d
00000160: fba1 73bc c599 123e e084 2e3c 1fba a33d
00000170: 460c 893d c65c a33c d388 2ebc 4937 66bd
00000180: 27a4 893d c38b 223d d331 273d 38eb 163d
00000190: 0f43 fe3b df31 e7bd f233 acbd b4b1 913d
000001a0: 9f76 043d 3bf5 933a 70aa 4abd cfab 963d
000001b0: cb55 dc3c 40aa acbd 3b65 1ebe e41f b43d
000001c0: ad18 3b3a 8c4c c0bc 48ea e2bd 242c 1f3d
000001d0: bfe0 0cbd 088b ac3c 7dd7 9abd 3581 21be
000001e0: bfda 99bd 9bac 893d d5c4 893d c536 12be
000001f0: 60af 5a3d caf8 8abd 59e8 02be 294f 003e
00000200: c4c4 d13d acc0 fc3d 382a 6cbc 0620 9a3d
00000210: dd5a 97bd 9311 e23d 64f1 0cbd 4d05 583d
00000220: 00aa c53d d197 55bd 2ca4 d53d b777 91bd
00000230: 4de6 fc3c 3f23 a2bc 00f8 e93c 1ea0 313e
00000240: 7614 533b e900 15be 8ed2 003e 0c2f abbc
00000250: 0234 b6bc 5244 fd3d 5c7e 70bd 6653 223e
00000260: f73e af3d d455 793c 9284 8f3d bdc6 4f3d
00000270: 5281 a53d 9b6c e43c b4e0 0ebd 2156 bb3c
00000280: a692 d13d 8792 313e ad9b 7b3d 82f9 a33c
00000290: cc6e 68bd 3bad 6bbd 44ea 0cbe 7c6e 8f3d
000002a0: d10d 323e 4974 e03c 6420 72bd bf27 6c3d
000002b0: 4973 20be 0a97 7f3d 46a6 25be b617 74bd
000002c0: 83c4 bfbd 50f0 bb3c f58f efb9 9c5a 803d
000002d0: 8ccb a43d 96a7 8a3d 191b 083e 0ab1 423d
000002e0: 412b 233e 13ad a9bd 4d56 9ebd e499 efbb
000002f0: 0700 7d3d 512d 8bbd e3f5 0abe 70b9 63bd
00000300: 8fde d3bc 1392 2c3c 3076 fa3c 7395 15be
00000310: ee26 23be 6443 8d3d 845f c13d d6fc 1dbd
00000320: c779 e93d de23 543e aa38 943d 3236 24bd
00000330: 1986 473d acbd 463e b26a 4d3c 6b5f 08be
00000340: 4e85 1f3c df8f 9a3d 0a3c a33e 8fd1 353d
00000350: c4bb cf3d f031 813e ab68 ab3e cbd2 23be
00000360: 4287 833d c97c 56bc 1d9f 70be 6803 b63d
00000370: 4357 b33c f6cc 89be 6a20 8ebe 7463 073e
00000380: 1832 c73d 9147 dfbd 5264 7f3e c4f6 11be
00000390: 1887 c83d 1700 9a3d 2072 58bd 7cd9 6f3e
000003a0: ceb1 40bd 0da6 d8bd 9c2b 613e 82b8 f83d
000003b0: fd28 60bd 41a7 f53d 4579 103d 3dc5 8b3d
000003c0: 8865 0e3d e4ed aa3d 9fbf 3bbe cd1e 863e
000003d0: 439c 973e 80d4 a23d 6509 04be eccb bb3d
000003e0: c42c 913d 8f53 b63d c583 f23d 7fa4 09be
000003f0: fbe3 6d3d 6fe5 1f3f 3dd2 c9be 5f3e 31bd

module.lstm.bias_ih_l0 f4 [256]
-0.07805635 0.058792423 0.0021842972 0.0036096696 0.041881442 0.10924912 -0.01706452 -0.06745193
-0.022314284 -0.14125857 -0.03825316 -0.034385867 -0.17343059 -0.12020299 -0.06423316 0.056687154
-0.13841929 0.14076562 -0.03147086 0.11121304 -0.08639188 0.16051109 0.06576523 0.14826618
0.060328234 0.03766979 -0.069132455 -0.08603569 -0.055344887 0.093748234 0.120088555 0.14023075
-0.099425316 -0.016531382 0.070337676 -0.08540066 0.06650649 0.07853844 0.043144803 -0.07084109
0.11824529 0.03358304 0.1429826 -0.09946668 -0.04322981 -0.004739137 -0.17234354 -0.08361487
-0.2141329 0.057288866 0.09246013 0.026113383 0.12631704 0.08318598 0.0856996 0.026178883
-0.18672192 -0.091229275 0.07328081 -0.052283544 0.038807824 -0.03314796 -0.00914869 0.0028492874
0.028084505 0.040852696 0.15217024 0.043241415 -0.017634157 -0.03856221 0.053211637 -0.03690374
-0.0042998414 0.12967986 -0.01739111 0.1673082 0.118275195 -0.054395057 0.1541771 -0.005645014
0.110830404 -0.034123328 0.068071395 0.114389814 0.12257948 0.008041374 0.13769579 0.18066461
-0.007328025 0.18914981 0.012539293 -0.044477828 0.09354034 0.09665502 -0.053142052 -0.004366712
0.05382095 0.14600417 0.043144654 -0.0792457 0.04172685 0.06790944 -0.025994139 0.095452294
-0.021863563 0.11960842 -0.033213157 -0.027426116 -0.021100229 0.022572767 -0.07092073 -0.1973295
0.17415561 0.09131253 0.011700392 -0.018982658 -0.0459407 0.064800136 0.011031576 0.074612536
0.0040776697 0.08714683 -0.028290201 -0.025111312 0.080811806 0.1634399 -0.016912654 0.105848104
0.006718151 0.15101363 -0.07141876 0.073789425 0.07363503 0.09686331 0.0007980064 0.050984733
0.046001397 -0.043491337 -0.050910495 0.029893998 0.16234434 0.05346509 -0.091263846 -0.03261786
0.09507952 -0.022404416 0.03350067 0.03214993 -0.092204936 -0.06688748 0.07043943 -0.07801432
-0.04364189 0.1793856 -0.0027781064 0.042271867 -0.0053262343 -0.039413434 0.013213316 0.07097889
0.060880315 0.0054192357 0.103867434 -0.08057868 -0.05525385 0.008910639 0.0005543773 -0.007152784
0.038311377 -0.09439872 0.08718575 0.053696144 -0.13645056 -0.05635559 -0.01609046 0.08237502
0.012513831 0.09115713 -0.19764522 0.13416462 0.079530455 -0.107515834 0.056731023 -0.056117468
0.13497664 -0.08451991 -0.13807154 -0.117098294 0.09225152 0.051024552 -0.07463491 -0.14400199
0.0655052 0.01516025 -0.06865503 -0.03680154 -0.034564022 -0.038844623 0.0064283833 0.08313339
0.052337512 0.09233404 -0.12168048 0.04457777 0.047737926 0.0012575728 0.036336254 -0.06621624
-0.00079830934 -0.027795436 -0.019073306 0.009757429 -0.047790397 -0.032824043 -0.09468967 0.1072067
0.07474262 -0.019429034 -0.07716145 0.04881701 -0.049947433 0.03693261 0.038584102 -0.008676777
0.07695246 -0.025812656 0.049831454 -0.06747259 0.028177867 0.13554399 0.13087621 0.08331256
0.026011027 0.045266714 0.13259351 -0.013074764 0.041982826 0.11320862 0.050958417 -0.075675346
0.06021146 -0.061573554 0.06519617 0.092048734 -0.0065313303 0.103296034 -0.10018873 0.03938166
0.03049571 0.115919076 0.09711391 0.16967402 -0.094047345 0.20952778 -0.034657743 -0.020295113
00000000: 02dc 9fbd 53d0 703d 6d26 0f3b 3590 6c3b
00000010: e08b 2b3d 01be df3d e4ca 8bbc 3d24 8abd
00000020: 72cc b6bc 16a6 10be 58af 1cbd 32d8 0cbd
00000030: ca97 31be fc2c f6bd ad8c 83bd ca30 683d
00000040: c9bd 0dbe dd24 103e 97e7 00bd aac3 e33d
00000050: 3aee b0bd 055d 243e ecaf 863d 17d3 173e
00000060: bd1a 773d a34b 1a3d 5195 8dbd 7b33 b0bd
00000070: 52b1 62bd 13ff bf3d fdf0 f53d a698 0f3e
00000080: 809f cbbd d26c 87bc 330d 903d 8be6 aebd
00000090: 8e34 883d c3d8 a03d 9bb8 303d 2215 91bd
000000a0: 962a f23d 5f8e 093d 086a 123e 30b5 cbbd
000000b0: be11 31bd c34a 9bbb d37a 30be 463e abbd
000000c0: a845 5bbe bba7 6a3d bd5b bd3d bceb d53c
000000d0: 4159 013e 695d aa3d 4683 af3d 1975 d63c
000000e0: 0834 3fbe 6ad6 babd 4014 963d 4527 56bd
000000f0: f4f4 1e3d 28c6 07bd 63e4 15bc 1cbb 3a3b
00000100: 7a11 e63c 2855 273d 84d2 1b3e e91d 313d
00000110: 8275 90bc 68f3 1dbd 72f4 593d 6028 17bd
00000120: afe5 8cbb ccca 043e cd77 8ebc d752 2b3e
00000130: 443a f23d 5acd 5ebd 9ae0 1d3e cff9 b8bb
00000140: 0dfb e23d e7c4 0bbd 0469 8b3d 3545 ea3d
00000150: f30a fb3d f8bf 033c 2000 0d3e 2500 393e
00000160: ee1f f0bb 7db0 413e 9b71 4d3c 622e 36bd
00000170: 1492 bf3d 11f3 c53d 7bab 59bd a316 8fbb
00000180: 5b73 5c3d 1e82 153e 73b8 303d 924b a2bd
00000190: c6e9 2a3d 1b14 8b3d a9f1 d4bc 7e7c c33d
000001a0: 371b b3bc 42f5 f43d 850a 08bd bcac e0bc
000001b0: 63da acbc 86ea b83c e33e 91bd bf10 4abe
000001c0: d955 323e 1002 bb3d 00b3 3f3c 8581 9bbc
000001d0: 512c 3cbd efb5 843d c9bd 343c 75ce 983d
000001e0: f99d 853b 0a7a b23d dac0 e7bc 3db6 cdbc
000001f0: a980 a53d ca5c 273e 688c 8abc e4c6 d83d
00000200: ef23 dc3b 51a3 1a3e 0044 92bd e91e 973d
00000210: f6cd 963d 4560 c63d 4e31 513a 5ed5 503d
00000220: f66b 3c3d f923 32bd 8687 50bd 42e4 f43c
00000230: 983d 263e 36fe 5a3d 8ae8 babd 4e9a 05bd
00000240: 0db9 c23d 7789 b7bc 0038 093d a5af 033d
00000250: f1d5 bcbd 4efc 88bd 8c42 903d f9c5 9fbd
00000260: d7c1 32bd dcb0 373e e410 36bb 4425 2d3d
00000270: b187 aebb fb6f 21bd aa7c 583c 615d 913d
00000280: a35d 793d d893 b13b 73b8 d43d 6f06 a5bd
00000290: dc51 62bd eefd 113c a153 113a e761 eabb
000002a0: 64ec 1c3d 1e54 c1bd 718e b23d 7df0 5b3d
000002b0: b2b9 0bbe 1ed5 66bd 24d0 83bc 3cb4 a83d
000002c0: d006 4d3c 97b0 ba3d 8263 4abe 7362 093e
000002d0: dde0 a23d 4331 dcbd ca5e 683d 6edb 65bd
000002e0: 5137 0a3e c618 adbd a062 0dbe 3bd1 efbd
000002f0: 5dee bc3d 1fff 503d 30da 98bd 4275 13be
00000300: 9727 863d b262 783c 029b 8cbd 36bd 16bd
00000310: 0193 0dbd 8a1b 1fbd 30a5 d23b d741 aa3d
00000320: dc5f 563d a119 bd3d 9e33 f9bd 2e97 363d
00000330: d888 433d 24d5 a43a 53d5 143d 619c 87bd
00000340: a245 51ba 41b3 e3bc 9f3f 9cbc a0dd 1f3c
00000350: ddbf 43bd 8172 06bd a8ec c1bd 308f db3d
00000360: a912 993d a329 9fbc d306 9ebd 58f4 473d
00000370: ae95 4cbd a646 173d 5d0a 1e3d 0a29 0ebc
00000380: 4099 9d3d 1075 d3bc 111c 4c3d 122f 8abd
00000390: 45d5 e63c 0bcc 0a3e 6a04 063e c79f aa3d
000003a0: 1415 d53c 9769 393d 98c6 073e 8937 56bc
000003b0: 2ff6 2b3d ecd9 e73d c6b9 503d adfb 9abd
000003c0: 4ba0 763d 8d34 7cbd 9285 853d 0c84 bc3d
000003d0: c504 d6bb df8c d33d c02f cdbd aa4e 213d
000003e0: 24d2 f93c fb66 ed3d a8e3 c63d 07bf 2d3e
000003f0: e59b c0bd 738e 563e 47f5 0dbd f041 a6bc

module.lstm.bias_hh_l0 f4 [256]
0.032229237 0.031417903 0.10710621 0.069690965 0.01053902 0.049236998 -0.0017587959 0.084264874
0.08446482 -0.038134005 -0.08477692 0.064845234 0.0028907058 0.006981426 0.10179034 0.03277611
-0.14753255 -0.028405689 -0.0002935393 -0.05094816 -0.0119405445 0.010089288 -0.0686557 0.14754029
0.0462221 0.05623505 -0.025243888 -0.16031829 -0.0033197568 -0.065475345 0.0023873756 0.086226895
-0.07219086 0.020956846 0.0653075 0.097738646 0.14142764 0.15273862 -0.0023229579 -0.02587316
-0.10047811 0.06268074 0.09228362 0.030169668 0.09548442 -0.07307029 -0.052499555 0.050691906
-0.22859094 -0.03909516 0.04200599 -0.0849017 0.00470324 -0.033114385 0.11888433 -0.009000715
-0.101191014 0.12046605 0.051999416 -0.0102357175 0.0041135773 -0.111152455 0.16211233 0.018322026
0.10832402 0.0077374554 0.11052117 0.20172687 0.010482432 0.06568126 -0.031011144 0.12018707
-0.034456044 0.10026205 -0.043264136 0.0130157 0.012952453 0.12527151 0.15489139 0.037582427
0.1057968 -0.070940465 0.024740329 0.15571126 0.001639088 -0.01490939 0.0052275187 0.18953004
0.042359248 0.13245699 -0.01893078 0.08945401 0.0481538 0.18595207 0.14030245 -0.060985465
0.18771867 -0.019435344 0.009994737 0.05876941 -0.078090146 0.028595937 -0.11155946 -0.037689775
0.100204594 0.086028375 0.078737244 -0.0061976104 0.07554259 0.050602302 0.0049303095 -0.19531713
0.15389419 -0.090025395 0.072875105 0.09868389 0.11297613 -0.031667396 0.16632348 -0.04346701
-0.06995283 0.07400616 -0.01511503 -0.04334074 0.06185868 0.17037761 0.12572773 0.08490028
0.08378752 0.13043708 -0.07313567 0.06651565 0.05605636 0.084753565 -0.11979338 -0.0046358886
0.03843756 -0.04826482 -0.11994114 -0.019437565 0.013652705 -0.08923086 0.08139515 -0.09179393
0.039564803 0.0811638 0.09728446 0.09156337 -0.00516814 0.10157424 0.028795801 -0.047957838
-0.07565377 0.060572915 -0.057130717 -0.11403302 0.03904655 -0.13712971 -0.053777378 -0.0073965304
-0.09177703 -0.05616928 -0.008271937 0.0047304844 0.029296182 0.11044522 -0.08634069 -0.037524957
-0.04456211 -0.070102096 0.107203946 0.089121625 -0.0013908386 0.0775486 0.018082848 0.057432372
0.03612966 0.07922461 -0.052671973 0.060326945 -0.069193736 0.07016789 0.06405567 0.045543082
0.13049078 0.072453886 0.09500936 0.07918618 -0.027071906 -0.03037839 0.06843182 0.034444198
-0.105217166 0.11682285 0.07387082 -0.043535598 -0.048749212 -0.019589338 0.18379971 0.060039256
-0.043231897 0.048102524 -0.08810426 -0.045100715 0.16749975 0.06958651 0.004341123 0.06584206
0.02717851 0.05831854 0.008467387 0.069304384 -0.0032890195 -0.0005955191 -0.10505711 0.029347938
-0.07423205 0.1419005 0.07984731 0.1173111 0.06245086 0.033308603 0.019023808 0.06396926
0.14512259 -0.1288614 -0.030653166 -0.042178664 0.12001292 0.016066013 0.1139512 -0.0505076
0.046906255 0.065173194 -0.014001502 0.1110474 0.10070185 0.002394205 -0.08546379 0.067165166
0.115345314 0.05125011 0.19662777 0.04834425 -0.14025569 -0.054004956 0.07701895 -0.043786272
-0.055946738 -0.029383443 -0.08552921 0.110663734 0.028388852 0.027716694 0.077305436 0.12460681
00000000: ce02 043d 0fb0 003d 805a db3d 23ba 8e3d
00000010: dbab 2c3c bcac 493d 6687 e6ba 1093 ac3d
00000020: e4fb ac3d 6732 1cbd 869f adbd 94cd 843d
00000030: ff71 3d3b 72c4 e43b 7477 d03d 3e40 063d
00000040: c612 17be 0cb3 e8bc 2ee6 99b9 05af 50bd
00000050: 46a2 43bc 8a4d 253c 5c9b 8cbd cd14 173e
00000060: 6253 3d3d b956 663d 45cc cebc 7a2a 24be
00000070: 4790 59bb f017 86bd 8475 1c3b ba97 b03d
00000080: cdd8 93bd b1ad ab3c f0bf 853d 332b c83d
00000090: 68d2 103e 8367 1c3e c43c 18bb f3f3 d3bc
000000a0: 78c7 cdbd c35e 803d 32ff bc3d 6126 f73c
000000b0: 568d c33d e0a5 95bd c609 57bd 51a2 4f3d
000000c0: be13 6abe 3f22 20bd 790e 2c3d f1e0 adbd
000000d0: a31d 9a3b f3a2 07bd a179 f33d bc77 13bc
000000e0: 3c3d cfbd e8b6 f63d 57fd 543d b6b3 27bc
000000f0: 30cb 863b e6a3 e3bd c600 263e 1318 963c
00000100: fcd8 dd3d 7b8a fd3b ec58 e23d 7d91 4e3e
00000110: 82be 2b3c e583 863d 150b febc a324 f63d
00000120: c821 0dbd 3156 cd3d bc35 31bd cd3f 553c
00000130: 8736 543c 2d47 003e d99b 1e3e 08f0 193d
00000140: feab d83d 3c49 91bd 3bac ca3c c672 1f3e
00000150: abd6 d63a 8446 74bc 9b4b ab3b 2a14 423e
00000160: e480 2d3d cea2 073e b914 9bbc aa33 b73d
00000170: eb3c 453d 386a 3e3e 72ab 0f3e e5cb 79bd
00000180: 5339 403e df36 9fbc f7c0 233c 31b8 703d
00000190: baed 9fbd 0742 ea3c 4979 e4bd 9860 1abd
000001a0: 1138 cd3d a52f b03d fe40 a13d 5315 cbbb
000001b0: 13b6 9a3d 5c44 4f3d 6f8e a13b 3701 48be
000001c0: 7096 1d3e 3c5f b8bd 8b3f 953d c81a ca3d
000001d0: 0760 e73d acb5 01bd b450 2a3e 770a 32bd
000001e0: 6e43 8fbd 8b90 973d 08a5 77bc 0f86 31bd
000001f0: 875f 7d3d 7877 2e3e c5be 003e 33e0 ad3d
00000200: cb98 ab3d 4c91 053e 27c8 95bd 5b39 883d
00000210: 5b9b 653d 4793 ad3d 3b56 f5bd a7e8 97bb
00000220: b470 1d3d 55b1 45bd b3a3 f5bd 873b 9fbc
00000230: 98af 5f3c abbe b6bd 80b2 a63d 75fe bbbd
00000240: b40e 223d 3539 a63d 133d c73d 9385 bb3d
00000250: 8059 a9bb 2806 d03d 2ce5 eb3c 706f 44bd
00000260: 5df0 9abd 4e1b 783d e601 6abd 258a e9bd
00000270: 46ef 1f3d bb6b 0cbe ab45 5cbd 985e f2bb
00000280: 98f5 bbbd c211 66bd 0587 07bc 2e02 9b3b
00000290: 8cfe ef3c 1a31 e23d 63d3 b0bd c5b3 19bd
000002a0: c286 36bd b091 8fbd be8d db3d 6685 b63d
000002b0: cd4c b6ba cdd1 9e3d 7b22 943c 353e 6b3d
000002c0: b2fc 133d 8340 a23d 91be 57bd 6319 773d
000002d0: 72b5 8dbd 2fb4 8f3d 9e2f 833d 628b 3a3d
000002e0: 609f 053e b462 943d 4494 c23d 5d2c a23d
000002f0: e7c5 ddbc 1adc f8bc fb25 8c3d 5c15 0d3d
00000300: 197c d7bd d240 ef3d 9649 973d 6252 32bd
00000310: 41ad 47bd d279 a0bc fe35 3c3e b9eb 753d
00000320: ee13 31bd 2707 453d 0270 b4bd 87bb 38bd
00000330: 0e85 2b3e 5f83 8e3d fb3f 8e3b 34d8 863d
00000340: 77a5 de3c 6cdf 6e3d ccba 0a3c 75ef 8d3d
00000350: 978c 57bb 9c1c 1cba 2f28 d7bd 166b f03c
00000360: f906 98bd 5d4e 113e fd86 a33d cd40 f03d
00000370: 79cc 7f3d 9a6e 083d d1d7 9b3c 5102 833d
00000380: 049b 143e 3ef4 03be 591c fbbc 89c3 2cbd
00000390: 55c9 f53d df9c 833c 3f5f e93d 0fe1 4ebd
000003a0: c620 403d 8679 853d 8e66 65bc d26c e33d
000003b0: c63c ce3d 18e8 1c3b a407 afbd e48d 893d
000003c0: 2a3a ec3d a3eb 513d ca58 493e 9f04 463d
000003d0: 309f 0fbe 4d34 5dbd 1cbc 9d3d 3c59 33bd
000003e0: 6828 65bd 8cb5 f0bc f029 afbd aba3 e23d
000003f0: bd8f e83c 1f0e e33c 5052 9e3d db31 ff3d

module.lstm.weight_ih_l1 f4 [256, 64]
0.1387847 -0.042064562 0.07930945 -0.06045993 -0.13144101 0.15515415 0.06802251 0.15544017
0.03182115 0.1117096 0.028936807 0.03730724 0.070166804 -0.092978254 0.017830592 -0.19065984
-0.0021563766 -0.010599462 0.14892901 -0.026960203 -0.059763152 0.07509533 -0.05335623 -0.022915948
-0.11332836 0.11551107 -0.048471462 -0.1174656 0.09904956 -0.17001486 -0.015598361 0.07993586
0.054251015 -0.031768903 -0.02074484 0.018860642 0.12833892 0.08529233 0.18485838 -0.009469054
0.09211025 -0.14645639 -0.0067658843 0.16136871 -0.14650819 0.12043093 0.19230989 0.034328733
0.06193634 0.37728736 -0.13256101 -0.06804949 -0.075574644 0.0038705596 -0.089306705 0.12297415
-0.01447414 -0.028827928 0.100490004 -0.059820767 0.024858162 -0.29557398 -0.07424374 0.056633238
0.07965097 -0.07559433 0.075443715 -0.18209879 0.11460383 0.121479325 0.06331798 -0.038469467
-0.07389009 -0.015534719 0.065513656 0.09902398 0.044075742 0.011971158 -0.10539625 -0.08528139
0.005332542 -0.040222064 -0.012128192 0.030405512 -0.095263556 0.024588667 -0.0647869 -0.14653963
-0.16143276 -0.06251588 0.17794967 -0.038278658 0.0010650599 -0.01637907 0.09415523 -0.092571735
0.08884396 0.110374235 -0.062540285 0.011623878 -0.11594413 -0.052970197 -0.16650969 -0.06943608
-0.019550247 -0.008685913 -0.016406951 0.045986667 0.052603222 -0.06889102 -0.11059049 -0.07395225
0.007217975 0.059349976 -0.01273292 0.091541834 -0.04848745 -0.15129606 -0.012939841 0.04593204
-0.047422197 -0.15223718 -0.04284395 0.09180298 0.011072766 -0.19676903 -0.096738674 -0.060460337
0.11176843 0.052360468 -0.051168956 0.09431885 0.043275706 -0.10068298 0.13083285 0.14510587
0.029502008 -0.07233412 0.06043911 0.10676505 0.46487972 0.08021771 0.04905115 -0.20862861
-0.14683093 0.14275873 0.080176786 -0.1282637 0.19514704 -0.14774324 0.08976116 -0.1509596
-0.1934327 0.029400898 0.086491056 -0.08140199 0.09628398 0.07487402 -0.07397478 -0.1251084
0.01822974 -0.21566646 -0.1837117 0.21519299 0.02197263 0.040184025 0.030494358 -0.19442147
-0.048941985 0.07929997 0.037379842 0.028697325 -0.027234454 0.052889895 0.1352955 0.0069288504
0.02430177 0.3567776 -0.02837389 0.2596529 -0.14798947 0.016161613 0.0006271994 0.02572179
-0.13591522 0.03065589 -0.06826701 0.11316885 0.058715813 -0.12701333 -0.08155838 -7.3117386e-05
-0.079030335 -0.0811992 0.054882202 -0.14663689 -0.15325296 -0.022194438 -0.050084792 0.10173061
-0.1076679 -0.07995094 0.028126832 0.061578527 0.13145609 0.24892485 -0.16491257 -0.025682563
0.04031366 0.1446662 0.0199551 0.10979215 0.047815137 -0.020766689 -0.11534961 -0.24409775
-0.031201124 0.051330674 0.14001235 -0.08637471 -0.08221101 0.16633758 0.04790006 -0.020033518
-0.13749927 0.05825575 0.04388951 0.115525566 0.08375329 0.20438813 -0.15110907 -0.35790926
-0.05350603 0.027760671 0.05011138 0.07702619 0.04553241 -0.07214919 -0.018932259 -0.018040225
-0.07158364 0.18934742 -0.0426055 0.16850068 -0.047846153 -0.047094416 0.07339484 0.1041296
-0.042816233 -0.06173493 0.08303663 0.20923406 -0.08326173 0.036936413 -0.06692548 -0.08222612
00000000: 941d 0e3e e44b 2cbd fe6c a23d d5a4 77bd
00000010: 7998 06be bbe0 1e3e 634f 8b3d b52b 1f3e
00000020: e556 023d 01c8 e43d e20c ed3c 7acf 183d
00000030: 9db3 8f3d 626b bebd 7611 923c 553c 43be
00000040: ff51 0dbb 5ea9 2dbc d980 183e a5db dcbc
00000050: 35ca 74bd 95cb 993d 108c 5abd 3aba bbbc
00000060: b318 e8bd 1191 ec3d 038a 46bd ce91 f0bd
00000070: 7fda ca3d 6018 2ebe 4590 7fbc 6ab5 a33d
00000080: 5036 5e3d 1c20 02bd 15f1 a9bc a281 9a3c
00000090: 476b 033e bfad ae3d 844b 3d3e 1724 1bbc
000000a0: 4ca4 bc3d aaf8 15be 5ab4 ddbb d73d 253e
000000b0: 3e06 16be 7ea4 f63d e2ec 443e 499c 0c3d
000000c0: f6b0 7d3d cf2b c13e 13be 07be 885d 8bbd
000000d0: e1c6 9abd 37a9 7d3b 6fe6 b6bd dfd9 fb3d
000000e0: f124 6dbc 8c28 ecbc b4cd cd3d 9f06 75bd
000000f0: 58a3 cb3c 7955 97be 1a0d 98bd 41f8 673d
00000100: 0c20 a33d 33d1 9abd 3c82 9a3d 1b78 3abe
00000110: 6ab5 ea3d 27ca f83d dbac 813d 2992 1dbd
00000120: b053 97bd 5685 7ebc 062c 863d 16cd ca3d
00000130: c488 343d ad22 443c fdd9 d7bd 02a8 aebd
00000140: 9bbc ae3b e4bf 24bd 53b5 46bc fb14 f93c
00000150: 8a19 c3bd 2c6e c93c ffae 84bd 7c0e 16be
00000160: a14e 25be 5308 80bd 7038 363e 15ca 1cbd
00000170: 7b99 8b3a 662d 86bc 75d4 c03d 4096 bdbd
00000180: d2f3 b53d e30b e23d 1f15 80bd 1472 3e3c
00000190: 1e74 edbd 47f7 58bd 8481 2abe 8134 8ebd
000001a0: d727 a0bc 5c4f 0ebc df67 86bc 845c 3c3d
000001b0: 7a76 573d bc16 8dbd 447d e2bd 4774 97bd
000001c0: c384 ec3b f618 733d bd9d 50bc 497a bb3d
000001d0: c79a 46bd 5bed 1abe a001 54bc 3c23 3c3d
000001e0: c73d 42bd 10e4 1bbe 237d 2fbd 3303 bc3d
000001f0: 8c6a 353c d27d 49be ed1e c6bd 42a5 77bd
00000200: d9e6 e43d ee77 563d 8a96 51bd 3e2a c13d
00000210: de41 313d e132 cebd 0cf9 053e a296 143e
00000220: 32ae f13c e923 94bd 008f 773d a2a7 da3d
00000230: b704 ee3e 2f49 a43d dce9 483d bda2 55be
00000240: d95a 16be 582f 123e ba33 a43d 8f57 03be
00000250: a0d4 473e 014a 17be b3d4 b73d 2795 1abe
00000260: 3913 46be 27da f03c 3922 b13d 16b6 a6bd
00000270: 8930 c53d 8d57 993d 1780 97bd 6b1c 00be
00000280: 8956 953c abd7 5cbe eb1e 3cbe 8d5b 5c3e
00000290: f2ff b33c 0198 243d 4ecf f93c 6c16 47be
000002a0: 6477 48bd 0668 a23d 9b1b 193d a716 eb3c
000002b0: ca1a dfbc 13a3 583d e78a 0a3e 690b e33b
000002c0: 8114 c73c 8eab b63e 5c70 e8bc 3af1 843e
000002d0: 8d8a 17be 5c65 843c a46a 243a 81b6 d23c
000002e0: 5c2d 0bbe 1022 fb3c 93cf 8bbd 12c5 e73d
000002f0: fe7f 703d c80f 02be 1408 a7bd 9956 99b8
00000300: a8da a1bd c44b a6bd 29cc 603d fb27 16be
00000310: 58ee 1cbe 1cd1 b5bc b625 4dbd 2358 d03d
00000320: fd80 dcbd 52bd a3bd 3e6a e63c c439 7c3d
00000330: 6d9c 063e 28e6 7e3e d7de 28be 3d64 d2bc
00000340: f01f 253d 6023 143e e178 a33c b5da e03d
00000350: ced9 433d e71e aabc 6b3c ecbd c3f4 79be
00000360: 8099 ffbc 1d40 523d 665f 0f3e 39e5 b0bd
00000370: 3f5e a8bd 6654 2a3e da32 443d 551d a4bc
00000380: 9ccc 0cbe 959d 6e3d 7dc5 333d ab98 ec3d
00000390: d886 ab3d 1f4b 513e 56bc 1abe e23f b7be
000003a0: 2429 5bbd 596a e33c 9741 4d3d e8bf 9d3d
000003b0: 3180 3a3d f4c2 93bd d317 9bbc 18c9 93bc
000003c0: 729a 92bd 4ae4 413e 1b83 2ebd 718b 2c3e
000003d0: 54fa 43bd 13e6 40bd 0950 963d e641 d53d
000003e0: 1360 2fbd c4dd 7cbd 1c0f aa3d 7441 563e
000003f0: 2085 aabd a34a 173d 3a10 89bd 2b66 a8bd

module.lstm.weight_hh_l1 f4 [256, 64]
-0.14187299 0.04420146 0.058159675 0.08109588 0.14360665 0.095919736 0.15827699 0.07945412
0.08116884 -0.035804763 0.026388243 -0.079164244 -0.0144503275 0.101123735 0.045421775 0.19900022
0.005905599 -0.013007687 0.03239387 -0.17702681 -0.073131315 0.28824702 -0.1250033 -0.09002611
0.0037866724 0.032414205 0.09363325 -0.023125406 -0.08409061 0.039939534 -0.055068552 -0.034113575
0.16479136 -0.11561805 -0.076274194 -0.02269241 -0.03277989 0.20370235 0.01925548 -0.034288883
0.025742505 -0.14612797 0.0809994 0.010504505 0.15245664 -0.08733116 0.20419426 0.08696082
-0.198473 -0.14092581 0.29936385 0.00867062 0.12556632 -0.050772894 0.120756805 -0.027190946
0.026158178 -0.08451903 -0.08261197 0.17394364 0.102896236 -0.23325975 -0.054160956 0.10679834
0.16518214 0.023796856 -0.081171535 -0.031167552 -0.16843231 -0.08051259 -0.014034861 -0.03762133
-0.028921789 -0.024373276 0.026691807 0.09834031 0.0065088687 -0.041258376 -0.03568987 0.040224306
-0.036496267 0.06974035 0.04997242 -0.044876393 -0.040218115 0.042592973 0.08747836 -0.05451961
-0.08240602 0.1364286 -0.12193061 -0.04307589 -0.05911379 -0.09503227 0.10807422 -0.00720987
-0.068822324 0.123123385 -0.23398446 -0.024196781 -0.1470891 0.12491902 0.0239126 0.06233768
-0.07974965 -0.12402321 0.10493371 0.036030844 0.14790785 -0.031557366 0.18194047 -0.3075393
0.2820673 0.11932324 0.11942158 -0.0027913586 0.09857751 0.03085003 -0.105641656 0.012331903
0.04984495 0.029156597 -0.15114991 -0.05682825 -0.13040449 -0.086245984 -0.04116958 0.24419512
-0.094573826 -0.034941606 -0.11114174 0.11045279 0.044950087 0.058489364 -0.061565865 0.16799608
-0.06193036 -0.07774789 0.027950395 -0.000452708 0.042852815 -0.13948822 0.02213047 -0.030650834
-0.03869352 -0.10818909 -0.045555636 -0.25433317 -0.17530385 0.07068113 0.02724436 0.09536738
-0.014315827 0.23282656 0.009765098 -0.13961616 0.13731846 -0.015607396 -0.09478102 0.10315624
-0.06876983 0.019415015 0.08237962 -0.06469905 0.003000529 0.22087283 -0.049173787 -0.19917038
0.21394023 -0.2464666 0.026186068 -0.16260318 0.013343702 -0.07371383 0.18452467 0.08957627
-0.061590925 -0.1538101 -0.007036058 -0.063998885 0.13037899 -0.17490895 0.009097546 0.06881566
0.076881826 -0.06295832 0.10958197 0.03826907 0.05510424 -0.2012377 -0.100699745 0.022704085
0.16342798 -0.032646287 0.04625542 -0.03946548 -0.01408832 0.15270849 0.16775392 0.18638651
0.025217908 0.043023825 0.052376814 0.033481285 -0.020324156 -0.18035707 -0.07614778 0.24298975
0.024245348 0.006774059 0.18168706 -0.027607765 0.022657515 0.16808294 -0.10397298 0.0043050093
-0.12803058 -0.07236247 0.023659825 0.020973142 -0.095614746 -0.11361923 0.0712653 -0.03368194
-0.059306234 0.06801134 -0.1832517 -0.17037565 0.08756092 -0.022455357 0.08591709 0.06700467
0.09656769 -0.09506425 -0.05864311 -0.10255313 0.06016665 0.03313362 0.06629548 -0.23794411
0.033385336 0.10877744 0.09931512 0.009886182 -0.11378803 -0.09801758 -0.03958473 -0.06939824
0.025436789 -0.08273627 -0.09664895 0.044363186 0.022483472 -0.13964401 0.054128073 0.14511251
00000000: 2747 11be 970c 353d d738 6e3d 9915 a63d
00000010: 9f0d 133e 9171 c43d 5d13 223e d7b8 a23d
00000020: d93b a63d 04a8 12bd 282c d83c dd20 a2bd
00000030: 11c1 6cbc f619 cf3d 2f0c 3a3d b7c6 4b3e
00000040: c183 c13b 321e 55bc 6faf 043d 8446 35be
00000050: dfc5 95bd 1d95 933e dd00 00be 9c5f b8bd
00000060: d229 783b c2c4 043d cac2 bf3d 7e71 bdbc
00000070: b337 acbd a397 233d 908f 61bd adba 0bbd
00000080: 11bf 283e 28c9 ecbd a535 9cbd 6fe5 b9bc
00000090: 3544 06bd 5997 503e abbd 9d3c 8072 0cbd
000000a0: f2e1 d23c 92a2 15be 03e3 a53d 161b 2c3c
000000b0: 981d 1c3e aeda b2bd 4d18 513e 8418 b23d
000000c0: 823c 4bbe db4e 10be 3846 993e 370f 0e3c
000000d0: 7594 003e 3df7 4fbd 584f f73d 8cbf debc
000000e0: ad49 d63c 5018 adbd 7730 a9bd 481e 323e
000000f0: 43bb d23d a5db 6ebe e1d7 5dbd 17b9 da3d
00000100: 8225 293e a0f1 c23c 433d a6bd 1853 ffbc
00000110: 8579 2cbe c9e3 a4bd 79f2 65bc d318 1abd
00000120: 63ed ecbc 77aa c7bc c7a8 da3c a566 c93d
00000130: 5948 d53b 8bfe 28bd 8b2f 12bd 3ec2 243d
00000140: 1c7d 15bd 07d4 8e3d e1af 4c3d 4fd0 37bd
00000150: c0bb 24bd f875 2e3d db27 b33d f44f 5fbd
00000160: 7dc4 a8bd f0b3 0b3e c1b6 f9bd 5870 30bd
00000170: 4d21 72bd 47a0 c2bd 0456 dd3d c640 ecbb
00000180: b8f2 8cbd 1d28 fc3d 9f99 6fbe 5438 c6bc
00000190: 869e 16be 8bd5 ff3d 5be4 c33c cc55 7f3d
000001a0: c953 a3bd e1ff fdbd 7ce7 d63d 1495 133d
000001b0: 2875 173e 4c42 01bd 9a4e 3a3e cb75 9dbe
000001c0: 206b 903e be5f f43d 4d93 f43d 3aef 36bb
000001d0: 01e3 c93d 34b9 fc3c a75a d8bd c00b 4a3c
000001e0: 382a 4c3d d1d9 ee3c 0bc7 1abe bdc4 68bd
000001f0: c188 05be bca1 b0bd 6fa1 28bd 490e 7a3e
00000200: ecaf c1bd ee1e 0fbd 489e e3bd 1335 e23d
00000210: 951d 383d 8b92 6f3d 7d2c 7cbd 2a07 2c3e
00000220: b0aa 7dbd 493a 9fbd 3af8 e43c 7059 edb9
00000230: 6f86 2f3d 00d6 0ebe f64a b53c 7517 fbbc
00000240: 197d 1ebd 3e92 ddbd 8c98 3abd f537 82be
00000250: da82 33be 45c1 903d 902f df3c f94f c33d
00000260: ee8c 6abc 166a 6e3e cafd 1f3c 8af7 0ebe
00000270: 369d 0c3e 2ab6 7fbc 8d1c c2bd 9443 d33d
00000280: 32d7 8cbd 3d0c 9f3c a5b6 a83d ef80 84bd
00000290: 86a4 443b 7d2c 623e 746a 49bd 52f3 4bbe
000002a0: 2613 5b3e be61 7cbe 2a84 d63c 7381 26be
000002b0: 8b9f 5a3c 47f7 96bd 09f4 3c3e c373 b73d
000002c0: c446 7cbd 6580 1dbe bc8e e6bb d911 83bd
000002d0: 1282 053e 551b 33be e00d 153c 3aef 8c3d
000002e0: 3874 9d3d 4bf0 80bd 836c e03d 07c0 1c3d
000002f0: fcb4 613d 4111 4ebe ab3b cebd ebfd b93c
00000300: aa59 273e 1db8 05bd 5376 3d3d 8ea6 21bd
00000310: b2d2 66bc 9d5f 1c3e afc7 2b3e 1bdc 3e3e
00000320: c995 ce3c c039 303d 1289 563d ac23 093d
00000330: d87e a6bc 86af 38be 5ef3 9bbd 4ed2 783e
00000340: 2e9e c63c edf8 dd3b 2c0c 3a3e ae29 e2bc
00000350: 419c b93c ef1d 2c3e c9ef d4bd 0911 8d3b
00000360: 731a 03be c632 94bd 40d2 c13c decf ab3c
00000370: aad1 c3bd 33b1 e8bd 8bf3 913d 13f6 09bd
00000380: 18eb 72bd 8849 8b3d 55a6 3bbe f476 2ebe
00000390: 2453 b33d 4cf4 b7bc 4df5 af3d bf39 893d
000003a0: 48c5 c53d 0cb1 c2bd c233 70bd 6007 d2bd
000003b0: 4e71 763d 1eb7 073d edc5 873d 9fa7 73be
000003c0: 10bf 083d b5c6 de3d ba65 cb3d a7f9 213c
000003d0: b309 e9bd 71bd c8bd 9923 22bd aa20 8ebd
000003e0: d060 d03c a271 a9bd e2ef c5bd 2cb6 353d
000003f0: 422f b83c d7fe 0ebe 66b5 5d3d 6098 143e

module.lstm.bias_ih_l1 f4 [256]
-0.11909215 0.082902625 0.035012484 -0.08678438 0.10588117 0.09818096 -0.03605685 0.065550566
0.15021552 0.05006501 -0.0028967934 0.015329262 0.051134758 -0.047911998 0.28835866 -0.22195962
-0.15931273 -0.033264194 -0.061104685 -0.0033142369 -0.07474112 -0.090690225 0.13377182 0.14246094
0.15210852 0.0016842678 0.23544249 0.017096266 0.09095596 -0.054178942 -0.026447715 -0.1727259
0.005073714 0.0070585078 -0.08710694 -0.10238446 0.042129505 -0.008262817 -0.0105978865 -0.019577129
-0.097033694 -0.090177245 -0.06629701 -0.18786183 0.004413954 0.015863635 -0.11045479 0.20308433
0.007906568 0.008198609 -0.085499376 -0.06500783 0.069001846 0.05352293 -0.12806575 -0.095768794
0.05170526 0.13783722 -0.029712897 0.022171285 -0.020553157 0.033340964 -0.09916814 -0.06848867
0.04772096 0.060231566 -0.09564883 0.007354909 0.12542027 0.068596765 0.011075246 0.07393587
0.15398 0.04301328 0.1447496 0.023546904 -0.08757544 0.030342737 0.089380845 0.33678216
0.17041346 0.19255331 -0.07013911 0.1545051 -0.07792962 0.055863924 0.1805572 -0.02291124
0.16494699 0.10346393 0.13757005 -0.083705634 0.1629743 0.17413926 -0.08337454 0.013883058
0.13291477 0.11127325 -0.054683495 -0.03990541 -0.13338932 0.18812948 0.10847009 -0.051784474
0.027993087 -0.06953314 0.15629672 0.1484163 0.223533 -0.015087551 -0.03392581 -0.012778833
-0.108249396 0.10523132 0.01456572 0.023576833 0.09786239 0.1160845 0.13353583 0.13341433
0.13738996 -0.053487077 0.023040801 -0.08950752 -0.006154546 0.005727473 0.20451766 -0.017769793
-0.06372844 -0.03220492 -0.08603629 -0.06763582 0.071647614 0.054082964 0.027309349 0.05430637
0.049683608 -0.0035724482 -0.09806696 0.06568539 0.015133597 -0.0037631064 0.03806273 -0.016535033
-0.021016974 0.10142878 0.06598569 0.09370187 -0.026964672 0.07586769 0.1555879 -0.021917867
-0.06216084 0.07007136 -0.18934853 0.06674504 0.018439237 -0.12311796 0.06555656 -0.070145816
-0.15638931 0.24107683 0.034938887 -0.03820029 -0.15599401 0.03480065 -0.043556266 0.0038238377
-0.062229514 -0.03830438 0.036153223 -0.045483887 -0.01496034 -0.007440144 0.04972447 0.02163652
-0.05630138 0.01793906 -0.099042386 0.08185616 -0.09966617 0.11672745 -0.1154144 -0.08025593
-0.085667685 0.014902086 -0.1278216 0.034054272 -0.03906293 -0.046804234 -0.003657365 -0.029803222
-0.041284274 0.048928447 -0.03828201 0.12416617 -0.02084555 0.038068954 0.13458595 0.10536583
-0.09728821 0.16431493 -0.06770263 0.11973388 -0.12163942 0.08058895 0.023724103 0.28984794
0.052607518 0.061855912 0.042145167 0.009365903 -0.05079889 -0.084557034 0.10125687 -0.076425925
0.0769912 0.16121191 -0.023745708 -0.045887433 -0.011596868 0.10053655 -0.048490748 -0.03988315
-0.13606805 0.08491642 -0.04760129 0.12373016 0.031452164 -0.12412695 0.03766042 -0.014315572
0.14576662 0.031425204 -0.032501012 -0.023467781 -0.00421861 -0.108891726 0.11537338 -0.059139527
-0.045405526 0.05027968 0.13786016 -0.09227607 -0.044064634 -0.0006854899 -0.06124451 0.02379574
0.09554838 -0.09011567 0.027815454 -0.07128562 -0.06627679 -0.0925018 -0.010976506 0.08372419
00000000: 96e6 f3bd dac8 a93d 4069 0f3d 02bc b1bd
00000010: 3ad8 d83d 1913 c93d 59b0 13bd 603f 863d
00000020: 19d2 193e f810 4d3d 21d8 3dbb 9627 7b3c
00000030: ae72 513d 5f3f 44bd bfa3 933e 6249 63be
00000040: e022 23be 0940 08bd e848 7abd ab33 59bb
00000050: df11 99bd ccbb b9bd 7bfb 083e 48e1 113e
00000060: 56c2 1b3e a6c2 dc3a d617 713e 780d 8c3c
00000070: 1e47 ba3d bdea 5dbd e1a8 d8bc 0fdf 30be
00000080: 6641 a63b 0e4b e73b 2065 b2bd f2ae d1bd
00000090: fd8f 2c3d c460 07bc c2a2 2dbc 3760 a0bc
000000a0: 9ab9 c6bd d9ae b8bd bac6 87bd da5e 40be
000000b0: eea2 903b 74f4 813c 1f36 e2bd 57f5 4f3e
000000c0: 8d8a 013c 7553 063c 4c1a afbd d322 85bd
000000d0: d750 8d3d dc3a 5b3d ab23 03be 6e22 c4bd
000000e0: e5c8 533d 3325 0d3e 7668 f3bc 8ea0 b53c
000000f0: 185f a8bc 8990 083d aa18 cbbd ca43 8cbd
00000100: 0e77 433d 60b5 763d 89e3 c3bd 7301 f13b
00000110: 2c6e 003e 767c 8c3d f374 353c b06b 973d
00000120: efac 1d3e b12e 303d 3d39 143e 70e5 c03c
00000130: c15a b3bd 5591 f83c 4e0d b73d b66e ac3e
00000140: de80 2e3e b22c 453e 18a5 8fbd 9636 1e3e
00000150: 9199 9fbd 92d1 643d fde3 383e 5ab0 bbbc
00000160: dde7 283e e6e4 d33d 2adf 0c3e dc6d abbd
00000170: bce2 263e 9051 323e 45c0 aabd c475 633c
00000180: cf1a 083e 3be3 e33d cdfb 5fbd db73 23bd
00000190: 3697 08be 04a5 403e 9125 de3d f51b 54bd
000001a0: c251 e53c 6467 8ebd 3f0c 203e 71fa 173e
000001b0: d6e5 643e c731 77bc caf5 0abd 4f5e 51bc
000001c0: dcb1 ddbd 8583 d73d 0fa5 6e3c 3424 c13c
000001d0: 146c c83d b6bd ed3d 9ebd 083e c49d 083e
000001e0: f4af 0c3e 4415 5bbd 10c0 bc3c b84f b7bd
000001f0: 13ac c9bb 87ad bb3b 146d 513e f591 91bc
00000200: 0e84 82bd 4ee9 03bd cb33 b0bd a684 8abd
00000210: fcbb 923d 1986 5d3d dbb7 df3c 5b70 5e3d
00000220: 0a81 4b3d bc1f 6abb 55d7 c8bd 1086 863d
00000230: e8f2 773c 739e 76bb aae7 1b3d 7a74 87bc
00000240: ca2b acbc e4b9 cf3d 8123 873d c4e6 bf3d
00000250: 04e5 dcbc 8560 9b3d 6f52 1f3e 198d b3bc
00000260: 5d9c 7ebd 9381 8f3d 95e4 41be a0b1 883d
00000270: e20d 973c 4525 fcbd 8542 863d 9ca8 8fbd
00000280: 8524 20be d8dc 763e 141c 0f3d e877 1cbd
00000290: e5bc 1fbe 208b 0e3d 0e68 32bd 5a99 7a3b
000002a0: 60e4 7ebd 0ee5 1cbd 6715 143d 504d 3abd
000002b0: 371c 75bc 74cc f3bb e3ab 4b3d 123f b13c
000002c0: 479c 66bd f0f4 923c bcd6 cabd 34a4 a73d
000002d0: c71d ccbd cd0e ef3d 635e ecbd 395d a4bd
000002e0: 8a72 afbd e127 743c aae3 02be 7e7c 0b3d
000002f0: 7300 20bd ccb5 3fbd 67b0 6fbb e325 f4bc
00000300: b319 29bd 3269 483d 99cd 1cbd d54a fe3d
00000310: 49c4 aabc 31ee 1b3d e6d0 093e 0aca d73d
00000320: 0b3f c7bd 2c42 283e ada7 8abd 0937 f53d
00000330: 171e f9bd d20b a53d 0d59 c23c f366 943e
00000340: fb7a 573d a05c 7d3d 69a0 2c3d 7273 193c
00000350: 7f12 50bd 3d2c adbd c35f cf3d 3285 9cbd
00000360: 90ad 9d3d bc14 253e 5c86 c2bc 76f4 3bbd
00000370: ca00 3ebc 1be6 cd3d 3c9e 46bd 845c 23bd
00000380: 6c55 0bbe a9e8 ad3d 92f9 42bd 3d66 fd3d
00000390: fcd3 003d 4536 febd d041 1a3d dc8b 6abc
000003a0: d843 153e b7b7 003d c81f 05bd 813f c0bc
000003b0: 443c 8abb a002 dfbd e148 ec3d 4a3c 72bd
000003c0: 25fb 39bd 11f2 4d3d 372b 0d3e 3cfb bcbd
000003d0: 1e7d 34bd 73b2 33ba 86db 7abd 49ef c23c
000003e0: deae c33d 908e b8bd 3cdd e33c 32fe 91bd
000003f0: 20bc 87bd 9571 bdbd ced6 33bc 9777 ab3d

module.lstm.bias_hh_l1 f4 [256]
-0.12595186 0.045957178 0.05261581 0.049681667 0.0737345 -0.11275516 -0.09161662 0.01786477
0.105263144 -0.07956321 -0.059161577 0.06636163 -0.08591441 -0.05147559 0.23138312 -0.063651845
-0.11198599 0.076719485 0.03511523 0.021167962 0.06660154 -0.07811501 -0.05666242 0.076927334
0.06999643 0.11905147 0.022275163 -0.033894636 -0.08626001 0.08957791 -0.1048916 -0.13638297
0.014069641 0.14588892 -0.12799442 -0.025415797 0.01712589 -0.029514749 0.10891285 -0.0010616631
-0.08435942 -0.027336566 0.12501101 0.039163776 0.099303626 0.02661834 -0.013356101 0.019233314
0.061399847 -0.01784004 -0.10463561 -0.11991332 0.08370209 0.11384503 -0.09810741 -0.04605312
0.17457408 0.05534423 0.008140858 0.08557623 -0.041138384 0.0016435946 -0.11254133 -0.17155132
-0.025723333 0.1833937 0.08121448 -0.0059956843 0.015402189 -0.0935772 0.025567073 -0.08473478
0.21101518 -0.005764611 -0.052602947 0.15238994 -0.11141879 0.06728527 0.13278617 0.32443696
-0.05482684 0.038406763 0.008689505 0.020344105 -0.08644339 0.021548916 0.1357147 0.14734629
0.11205636 0.056947924 -0.030708482 -0.08103714 -0.050992914 -0.02010037 0.0638407 0.009027316
0.061935533 -0.029404847 0.094471864 0.10893117 0.061952233 0.15100798 0.110346034 0.16223344
0.15172096 -0.036853187 0.09053814 0.13103205 0.005259518 -0.053449873 0.11641532 -0.027816318
-0.023842793 0.17090067 0.009828442 -0.04869182 -0.0011514968 0.107394114 0.12477311 0.064602785
0.016634597 -0.025135173 0.122914754 -0.06653088 0.054042608 -0.036641084 0.1989341 0.075371526
-0.07740718 -0.043981273 -0.06638988 -0.07574119 0.0030082287 -0.044304874 -0.06381345 0.08213609
0.046998005 0.12933242 -0.097531356 0.029574564 0.034815613 -0.03702462 -0.14434925 -0.035706162
-0.04756804 -0.1032667 -0.08722434 0.20723335 0.07193611 0.08997039 -0.015738139 -0.15920022
-0.1303455 -0.06888054 -0.03862078 -0.086938865 0.03689219 -0.16466126 -0.040892646 0.06583228
0.0032742647 0.09473814 0.04193652 -0.092885494 -0.08471724 0.03278891 0.028963603 0.06462685
-0.1592761 0.065488994 0.032017376 0.12822828 -0.056847304 -0.009045588 -0.004498972 -0.0455733
0.009671539 0.03375792 0.02335084 0.13235725 -0.008482344 -0.07452681 -0.07959881 -0.02926838
-0.10885861 -0.081703275 0.051849645 0.07847947 0.111039855 0.0044666724 0.0773009 0.10771392
-0.0023574503 0.05304685 -0.025050199 0.040625114 -0.074315764 0.065932475 0.03241856 0.022300743
-0.05511883 0.18993096 0.013686138 0.049186118 0.044747338 0.11757935 0.21100417 0.25773293
0.033286314 0.054014962 -0.13393426 0.05190872 -0.08419723 0.11193093 -0.028164862 -0.02002806
0.1016593 0.13374726 -0.053530786 0.05317423 -0.09886154 0.09288624 -0.12527426 -0.16442472
-0.1176274 -0.13267267 -0.0723528 -0.05335979 -0.08423217 0.06615786 0.02598466 0.10825378
0.082197316 -0.0956071 0.14727643 0.019528296 0.055557832 -0.05037249 0.023572365 0.026054526
0.1204711 0.02428478 -0.0029470536 0.00056044356 -0.013979423 0.07723681 0.16427605 0.029416537
0.0532561 0.09517776 0.10092424 0.076937 0.016528077 -0.03508669 -0.03609383 0.034519643
00000000: 86f9 00be 983d 3c3d ad83 573d 017f 4b3d
00000010: 1d02 973d 2dec e6bd 7fa1 bbbd 2359 923c
00000020: 3494 d73d 09f2 a2bd 6953 72bd 9be8 873d
00000030: e5f3 afbd 11d8 52bd b2ef 6c3e e65b 82bd
00000040: e958 e5bd 1b1f 9d3d fdd4 0f3d 6f68 ad3c
00000050: 6366 883d c3fa 9fbd db16 68bd 148c 9d3d
00000060: 4a5a 8f3d 42d1 f33d 677a b63c 1ad5 0abd
00000070: 17a9 b0bd a074 b73d 68d1 d6bd faa7 0bbe
00000080: 5a84 663c e863 153e f810 03be ca34 d0bc
00000090: 984b 8c3c eac8 f1bc b30d df3d 8127 8bba
000000a0: a2c4 acbd eff0 dfbc e302 003e 326a 203d
000000b0: b35f cb3d b40e da3c 8cd3 5abc 2f8f 9d3c
000000c0: 687e 7b3d 4725 92bc 324b d6bd 1d95 f5bd
000000d0: 006c ab3d 9527 e93d 8aec c8bd 32a2 3cbd
000000e0: 8cc3 323e a2b0 623d 3c61 053c 9742 af3d
000000f0: b980 28bd e26d d73a 127c e6bd 26ab 2fbe
00000100: bdb9 d2bc 8fcb 3b3e c753 a63d 7277 c4bb
00000110: 7759 7c3c 67a5 bfbd 0a72 d13c 6e89 adbd
00000120: 5d14 583e 10e5 bcbb 3076 57bd 1c0c 1c3e
00000130: 892f e4bd dccc 893d 19f9 073e 9a1c a63e
00000140: 1c92 60bd 6950 1d3d 6d5e 0e3c aea8 a63c
00000150: 3b09 b1bd 5a87 b03c cbf8 0a3e f2e1 163e
00000160: ce7d e53d 3a42 693d 5b90 fbbc cdf6 a5bd
00000170: f2dd 50bd 88a9 a4bc eabe 823d 4fe7 133c
00000180: 1db0 7d3d 6fe2 f0bc 777a c13d 4e17 df3d
00000190: a0c1 7d3d d6a1 1a3e 1afd e13d 8620 263e
000001a0: bd5c 1b3e 5ef3 16bd 0f6c b93d 442d 063e
000001b0: 0958 ac3b 41ee 5abd 286b ee3d 0cdf e3bc
000001c0: f651 c3bc 9600 2f3e 7907 213c 1371 47bd
000001d0: d2ed 96ba 72f1 db3d 0b89 ff3d 774e 843d
000001e0: 4745 883c 47e8 cdbc bbba fb3d 5841 88bd
000001f0: c85b 5d3d f614 16bd 61b5 4b3e 635c 9a3d
00000200: a887 9ebd b525 34bd 6bf7 87bd 321e 9bbd
00000210: b425 453b 0779 35bd a0b0 82bd f736 a83d
00000220: fb80 403d b86f 043e 85be c7bd 5b46 f23c
00000230: d19a 0e3d 21a7 17bd 4ad0 13be a040 12bd
00000240: b5d6 42bd 7e7d d3bd ada2 b2bd fb34 543e
00000250: 3d53 933d 6542 b83d 45ed 80bc 6205 23be
00000260: 4a79 05be 3e11 8dbd d330 1ebd 010d b2bd
00000270: 441c 173d f69c 28be 0c7f 27bd 13d3 863d
00000280: 0c95 563b 1206 c23d a1c5 2b3d c03a bebd
00000290: 3b80 adbd aa4d 063d 1445 ed3c 155b 843d
000002a0: 4619 23be 181f 863d a724 033d 464e 033e
000002b0: b8d8 68bd f233 14bc 1d6c 93bb 12ab 3abd
000002c0: 6075 1e3c bf45 0a3d 434a bf3c a988 073e
000002d0: 88f9 0abc 83a1 98bd b304 a3bd 3ec4 efbc
000002e0: 43f1 debd 0c54 a7bd 4b60 543d d8b9 a03d
000002f0: dd68 e33d 2a5d 923b ef4f 9e3d 1e99 dc3d
00000300: 747f 1abb a747 593d 1336 cdbc 8566 263d
00000310: dd32 98bd 9b07 873d 53c9 043d 0cb0 b63c
00000320: 48c4 61bd 437d 423e d33b 603c 6277 493d
00000330: fc48 373d 71cd f03d 7a11 583e 92f5 833e
00000340: 3b57 083d cb3e 5d3d 1026 09be 3d9e 543d
00000350: 996f acbd 0b3c e53d ffb9 e6bc e311 a4bc
00000360: c032 d03d 0bf5 083e 1943 5bbd 39cd 593d
00000370: eb77 cabd 243b be3d e547 00be f45e 28be
00000380: a2e6 f0bd 58db 07be b42d 94bd cc8f 5abd
00000390: ea81 acbd c67d 873d c8dd d43c 28b4 dd3d
000003a0: 1157 a83d a8cd c3bd a2cf 163e cef9 9f3c
000003b0: 9c90 633d 6253 4ebd d51a c13c 4d70 d53c
000003c0: 8db9 f63d e0f0 c63c 5b23 41bb bbea 123a
000003d0: f309 65bc 552e 9e3d fb37 283e f3fa f03c
000003e0: 1123 5a3d 8fec c23d 5eb1 ce3d 2591 9d3d
000003f0: e465 873c 10b7 0fbd 20d7 13bd 7864 0d3d
