.checkpoints/lstm_best_model.pt (torch, 356492 bytes, 13 tensors)

module.lstm.weight_ih_l0 f4 [256, 19]
000000 43 24 2e 3d b5 c5 89 3d b9 cc 71 bd b6 b3 d4 3d
       0.04251505 0.06727163 -0.05903313 0.1038584
000010 2f 9c 94 bd af f1 8b b8 32 42 08 be 13 25 c5 3b
       -0.07256352 -6.6730536e-05 -0.13306502 0.0060163825
000020 d6 70 14 3d 3d f4 1f be a9 02 91 3d b1 34 d8 bc
       0.03624042 -0.15620513 0.070805855 -0.026392313
000030 39 da 4a 3d af 23 3b bd 53 6c bd bb e9 ad cc bd
       0.04952452 -0.045688327 -0.0057807355 -0.09994108
000040 bf e7 70 3d 08 df aa bc 43 03 f0 bd a1 ed 2c 3d
       0.05881476 -0.020858303 -0.11719372 0.042218808
000050 ac 9d 52 bd e8 e7 3b 3c 7c f7 e0 bc 20 92 af 3d
       -0.0514199 0.011468865 -0.02746176 0.08572793
000060 9b ee d8 bd bf 62 9a bd 05 e7 25 bd 30 dd a1 bd
       -0.105923854 -0.075383656 -0.04050352 -0.07903516
000070 ae 2e d4 3c 40 46 92 bd 75 9b 24 3e ae c4 b3 bd
       0.025901165 -0.071423054 0.16074927 -0.08777748
000080 75 e8 04 3e 98 df 8e 3c 36 c4 f6 bc 6d 1f 85 3d
       0.129793 0.017440602 -0.030122858 0.065001346
000090 b4 7a 17 bc 01 86 ac 3d 86 05 b2 3c 7f 05 f8 bc
       -0.009245563 0.08423997 0.02173115 -0.030276058
0000a0 2a 46 28 3d 0c 7c d7 bc e0 a6 83 3d eb 53 fa 3d
       0.04108254 -0.026304267 0.06428313 0.12223037
0000b0 79 11 a3 3d be 8d 46 bd b2 0f a9 3d b0 bc 0f 3d
       0.07962317 -0.04847502 0.08254947 0.035092056
0000c0 28 4e 90 3d 9f 95 8c bd 31 ba ec bd 0f ad 19 bd
       0.07046157 -0.068644755 -0.11558951 -0.037518557
0000d0 25 01 a9 bd 38 7a ed 3d cc b3 31 3d 0a 82 6e 3d
       -0.082521714 0.11595577 0.04338436 0.058229484
0000e0 20 fd 3b 3d f9 04 03 3d 29 33 06 3e e7 06 84 bd
       0.045895696 0.031987164 0.13105454 -0.06446629
0000f0 44 d2 57 3d 9f d2 c0 bd 72 40 97 3c 09 c8 8c bd
       0.05269076 -0.09415173 0.018463347 -0.06874091
000100 fa 86 9c 3c 71 c5 2d bd 03 79 dc 3d 7f 63 18 bd
       0.01910733 -0.042424623 0.10765269 -0.037204262
000110 80 46 bb bc d5 14 85 bd d6 a9 11 3e 30 18 69 3c
       -0.022860765 -0.06498114 0.14224944 0.014226958
000120 4c 9a f2 3d e2 33 cb bd fd eb 1f be e5 76 12 be
       0.11845836 -0.09922005 -0.15617366 -0.14303167
000130 c2 7a d9 bd 05 6e f6 3c aa fc ab 3c a1 a2 b2 3d
       -0.10619117 0.030081758 0.020994503 0.08722425
000140 99 5a b9 bd 9b 10 e7 bd ee 2f ed 3c 81 52 b3 bd
       -0.09050483 -0.11282464 0.028953519 -0.08755971
000150 67 9f 19 3d 11 d3 82 bd 3f 96 69 3d ee 59 d7 bd
       0.037505534 -0.06387914 0.05702805 -0.105151996
000160 40 af b3 bd 8c 19 af 3c 9f 64 16 bc ff bd 81 bd
       -0.08773661 0.021374486 -0.009179263 -0.06335067
000170 41 2c 1f 3d c5 60 50 3d 5b df 00 be a7 2e 1b bd
       0.038860563 0.050873537 -0.12585203 -0.037886288
000180 61 4a 2f 3e 27 13 6f bd 13 d2 65 bd de c1 05 be
       0.17118217 -0.058367874 -0.056108546 -0.13062236
000190 32 aa 61 bd 62 6d 4a bc 9f 57 69 bd d0 b7 ce bd
       -0.05509395 -0.01235518 -0.056968328 -0.10093653
0001a0 90 4a 41 bd e9 0a 2a be e8 8d 2d be 07 7d 59 bd
       -0.04719025 -0.16605724 -0.16948664 -0.05309775
0001b0 c9 6a 06 be 7c 3c c3 bd 7b e0 aa 3d 1d c8 ce bc
       -0.13126673 -0.09533021 0.083435975 -0.025241906
0001c0 96 97 b9 3c d8 bd bb bd 1a b6 af bc e8 9e bf 3c
       0.02265529 -0.09167069 -0.021449137 0.023391202
0001d0 57 a8 95 3d 29 ad 8e bd 68 5d 90 bd ce 10 17 bd
       0.07307499 -0.069666214 -0.07049066 -0.03688126
0001e0 23 67 a1 bd a0 47 c1 bd 4a af 7a bd 89 51 22 be
       -0.07881 -0.094374895 -0.061202325 -0.15851416
0001f0 b9 e1 fb bd 7c da da bd 9f 19 a3 bc de 94 09 be
       -0.122989126 -0.10686204 -0.019909678 -0.13435695
000200 67 c2 8c 3d ed 8a af bd 06 ff ec 3d 58 2b 7c 3d
       0.06873017 -0.0857142 0.11572079 0.061564773
000210 86 20 0e be 31 67 b6 3d 22 7c a5 3b 76 69 b2 bd
       -0.13879594 0.08906401 0.005050198 -0.08711521
000220 e1 a6 0e be de cf 0d be d7 e5 0c 3d 23 2e a2 bd
       -0.13930847 -0.13848826 0.03439888 -0.07918956
000230 d7 f4 21 3b 81 d5 d2 bd 90 12 4f 3d 74 fc 54 be
       0.0024712586 -0.10294629 0.050554812 -0.20799428
000240 18 3f e9 bd 54 99 c5 3c 2d ad ef 3c 09 ba 72 3d
       -0.11388987 0.024120964 0.029257381 0.05925945
000250 c4 14 7c 3d 79 05 2c be a7 c2 2f bb 39 bd bd bc
       0.06154324 -0.16798963 -0.0026818903 -0.023161517
000260 1f d5 d8 bc 72 ad 14 be 91 f0 f2 3d e5 7e cb bd
       -0.026468812 -0.14519289 0.11862291 -0.099363126
000270 59 51 3b 3d 48 a6 0a 3d 98 76 bf 3c 99 eb 7b bd
       0.045731876 0.033849984 0.02337198 -0.06150398
000280 93 9e b4 3d 13 fe 30 3d a5 2b 96 3c 33 0d e8 bd
       0.08819308 0.043211054 0.018331358 -0.113306426
000290 23 56 86 3c 2a 5d 01 bd ab e9 8f bd 37 e1 f7 3d
       0.016398495 -0.03158299 -0.070269905 0.12103503
0002a0 53 84 30 3d dd 23 93 bd 02 b0 0f be f3 ca e7 3a
       0.043094944 -0.07184575 -0.14031985 0.0017684385
0002b0 59 f6 92 3d c8 7b 61 bc 67 85 36 bd 4f a6 4f bd
       0.07175893 -0.013762422 -0.044560816 -0.050695714
0002c0 a4 70 f7 bd 3f 84 84 3b 91 d7 a2 3d fa f8 0d be
       -0.12082031 0.0040440853 0.07951272 -0.13864508
0002d0 14 ec 2d 3d 45 8d be 3d 98 e6 5d 3d 13 bf 31 bd
       0.04246147 0.09304289 0.05417499 -0.043395113
0002e0 4f 5b b3 3d 3d 74 22 3d 37 06 49 3d 20 12 1e bd
       0.0875765 0.039661635 0.049078193 -0.038591504
0002f0 89 29 a7 bd e7 8d 19 bd b7 ce 22 bb 1d 17 87 bc
       -0.08162219 -0.037488844 -0.002484245 -0.016490513
000300 67 7a cb 3d 71 a8 08 3e 30 b3 a4 ba 83 ad 9a bc
       0.09935456 0.13345505 -0.0012565609 -0.018881565
000310 7a 36 b0 3b fe 28 a6 39 6c 15 20 3d 03 df 4f 3d
       0.005377588 0.0003169253 0.03908293 0.05074979
000320 45 de b9 bd d5 3a a8 bc 5a 57 ff 3d e7 f0 97 3d
       -0.09075598 -0.020535866 0.12467833 0.07418995
000330 6a 42 28 ba 8e 28 6a bd 8d ad 79 bd c7 98 e1 bd
       -0.0006418588 -0.057167582 -0.060956527 -0.11015468
000340 a8 69 33 bd 6c 9b 2d 3d d7 d5 9d 3d ba 1a 83 3d
       -0.043801934 0.04238455 0.07706802 0.06401582
000350 02 fd d9 bd 4d e5 ad bd 41 f6 04 bd 46 5c c9 3d
       -0.106439605 -0.08491001 -0.03246141 0.09832053
000360 8e ea 52 3c 55 26 17 bd 57 bd 57 3d 49 4a f4 bc
       0.012873305 -0.03690179 0.052670803 -0.029820578
000370 ef eb 74 bd 13 db b4 3d 3e 07 48 bd 1f dc 19 bd
       -0.059795316 0.088308476 -0.04883503 -0.03756344
000380 97 3a ff bd 19 fa 8f 3d c3 9c a0 3d 1c ce d3 3c
       -0.12462347 0.07030124 0.078424 0.025855117
000390 8e 9c d9 3b 44 e5 5b be 10 2e 13 3e 37 28 71 3e
       0.006640977 -0.21474177 0.1437304 0.23550497
0003a0 e2 86 4f 3d 42 0a be 3e 96 53 e8 bd 3f 50 23 3c
       0.050665744 0.371172 -0.11344068 0.009967863
0003b0 87 de 7d be 50 c2 20 be 0e 64 8a be e2 af f8 bd
       -0.24791919 -0.15699124 -0.2702946 -0.12142922
0003c0 73 03 28 3e 4a f4 7d 3e 55 c4 41 bd 43 e0 8d bc
       0.16407566 0.2480022 -0.047306377 -0.01731885
0003d0 68 d5 a1 3d 6e b5 5a ba 0a ea f2 bd c7 6d 93 3d
       0.07902032 -0.0008343075 -0.11861046 0.07198673
0003e0 2d 92 17 bc 0c 67 d1 3d ed aa 56 bc 65 ee 81 bd
       -0.00925116 0.10224733 -0.013102275 -0.06344298
0003f0 4f ee 07 3c 04 93 07 bd 60 cf 01 bc 41 4e ba bd
       0.008296563 -0.03309919 -0.007922977 -0.09096957

module.lstm.weight_hh_l0 f4 [256, 64]
000000 48 c7 de 3d 11 41 d2 3c 73 2a bd 3d 07 69 50 bd
       0.10877854 0.025665792 0.09236612 -0.050881412
000010 9a 54 e8 bd f0 59 9d 3d 81 cd 8b 3d da 50 db 3d
       -0.113442615 0.0768317 0.06826306 0.107087806
000020 52 c6 27 3d 1c 29 a0 bb a3 5b 0c be 20 7a f2 bd
       0.040960617 -0.004887713 -0.13706832 -0.118397
000030 e5 e8 2a 3c e7 48 f3 3d 54 31 ee bc 86 9f 6d bc
       0.010431503 0.118791394 -0.029076256 -0.014503365
000040 b6 88 9f 3d 3c e3 72 bb b6 1f 60 3d cb f2 e8 bd
       0.077897474 -0.0037061712 0.054717742 -0.11374434
000050 04 1b f6 bd 7c 35 9b bd e9 3b 3c bd df 0c 02 3e
       -0.120168716 -0.07578561 -0.045955572 0.12700222
000060 92 13 12 3d 3c 37 d8 bd ac 8c 5a bc 1f 37 87 3d
       0.035663195 -0.1055741 -0.013339203 0.066023104
000070 71 d5 eb bc 04 ed b3 bc 0a da b6 3d 0b be 58 bc
       -0.0287883 -0.021963604 0.089283064 -0.0132289035
000080 ea e8 2a 3d 8e 50 e6 3d 11 7b 29 3d 34 21 b0 bc
       0.04172603 0.11245833 0.04137713 -0.021500207
000090 0f 88 b2 bd 1e 50 d3 bd 2e e6 8d bd 1d 75 1e 3d
       -0.08717357 -0.103180155 -0.06928669 0.038685907
0000a0 a6 b1 e8 3d 19 c5 02 3d 27 7e ce 3d 24 b8 5e bd
       0.11362009 0.03192625 0.100826554 -0.05437483
0000b0 ec 42 08 3d 39 9b 97 bd ae 9e f2 3c 0f 44 08 3e
       0.033266947 -0.07402653 0.02961668 0.13307212
0000c0 1c 01 4b 3d 16 56 dc be 7b 41 07 3e 70 25 ca bd
       0.049561605 -0.43034428 0.13208573 -0.09870422
0000d0 67 6a e0 bd f7 79 3f be 4d b1 f5 3d a2 02 64 bd
       -0.10957795 -0.1869887 0.11996708 -0.055666573
0000e0 94 05 f3 ba 1e 9a e9 bd 81 c1 cd bc e1 7b 90 bd
       -0.0018541091 -0.11406349 -0.025116684 -0.07054878
0000f0 b3 d9 0b 3c b7 7e 8b 3c 38 62 24 3d b5 be d8 3d
       0.00853579 0.017028196 0.04013273 0.105832495
000100 04 48 e7 3d 32 74 90 bd 78 32 5d bc db e0 09 be
       0.11293033 -0.070534125 -0.013500802 -0.13464682
000110 e5 ad 78 bd 2a 6b ef 3d 15 5f da bd 86 00 19 bd
       -0.060712714 0.11690362 -0.10662667 -0.037354015
000120 97 86 a2 3d 14 6e 1f 3e 90 34 c8 bd d4 6f d7 bd
       0.07935827 0.15569335 -0.097756505 -0.105193764
000130 a0 ff ca bd 3b 17 ec 3d 8e 25 8b 3d d5 aa d4 3d
       -0.09912038 0.11527868 0.06794272 0.10384146
000140 38 af f6 3d f7 ff 8e bd a9 4c 6e 3d 60 7b c3 3c
       0.12045139 -0.06982415 0.058178578 0.02386254
000150 2a e1 86 bc cf 0e aa 3a 01 13 40 3d fa 01 ce 3b
       -0.016464788 0.0012974384 0.046893124 0.0062868567
000160 f8 5f 20 bd 77 74 fa 3d 67 bc be bc 68 f9 75 3d
       -0.039154023 0.12229245 -0.023283197 0.060052305
000170 4a f7 a9 3d 68 14 1e 3d c5 02 f5 bc 10 8e 98 bd
       0.0829912 0.03859368 -0.029908547 -0.07448971
000180 a1 ee 39 3d 94 49 b6 3c 24 4d b2 3c 16 63 84 3d
       0.04539359 0.022251882 0.0217653 0.06464212
000190 26 7d 03 3d 5b 6c b5 bd fc 33 90 bd 17 eb cb 3d
       0.032101773 -0.08858558 -0.07041165 0.09956949
0001a0 b6 58 5e 3c ed 31 a0 bc 29 22 94 bd 9a e4 cc 3d
       0.013570955 -0.019555056 -0.07233078 0.1000454
0001b0 77 85 3b 3d ad ae b8 bd e1 a8 0d be fc c6 b4 3d
       0.04578158 -0.09017692 -0.13833953 0.08827016
0001c0 80 01 ca 3c da bf e0 bc a4 b7 64 bd 37 81 7c 3d
       0.024658918 -0.027435232 -0.055839196 0.061646666
0001d0 f0 b4 66 bd ec ff 46 3d 07 60 c7 bd 1c 60 0f be
       -0.0563249 0.04858391 -0.09735113 -0.14001507
0001e0 14 6c be bd 73 5e d0 3d bf fc c3 3d 81 86 e1 bd
       -0.09297958 0.10174265 0.09569692 -0.11011983
0001f0 67 89 93 3d 93 de 9b bd 5e 3f e4 bd 27 32 d0 3d
       0.07203942 -0.07610812 -0.11144899 0.10165816
000200 73 98 ca 3d f3 4d f1 3d 85 c1 50 bc db d2 9b 3d
       0.09892359 0.11782446 -0.012741451 0.07608577
000210 44 65 a2 bd 40 54 e0 3d fe 51 0e bd fd 75 54 3d
       -0.07929471 0.109535694 -0.034746163 0.051870335
000220 27 6f d5 3d 3b 4e 29 bd 3f 0c db 3d 11 2c 86 bd
       0.10421591 -0.041334372 0.10695695 -0.06551374
000230 69 ba 07 3d 89 74 91 bc e0 83 f7 3c 07 f1 1d 3e
       0.03313676 -0.017755764 0.03021425 0.15423976
000240 0b d4 da bb e7 e0 14 be 84 c3 d6 3d c5 2d f9 bc
       -0.0066781095 -0.14538918 0.104865104 -0.030417332
000250 0c 28 89 bc 9d 68 f7 3d c8 88 1f bd fa c7 e5 3d
       -0.016742729 0.120805 -0.038948804 0.11219783
000260 b7 f5 a9 3d f4 b1 0d 3c c5 76 85 3d 01 05 4d 3d
       0.082988195 0.008648384 0.06516794 0.0500536
000270 7e 41 b0 3d 82 d9 ea 3c 86 45 39 bd 11 aa b8 3c
       0.08606242 0.028668169 -0.04523232 0.022542031
000280 ba 72 ae 3d 05 e8 18 3e 35 a1 69 3d 69 3a ac 3c
       0.08517976 0.14932258 0.057038505 0.021023946
000290 f1 18 5c bd 87 59 cd bc e1 18 95 bd be fc 9d 3d
       -0.053734723 -0.025067104 -0.07280136 0.07714222
0002a0 ed 75 1e 3e 90 e1 a8 ba a5 37 81 bd 1e 0a 76 3d
       0.15474673 -0.0012884606 -0.063094415 0.060068242
0002b0 63 7b 1e be 02 0b 69 3d d9 9a 22 be 96 81 9d bd
       -0.15476756 0.056895263 -0.15879382 -0.07690732
0002c0 c0 98 a5 bd 88 33 cb 3d b5 30 a4 bb 68 d3 ac 3d
       -0.080857754 0.09921938 -0.005010689 0.0843876
0002d0 9d a3 a4 3d 84 c2 a8 3d 0e 30 fb 3d 69 87 59 3d
       0.08039019 0.08240226 0.12265025 0.053107653
0002e0 ac 73 23 3e 6c 71 a0 bd fe 7a 95 bd 82 c8 f2 3c
       0.15962094 -0.078341335 -0.072988495 0.029636625
0002f0 de 08 85 3d 0e 81 8a bd e9 a6 d8 bd 95 56 7c bd
       0.06495832 -0.067628965 -0.105787106 -0.06160601
000300 d3 f4 c3 bd 66 7e 1a ba 75 b6 ef 3d af 93 d0 3c
       -0.09568181 -0.00058934686 0.11704723 0.025461046
000310 39 01 11 be c7 94 07 bd 88 97 34 be 46 3a 9c bc
       -0.14160623 -0.03310087 -0.1763593 -0.019070756
000320 59 29 b2 bd 1f ef e7 3b c8 4a 4f 3d d6 8d e0 bc
       -0.08699293 0.007078066 0.050608426 -0.027411383
000330 1e 2e 93 3d de a9 8b 3e a9 65 a1 3b 82 a9 1f be
       0.071865305 0.27278036 0.004925449 -0.15592006
000340 a2 d3 fb 3b a9 5c 16 3e d9 44 fc bc 11 a5 8d bd
       0.0076851407 0.14683785 -0.030794548 -0.069162495
000350 45 18 e7 3d 64 e4 ce 3d ff 1b a7 3e 1f 82 5b be
       0.11283926 0.10102156 0.32638547 -0.21436356
000360 ef ba b3 bd f2 cb 44 be 95 53 67 be 45 e7 9f bc
       -0.08775889 -0.19218424 -0.22590478 -0.019519458
000370 6d ad 06 3d 31 47 44 3c b0 ca 5a be 91 b0 b0 3c
       0.032880235 0.011979864 -0.21366382 0.021568568
000380 dc 1f 00 bd f0 42 00 be 92 7e bd bb cc 5e 0b 3c
       -0.031280383 -0.12525535 -0.0057829106 0.008506488
000390 04 d5 05 3e 87 1e 4a 3e 9a b1 2d bd 04 e2 3f 3e
       0.1306954 0.19738208 -0.042405702 0.18738562
0003a0 3d de 48 be 40 7f 32 be b6 b3 8e 3d 5c e8 1e 3e
       -0.19616027 -0.17431355 0.06967871 0.15518326
0003b0 6c 8b 0a 3d 5d 4f f0 3d fc 4a 25 bb 09 94 84 3d
       0.03382437 0.11733887 -0.0025221696 0.06473548
0003c0 9f 1e fd 3d 75 ab ae 3d 2c e4 13 3f 98 ad 47 3e
       0.12359356 0.085287966 0.5777004 0.19499815
0003d0 5b 2f 40 39 d4 2f 27 3e c6 35 63 bd 21 a8 d1 3d
       0.00018328188 0.16326839 -0.055471204 0.10237146
0003e0 af 05 90 3d 91 af 09 3e 45 c6 03 3e 61 c0 dc 3d
       0.07032334 0.1344588 0.12868603 0.10778881
0003f0 9e 23 6d 3d cf e4 b3 3e fb e0 fa bd 2a 86 15 3b
       0.057895295 0.35135505 -0.12249943 0.0022815564

module.lstm.bias_ih_l0 f4 [256]
000000 2a ca fe bd d1 c8 66 3b f9 6b f0 bc 0b 98 6e bc
       -0.124409035 0.003521491 -0.02934836 -0.014562617
000010 90 a3 75 bc 08 e4 d9 3d 56 b0 9f bc 6f 12 8c bd
       -0.01499261 0.10639197 -0.019493263 -0.068394534
000020 82 b3 17 3b f1 3a 2f be d7 d3 27 bd 31 85 cc bd
       0.0023147766 -0.17112328 -0.04097351 -0.09986342
000030 9f b3 45 be d9 b3 02 be 39 51 c5 bd 22 74 30 3d
       -0.19306801 -0.12763919 -0.096346326 0.043079503
000040 2a c4 13 be 3d 97 0b 3e d7 43 d1 bc 86 64 aa 3d
       -0.144303 0.13631912 -0.025545044 0.083199546
000050 ad 11 90 bd c4 5d dc 3d 71 e2 0d 3d 99 68 96 3d
       -0.070346214 0.10760072 0.03463978 0.07344169
000060 08 c6 3a 3d 7f 75 8d bb 4a ad ea bc b1 4e ad bd
       0.045599014 -0.004316985 -0.028647084 -0.08462275
000070 df c4 a3 bd 63 4c 88 3d 4f b2 db 3d 95 7e 00 3e
       -0.079965346 0.066551946 0.10727369 0.12548287
000080 18 50 c5 bc 3a b7 94 ba 74 63 8b 3d a9 15 83 bd
       -0.024086043 -0.001134611 0.068060786 -0.06400616
000090 f1 9b 84 3d 4b 4e 72 3d 6f a2 d0 3c 4c 8d bf bd
       0.06475056 0.059156697 0.02546808 -0.09353122
0000a0 c8 77 ed 3d d0 3c 7a bc 9d 44 e4 3d 03 9d d4 bd
       0.11595112 -0.015273288 0.111458994 -0.1038151
0000b0 24 29 82 bd 48 19 36 bb 50 1f d0 bd fc 71 b9 bd
       -0.06355503 -0.0027786065 -0.101622224 -0.09054944
0000c0 0a 8b 5d be 0a 95 78 3d 11 cd de 3d db 11 16 3d
       -0.2163507 0.06068901 0.10878957 0.036638122
0000d0 36 f2 51 3d 74 d1 55 3d 68 b2 7b 3d 37 d8 66 3c
       0.05125638 0.052201703 0.06144944 0.014089636
0000e0 9b 88 fd bd d9 e6 c1 bd b0 3a 9b 3d df 1c 37 bd
       -0.12379571 -0.09467859 0.07579553 -0.044705268
0000f0 af 7d a1 3d 4b 98 eb bc d2 e0 09 bc 6b 32 32 bc
       0.078853 -0.028759142 -0.008415418 -0.010876278
000100 b3 18 f8 3c 31 e7 ab 3c 8e ae 1b 3e ab 80 e8 bc
       0.030285215 0.020984264 0.15203306 -0.028381666
000110 8c 1b 49 bd 74 35 81 bd 09 a2 6e 3d af f3 25 bd
       -0.049098536 -0.063090235 0.058259998 -0.040515598
000120 40 a6 69 3d e6 8c 4d 3e da 94 90 bc 85 2b 2e 3e
       0.057043314 0.2007328 -0.017649103 0.17008789
000130 9d c9 ed 3d 01 30 63 bd 8e 72 15 3e a3 96 c2 bc
       0.1161072 -0.055465702 0.1459448 -0.02375347
000140 15 03 e3 3d 52 f9 a2 bd d8 39 1b 3d 46 ed b4 3d
       0.11084572 -0.0795771 0.03789696 0.08834319
000150 30 4e 0c 3e 50 90 82 bc 57 44 f0 3d f8 c3 10 3e
       0.13701701 -0.015937954 0.11731785 0.14137256
000160 13 22 7a bc 90 e2 10 3e a6 7c 8e 3c 0b 77 cd 3b
       -0.015266913 0.14148927 0.017393421 0.0062702945
000170 64 71 90 3d 38 15 b9 3d 2b 34 80 bd 34 ed 2f 3b
       0.070528775 0.0903725 -0.0625995 0.0026844265
000180 25 aa de 3b 40 89 15 3e 08 c5 b5 3c 77 24 15 bd
       0.006795185 0.14603138 0.022188678 -0.03641173
000190 43 cf e0 3c 25 cd a3 3d 16 c0 f8 bc be a5 b8 3d
       0.02744258 0.079981126 -0.030365031 0.09015988
0001a0 1c 21 3e bd e1 cf ee 3d b4 5b 26 bd a8 a0 0f bd
       -0.046418294 0.116607435 -0.0406148 -0.035065323
0001b0 a4 0c 22 bd 89 0b b9 3c a6 28 c9 bd c1 eb 4e be
       -0.039562836 0.022588508 -0.09822206 -0.2020712
0001c0 eb 11 18 3e f8 e8 b5 3d 63 6c 52 bb 64 69 75 ba
       0.14850585 0.08882326 -0.003210806 -0.0009361713
0001d0 fc 7f b5 bd b4 e0 13 3d b5 cb cb 3b e4 61 81 3d
       -0.08862302 0.036102965 0.006219352 0.06317499
0001e0 b0 40 96 3d 89 38 96 3d 01 e6 de bc 18 d8 df bc
       0.07336557 0.07335002 -0.027209284 -0.027324721
0001f0 b9 60 ac 3d 7f 96 1f 3e f7 d0 b9 bc b6 69 be 3d
       0.08416886 0.15584753 -0.02268265 0.092975065
000200 c2 c9 c2 3b 72 71 12 3e 84 3a 92 bd 1e c0 97 3d
       0.0059444616 0.14301088 -0.07140067 0.0740969
000210 4e ac 81 3d 1c b3 cf 3d f3 19 54 3c fa fc 95 3d
       0.06331693 0.10141584 0.01294564 0.07323642
000220 13 f8 0c 3e c9 a4 f2 3c 90 49 4e bd 7a 02 1c 3d
       0.13766508 0.029619591 -0.050363123 0.0380883
000230 e9 b7 25 3e 65 48 88 3d fe ec 9a bd d8 6a 29 bd
       0.16183437 0.06654433 -0.07564734 -0.04136166
000240 40 c7 c2 3d a2 54 10 bd 19 47 d4 3c 2c b1 1a 3d
       0.0951066 -0.035236962 0.025912808 0.03776662
000250 eb 99 c0 bd cc 1b 99 bd f9 9c 94 3d 78 76 a9 bd
       -0.094043575 -0.07476005 0.07256503 -0.08274549
000260 19 ac 3b bd 88 d5 23 3e b8 c4 ae ba 01 cf bf 3d
       -0.045818422 0.15999424 -0.0013333773 0.09365655
000270 9a 76 80 bc 17 77 f6 bc 57 ce 0e 3c 8a d0 67 3d
       -0.015681554 -0.030086083 0.008716187 0.056595363
000280 00 80 12 3d 55 c9 0d 3c c3 aa a6 3d 7c 42 d4 bd
       0.0357666 0.008653958 0.08138039 -0.103642434
000290 09 c0 54 bd 0a c3 37 bc c3 00 25 3a bc 50 45 bc
       -0.05194095 -0.0112159345 0.0006294364 -0.012043174
0002a0 f4 64 e3 3c fc 5e c1 bd 09 27 8e 3d bc ab 70 3d
       0.0277581 -0.09441945 0.06941039 0.05875753
0002b0 ed 05 06 be b9 f0 74 bd 15 13 10 bc db e9 a8 3d
       -0.13088198 -0.059799884 -0.008793612 0.082477294
0002c0 8d 2f 60 3a 91 26 c4 3d 17 ff 08 be cc 04 95 3d
       0.00085520075 0.095776685 -0.13378559 0.072763056
0002d0 e7 dd 0e 3e ed 5d cf bd 49 06 5c 3d 7a 30 2c bd
       0.13951837 -0.10125337 0.05371693 -0.04203842
0002e0 50 4d 15 3e 10 b3 ab bd b3 e2 09 be 99 0a ea bd
       0.14580274 -0.08383763 -0.13465385 -0.114278026
0002f0 7b e3 6d 3d 09 81 41 3d 84 7d ad bd 17 87 e4 bd
       0.05807827 0.0472422 -0.08471206 -0.11158579
000300 3a 1d 3e 3d a1 e8 83 3b 9f aa 90 bd b6 7b 4b bd
       0.04641459 0.0040255343 -0.070637934 -0.049678527
000310 9a 67 35 bd 6a 4e ca bc 70 ea b2 3b 0a 54 88 3d
       -0.044288255 -0.024695594 0.005460076 0.06656654
000320 75 66 55 3d 80 77 c4 3d ae 0a 0e be 5c 13 f9 3c
       0.052099664 0.09593105 -0.13871261 0.03040474
000330 b2 fe 23 3d 80 d1 ba bc aa e2 9b 3d 80 7a 19 bd
       0.04003782 -0.022804976 0.07611592 -0.03747034
000340 c1 37 60 bb 5e e6 63 bd 8c c1 ba bc a9 66 3f bb
       -0.003421292 -0.055639617 -0.022797368 -0.0029205477
000350 e6 26 08 bd d0 6a e3 bc 78 e7 bd bd 19 a9 f7 3d
       -0.03324022 -0.027760893 -0.09272665 0.120928
000360 0c 1d 8d 3d 99 6e 32 bd de 19 9b bd 59 42 31 3c
       0.06890306 -0.043562505 -0.07573293 0.010819041
000370 1f 66 e4 bc 75 8e c6 3c 6a 04 10 3d ec 4e 13 3d
       -0.027880726 0.02423785 0.03516046 0.035963938
000380 5d f9 93 3d b3 a6 e8 3c c9 3f 71 3d 28 ab 0a bd
       0.07225297 0.0283998 0.05889872 -0.033854634
000390 a3 1c 8d 39 40 6b 07 3e 1f 27 06 3e 40 e7 9e 3d
       0.00026914952 0.13224506 0.13100861 0.07758951
0003a0 38 52 97 bb 39 db b2 3c 16 70 03 3e d7 f8 7c bc
       -0.0046179555 0.02183305 0.12835726 -0.015440187
0003b0 93 2b 2b 3d 9b c6 f0 3d d1 39 bd 3d b7 d0 9b bd
       0.041789602 0.11756631 0.09239543 -0.076081686
0003c0 bd 31 20 3d c9 c3 a3 bd b5 1c df 3b bc 23 c7 3d
       0.039109934 -0.079963274 0.006808842 0.09723613
0003d0 90 3f 5d 3d 46 7d c8 3d 3d 90 e9 bd f1 b3 b6 3d
       0.054015696 0.09789519 -0.114044644 0.0892104
0003e0 49 ba 25 3d 5f 48 d8 3d 7a c3 ac 3d 4e 7d 2c 3e
       0.04046086 0.10560679 0.08435722 0.16844675
0003f0 1c fa 59 bd ef b0 41 3e 41 31 54 bc c0 bd bb bc
       -0.05321704 0.18915151 -0.012951196 -0.022917628

module.lstm.bias_hh_l0 f4 [256]
000000 85 65 67 bc a2 67 c3 bc 5c c6 9a 3d 1a 05 53 3d
       -0.014123325 -0.023853127 0.07557365 0.051518537
000010 dd c9 3d bd ac f8 3d 3d ba 38 89 bb de a4 aa 3d
       -0.04633509 0.04637973 -0.0041876705 0.08332227
000020 9d 6c df 3d 08 43 8b bd bb 31 b3 bd da b9 25 ba
       0.10909388 -0.067998946 -0.0874972 -0.00063219445
000030 a0 30 89 bc ea 85 ee b9 e8 b2 8e 3d 44 07 9d 3c
       -0.016746819 -0.0004549467 0.069677174 0.019168504
000040 27 19 1d be bd 8f 06 bd 30 8f b8 3b ac b6 a1 bd
       -0.15341626 -0.032851923 0.0056323037 -0.0789617
000050 9c 81 86 3b d3 64 2f bd 11 5a cc bd 0a ec 94 3d
       0.004104806 -0.042820763 -0.09978116 0.072715834
000060 a3 fe 00 3d 76 71 69 3c 14 b8 79 3c 2d b8 22 be
       0.03149284 0.014248243 0.015241642 -0.1589057
000070 e1 e2 e4 bc 99 ca bd bd b3 d7 2a bc 48 63 92 3d
       -0.027940216 -0.09267158 -0.010427403 0.07147843
000080 d5 54 4e 3b 96 e7 14 3d 21 16 81 3d 16 fc f3 3d
       0.003148367 0.03635367 0.06303049 0.11913316
000090 2d 06 0f 3e d4 8e 08 3e 8d d6 a3 bc 4a ea 46 bd
       0.139672 0.13335735 -0.019999767 -0.04856328
0000a0 3d 7a d2 bd dc 7f 62 3c c4 df 78 3d 47 86 d3 3c
       -0.10277221 0.013824429 0.060760275 0.025820864
0000b0 3c ed 99 3d f5 a1 91 bd e2 45 95 3c d8 3a 33 3d
       0.07515952 -0.07110969 0.0182218 0.04375729
0000c0 21 59 6c be f0 34 12 bd 84 f1 6e 3d d9 52 98 bd
       -0.23080875 -0.035695016 0.058335796 -0.07437677
0000d0 77 17 90 bd 39 46 83 bd 80 cf c1 3d df c4 ac bc
       -0.070357256 -0.06409878 0.094634056 -0.02108997
0000e0 41 bb 1c bd 79 a6 ef 3d 26 4a 5f 3d e4 26 2e bb
       -0.038264517 0.11701674 0.054514073 -0.0026573474
0000f0 d8 df 34 3d e8 a6 da bd 0c c1 26 3e 13 9e 96 3b
       0.044158787 -0.10676366 0.16284579 0.0045964806
000100 01 5b e2 3d 5d c1 46 bc 39 11 e2 3d c8 39 05 3e
       0.11052514 -0.012131062 0.11038441 0.13010323
000110 79 e2 ab bc 68 90 28 3d 02 b0 d4 bc e2 be ee 3d
       -0.020982014 0.04115334 -0.025962833 0.11657502
000120 58 42 dc 3c 3b 6d 2f 3e 23 44 32 bd 42 60 81 3c
       0.026887104 0.17131512 -0.04352201 0.01579297
000130 09 b1 30 3c 0c 5d fe 3d cd 2d 16 3e ed 87 9f 3c
       0.010784396 0.12420091 0.14665909 0.019473994
000140 06 b4 d8 3d 31 60 ee bd ec 10 b2 bb c8 c6 04 3e
       0.10581212 -0.11639441 -0.005434146 0.12966454
000150 a5 b3 83 3c af 49 1f bd 5f 38 78 bc fd d7 19 3e
       0.016076872 -0.03888863 -0.015150159 0.15023799
000160 4d fc 0c 3d b0 a9 ad 3d 98 a1 66 bc 29 91 0f 3e
       0.0344203 0.08479631 -0.014076613 0.14020218
000170 46 f7 cd 3c 52 fb 37 3e 5c fc 05 3e 61 ea 5c bd
       0.025142323 0.17966965 0.13084549 -0.05393446
000180 c3 11 10 3e 06 fb 9e bc c2 96 33 bc 6c 15 d0 3d
       0.14069276 -0.019406807 -0.010961236 0.10160336
000190 92 2e bd bd d9 92 26 3d fe 6c ed bd 50 0e 30 bd
       -0.09237398 0.04066739 -0.11593054 -0.0429824
0001a0 3b ee 9a 3d 44 0a aa 3d 36 18 92 3d 1d b4 62 bc
       0.0756497 0.08302739 0.07133524 -0.013836888
0001b0 e9 cc 69 3d dc 54 4f 3d 86 43 b7 bc 39 dc 4c be
       0.057080183 0.050618038 -0.022371065 -0.20005883
0001c0 7a 52 03 3e 54 78 bd bd 5d 6b 6d 3d 7f 10 ef 3d
       0.12824431 -0.092514664 0.057963718 0.11673068
0001d0 40 f6 8f 3d ba 40 77 bd fb 62 25 3e 95 e3 60 bd
       0.0702939 -0.060364462 0.1615104 -0.05490454
0001e0 04 4b 2e ba f9 9d 76 3d d2 ef 65 bc 02 97 3a bd
       -0.00066487514 0.06020925 -0.014034228 -0.04555417
0001f0 d7 8f 85 3d 2d b1 26 3e 6e ac f5 3d 23 83 93 3d
       0.06521576 0.16278525 0.11995779 0.07202747
000200 42 03 aa 3d d5 be fa 3d ab be 95 bd 90 da 88 3d
       0.08301403 0.122434296 -0.07311758 0.066823125
000210 36 58 3b 3d 24 e6 b6 3d 6c 75 dc bd ef 4e 90 3c
       0.04573842 0.089306146 -0.10764584 0.017615763
000220 3f 39 05 3e 12 8a cb 3c ae 84 f4 bd 99 35 38 bc
       0.13010119 0.02484611 -0.11939369 -0.011243247
000230 85 54 57 3c 5e f5 9b bd 0c ae c6 3d c4 e6 cd bd
       0.01314271 -0.076151595 0.097011656 -0.10053781
000240 75 2a 22 3d 11 f1 8b 3d ec b2 b7 3d 80 06 c7 3d
       0.03959127 0.06833089 0.089696735 0.09718037
000250 fd 98 e5 bb aa e6 bf 3d 99 4e fd 3c 48 d0 57 bd
       -0.007006763 0.093701676 0.030921267 -0.052688867
000260 7b 65 9f bd 9d ad 28 3d 0c 17 64 bd df 4d 80 bd
       -0.07783028 0.041181196 -0.05568604 -0.06264853
000270 e1 09 eb 3c 85 de 02 be 37 b1 6e bd a3 6c b2 bc
       0.028691234 -0.12780197 -0.058274474 -0.021780318
000280 45 64 ef bd ff d1 58 bd 43 fb fb bc 40 2f 96 bc
       -0.11689047 -0.052934643 -0.03075946 -0.018333077
000290 11 91 05 3d ee f8 b8 3d 35 ac b0 bd a7 bb 2d bd
       0.03260905 0.090318546 -0.08626596 -0.042415287
0002a0 94 c0 61 bd 8e 9c 8f bd 56 26 b7 3d 19 e3 c0 3d
       -0.055115297 -0.07012282 0.08942859 0.094183154
0002b0 a0 ea 88 3b e2 c3 97 3d 37 e9 cf 3c 45 a9 6b 3d
       0.00417836 0.074104086 0.02537976 0.057534475
0002c0 6f 77 c8 3c 7d b6 ab 3d 11 4c 37 3c 77 c8 8c ba
       0.024471013 0.08384416 0.011187569 -0.0010740896
0002d0 ec d3 16 bc 85 87 9c 3d de 06 7a 3d 4e 36 74 3d
       -0.0092058 0.07643036 0.061041705 0.0596221
0002e0 62 b5 10 3e 6a c8 95 3d ef 93 c9 3d ff f2 a7 3d
       0.14131692 0.073136166 0.09842669 0.08200645
0002f0 26 dc 7a bd 0e ec 0b bd 49 05 6f 3d 27 ee 88 3d
       -0.061245106 -0.034160666 0.05835465 0.06686049
000300 04 95 fe bd 02 73 d8 3d f9 39 93 3d e2 10 67 bd
       -0.12430766 0.10568811 0.07188792 -0.056412585
000310 bf 81 6f bd 84 44 b2 bb 29 38 3b 3e 2a 10 32 3d
       -0.058473345 -0.0054402966 0.18283142 0.043472447
000320 55 0d 32 bd cc c2 53 3d ee 51 d7 bd 07 c9 72 bd
       -0.043469746 0.051699445 -0.10513674 -0.059273746
000330 8f a2 23 3e 37 77 3a 3d 1e b8 34 3d 3c b7 c1 3d
       0.1597998 0.04552385 0.0441209 0.09458777
000340 a0 28 c9 3c 8e a5 f9 3c a1 6d 9b 3b 27 f1 67 3d
       0.024555504 0.03047445 0.0047432934 0.056626465
000350 17 81 38 3c 60 65 92 3b ff 22 d3 bd 2d 69 30 3d
       0.011261246 0.0044676512 -0.10309409 0.043069053
000360 96 fc a3 bd f6 2f f1 3d f2 73 a6 3d 00 6f a2 3d
       -0.08007161 0.11776726 0.081275836 0.07931328
000370 85 17 ad 3d 66 de a8 3c 13 98 7f 3c d3 6e de 3d
       0.084517516 0.02061386 0.015600222 0.10860982
000380 0e cb 0f 3e 72 e1 98 bd f5 d4 b0 bc 79 42 0c bc
       0.14042303 -0.07464875 -0.02158592 -0.00856077
000390 23 a1 bc 3d 2a 2b 51 3c 68 a4 e9 3d 28 52 66 bd
       0.09210422 0.012766639 0.11408311 -0.056230694
0003a0 00 58 85 3c 17 f7 2a 3d 45 66 95 bc 9b 94 de 3d
       0.016277313 0.04173955 -0.018237242 0.10868188
0003b0 5f d7 cd 3d 80 3f dd 3b 20 55 34 bd da b8 88 3d
       0.100508444 0.0067519546 -0.044026494 0.06675883
0003c0 e2 02 c1 3d ed 98 06 3d ea 8e 0d 3e ef 43 5b 3d
       0.09424378 0.032860685 0.13824049 0.053531583
0003d0 77 3e a3 bd 81 53 73 bd 9e 5b 81 3d 47 01 c6 3b
       -0.079708986 -0.059405807 0.06316303 0.0060426327
0003e0 13 57 3c bd ed 97 22 bd 1e 4a c9 bd 9b 20 e0 3d
       -0.045981478 -0.03969567 -0.0982859 0.10943719
0003f0 ba c2 8d 3d 56 8a f0 3b c4 c6 ca 3d d4 d2 f9 3d
       0.06921907 0.0073407097 0.09901193 0.121984154

module.lstm.weight_ih_l1 f4 [256, 64]
000000 a3 eb 14 3e 06 0e b4 bc 1d 7d 98 3d a2 fc 1f 3d
       0.14543013 -0.021979343 0.074457385 0.03905929
000010 21 47 ec bd 1e 01 15 3e 83 dc 32 3e 7f 98 f5 3d
       -0.11537004 0.14551207 0.17466931 0.11991977
000020 68 cf ec 3b 67 9b 87 3c 96 a7 04 3d db 32 46 3d
       0.007226873 0.016553594 0.032386385 0.048388343
000030 23 94 b5 3d 29 0a ff bd a3 eb 3c 3c 1a 6a 21 be
       0.088661455 -0.1245311 0.01153079 -0.15763131
000040 79 c0 35 3c ca df 2a bd 89 a4 13 3e 61 a7 36 3c
       0.011093252 -0.041717328 0.14418234 0.011148305
000050 be 35 ba bd 05 0a 6f 3d 86 79 dc bc 79 54 68 bd
       -0.09092282 0.058359165 -0.026913416 -0.056721184
000060 ff ee 12 bd e1 66 19 3e f3 54 fb bc b5 39 ea bd
       -0.035872456 0.14980651 -0.030680155 -0.11436788
000070 b9 23 c6 3d e2 24 4a be ce 7d 59 bd 5a c1 84 3d
       0.09674782 -0.19740632 -0.053098492 0.064821914
000080 a4 8b b2 3d 3d c6 4f bc d6 be 42 bb b0 dd dd 3d
       0.087180406 -0.012681541 -0.0029715798 0.10833299
000090 70 21 b8 3d 5b e4 8c 3c b9 b3 38 3e 21 46 b5 3c
       0.08990753 0.017198732 0.18037309 0.022128167
0000a0 27 f6 ea 3d 5c 1c 16 be 7b cd f8 3d 3e e8 d7 3d
       0.11472731 -0.14659256 0.12148567 0.105423436
0000b0 b6 b6 f1 bd 69 1f 1c 3e 28 47 24 3e 5b 73 03 3d
       -0.118024275 0.15246357 0.16042769 0.032092433
0000c0 ae f1 e4 3d 52 6e d3 3e 20 8e 39 be 75 74 48 bd
       0.11178909 0.41295105 -0.18120623 -0.048939187
0000d0 c8 a9 b7 bd 73 e9 db 3c 3a 6d 9f bd 74 4e 12 3e
       -0.0896793 0.026844716 -0.07784505 0.1428774
0000e0 6a 84 c4 bc 78 b7 39 bd 84 71 dc 3d 5d 4e 40 bd
       -0.023988921 -0.045340985 0.10763839 -0.046949733
0000f0 47 6e d0 3c 15 a1 56 be d0 a7 b9 bd 06 01 10 bd
       0.02544321 -0.20959885 -0.09065211 -0.035157226
000100 d7 16 b6 3d 6e 29 88 bd 69 7c cf 3d dc fb 3c be
       0.08891075 -0.06648527 0.10131151 -0.18455452
000110 f6 f6 e0 3d 5a 3a ab 3d b6 88 60 3d 88 da 8d bd
       0.10984604 0.08360739 0.054817878 -0.06926447
000120 4b 4a c0 bd fb 57 b3 3c 31 10 63 3d 74 af ac 3d
       -0.0938917 0.021892538 0.055435363 0.084319025
000130 8b 6f b1 3d c8 9a 40 3d d5 3a a8 bd be c8 bf bd
       0.08663853 0.04702261 -0.08214346 -0.093644604
000140 67 f0 8a 3c 24 97 82 bc 8c 6c a6 bd 60 56 79 3c
       0.016960336 -0.01594121 -0.081261724 0.015218347
000150 29 ee d7 bd 0f 86 07 3d 01 33 7d bd 11 28 0f be
       -0.10543472 0.033086833 -0.06181622 -0.13980128
000160 88 f7 51 be 87 36 f6 bd b8 c3 35 3e 2f b2 47 bd
       -0.20504582 -0.12022119 0.17750442 -0.048753913
000170 1f ea 16 bc 96 83 46 bc c0 0f a5 3d 08 ca 10 be
       -0.009211092 -0.0121163335 0.08059645 -0.14139569
000180 c2 10 88 3d 5f a6 cb 3d 49 3a 2e bd 6e 9e 4c bd
       0.06643821 0.09943842 -0.042536054 -0.049955778
000190 96 c1 bc bd 08 b0 4a bd b3 70 2a be dd 75 32 be
       -0.09216611 -0.049484283 -0.16644554 -0.17427774
0001a0 f4 6c 45 bd 51 0f 8c bc 4e 9a e9 bc 57 46 58 3d
       -0.04819961 -0.017097147 -0.028515961 0.052801456
0001b0 46 bb b5 3d e8 e7 8b bd 4f 8c d5 bd 62 8e 98 bd
       0.0887361 -0.06831342 -0.10427152 -0.07449032
0001c0 7f c4 e9 bb 4f fc 85 3d 64 83 cb bc 29 cd ae 3d
       -0.00713402 0.06542265 -0.024842925 0.08535225
0001d0 0c 99 48 3c ea c0 15 be 73 1a 3e bc 30 eb 36 3d
       0.0122435205 -0.14624372 -0.011602986 0.044657886
0001e0 8e aa 26 bd 48 22 05 be 11 d8 6c bd c9 f5 0e 3e
       -0.040689997 -0.13001359 -0.057823244 0.13960947
0001f0 46 37 87 3c d2 e1 6f be 73 5c 1b be fa 10 7e b9
       0.016505849 -0.23425987 -0.15171985 -0.00024229652
000200 d0 ba e3 3d 11 55 8e 3d 3b 0a 1a bd 8c c6 5d 3d
       0.11119616 0.06949819 -0.037607413 0.054144427
000210 f5 f8 20 3d 18 1a a6 bd b3 9e 1a 3e 00 1e d8 3d
       0.039299924 -0.08110446 0.15099601 0.10552597
000220 4f 48 0c 3d 3f 5d 01 be f9 35 8e 3d 3c f6 c3 3d
       0.034248646 -0.12633227 0.06943888 0.0956845
000230 ba c7 b4 3e 4e b2 d2 3d e3 bc af 3c 5b 30 3c be
       0.3530863 0.10287915 0.021452373 -0.18377821
000240 a9 37 0b be a6 31 31 3e ab 2c a0 3d ea cb d5 bd
       -0.13595451 0.17304096 0.0782102 -0.10439284
000250 0d 00 2c 3e f6 9d 0f be 1b bb a8 3d 94 57 1c be
       0.16796894 -0.14025101 0.082388125 -0.15267783
000260 20 89 4f be f6 6f 17 3d 0d 3d 9c 3d 91 d3 ac bd
       -0.20267153 0.03697201 0.07628832 -0.084387906
000270 cc 43 a4 3d db da 1b 3d ba cc 69 bd a9 82 ec bd
       0.08020744 0.038050514 -0.057080008 -0.11548359
000280 b7 16 cc bc f3 48 3a be 7d be 29 be ea de d7 3d
       -0.024913175 -0.1819189 -0.16576572 0.10540564
000290 34 fd 3f 3c b4 08 41 3d a8 04 fa 3c 87 9f 41 be
       0.011718083 0.04712744 0.030519798 -0.18908511
0002a0 3e f6 30 bd b9 81 8e 3d ae 5a b1 3c eb e8 9f 3c
       -0.043203585 0.069583364 0.021649685 0.019520244
0002b0 d8 3a 66 bd 56 de 98 3d 7c fa e2 3d fa 08 13 3c
       -0.05620846 0.07464282 0.11082932 0.008974308
0002c0 79 e9 b4 3c b0 85 72 3e 12 3a 0d bd 6d 1b 8a 3e
       0.022083985 0.2368381 -0.03447921 0.2697405
0002d0 20 ac 2d be e1 8e 93 ba 3c c6 d8 bc 53 3b a4 3c
       -0.16960192 -0.0011257791 -0.026461713 0.02004782
0002e0 9a 60 17 be 44 95 5e 3d ca 83 82 bd c6 94 ee 3d
       -0.14782944 0.05434157 -0.06372793 0.1164947
0002f0 92 9c 55 3d ad 61 8e bd e9 f0 a8 bc 53 84 f0 bc
       0.05215127 -0.06952224 -0.020622687 -0.029359972
000300 27 d3 f7 bd 55 e6 9e bd aa 8c 51 3d be f8 0e be
       -0.12100821 -0.07758776 0.05115954 -0.13962075
000310 97 3f e6 bd ba bf 09 bd 3a 95 88 bc a3 5a f0 3d
       -0.112425976 -0.03363011 -0.01667272 0.117360376
000320 06 d5 06 be 88 53 b1 bc b2 ad e4 3c 75 3c 66 3d
       -0.131672 -0.021646276 0.027914856 0.05621
000330 e9 fb 27 3e bb 94 43 3e fa 6a 3b be 1d bc 92 bc
       0.1640469 0.19099705 -0.18302527 -0.017911965
000340 9e 19 5f 3d 82 25 a3 3d 91 d4 c1 bd f5 4e b9 3d
       0.05446779 0.079661384 -0.09464372 0.09048263
000350 20 f3 66 3d 4a d8 23 bd c2 ee 02 be 08 06 6f be
       0.056384206 -0.04000119 -0.12786391 -0.23342144
000360 9c 70 60 bd 10 6b 42 3d ff ac ee 3d 30 dd d1 bd
       -0.054794893 0.047465384 0.1165409 -0.10247266
000370 4f d7 b4 bd 68 15 4f 3e 91 e6 41 3d 89 1c 16 bd
       -0.08830129 0.2022301 0.047339026 -0.036648307
000380 5c a2 0e be ee 91 6c 3d 9f c8 e2 3c 3f 56 04 3e
       -0.13929123 0.057756357 0.027683554 0.12923525
000390 db 17 d0 3d 7a 04 44 3e 67 c1 16 be aa 25 b2 be
       0.101608 0.19142333 -0.14722215 -0.3479436
0003a0 69 4f aa bd cc 90 6b 3d f0 9a 66 3c 3b 66 53 3d
       -0.083159275 0.057511136 0.014075026 0.051611166
0003b0 c0 49 81 3d 3f c8 72 bd c4 47 2a bc 0a 3e 98 bc
       0.06312895 -0.059273 -0.010393087 -0.01858427
0003c0 69 78 e1 3b 2d 6a 4d 3e 5b f8 97 3d 3e aa 0d 3e
       0.006880809 0.20060034 0.07420417 0.13834473
0003d0 f7 00 46 bd 7b 5c b3 bc 5e f2 5a 3d 4e d8 e7 3d
       -0.048340764 -0.021894684 0.053453796 0.11320554
0003e0 9c 87 5c bd 2f df dd bc c0 e0 ad 3d 1d 9a 83 3e
       -0.053840265 -0.027083961 0.08490133 0.25703517
0003f0 ba 8d 80 bd df 31 33 bc 6a a8 2a bd 9b 9c e7 bd
       -0.06277032 -0.010937183 -0.04166452 -0.11309167

module.lstm.weight_hh_l1 f4 [256, 64]
000000 37 23 f5 bd 5f 64 e2 3c 15 ef 0a 3d b6 eb dc 3d
       -0.11969607 0.027635751 0.033919413 0.10787146
000010 1e 3a 96 3d a7 27 09 3e 3e c9 18 3e f2 8c 00 3e
       0.07335304 0.13394032 0.14920518 0.12553766
000020 91 61 8d 3d e2 66 c1 3c 7b 4c fd 3c 16 81 d4 bd
       0.06903375 0.023608629 0.030920258 -0.10376184
000030 bd 7f 6d bc fe 58 c6 bc ca ba 1f 3d 32 34 a2 3d
       -0.014495787 -0.024212357 0.038996495 0.07920112
000040 fb 3f 4c ba bf 49 89 bd 59 52 56 bd 6a f0 b6 bd
       -0.0007791516 -0.06703519 -0.052324627 -0.08932574
000050 7a 1f 8e bd 6c 48 de 3d 3e 0e e7 bd db b8 91 bd
       -0.069395974 0.10853657 -0.11282013 -0.071153365
000060 af 2d 02 3d fe 45 04 3d 52 6b b6 3d f2 64 20 bd
       0.03178185 0.032293312 0.089071885 -0.03915877
000070 23 84 c1 bd 00 53 ce 3c da 76 a9 bd 09 36 ff 3b
       -0.09449031 0.025186062 -0.08274622 0.007788424
000080 f1 c4 b7 3d f3 05 b8 bd 1e aa bb bd 78 37 bf bc
       0.089731105 -0.0898551 -0.09163307 -0.02334188
000090 ee d7 ad bc 25 6e 93 3d 2b 5b ec 3c 3a e5 0b bd
       -0.021221127 0.07198743 0.028852066 -0.034154154
0000a0 b2 2b 58 3d 9b 56 e4 bd 92 30 df 3d 5c 97 1e 3d
       0.052776046 -0.11149331 0.10897936 0.038718566
0000b0 66 04 16 3e 6e 13 ad bd c0 81 3f 3e f2 de a7 3d
       0.14650115 -0.084509715 0.1870184 0.0819682
0000c0 55 90 8b bd ad 55 1b be 32 14 4f 3d 8f 50 94 bd
       -0.068146385 -0.15169401 0.05055637 -0.07241928
0000d0 c3 d1 89 3d 8b 02 dd bd bf 3b fe 3d 90 21 62 bd
       0.06729462 -0.10791501 0.124137394 -0.05520779
0000e0 1f bc 1f 3d 74 58 6b 3b 79 77 92 bd e4 96 a3 3d
       0.038997766 0.0035910876 -0.07151694 0.079877645
0000f0 eb 7e d9 3d bd fb 33 be 3e c1 d2 bc 82 e7 08 3e
       0.10619911 -0.175765 -0.02572691 0.13369563
000100 9c c0 2c 3e 09 8a 11 3d 24 74 68 bd a8 17 4d bc
       0.1687035 0.03553203 -0.056751385 -0.012517847
000110 c7 14 d2 bd 85 6b 91 bd 47 32 34 39 84 8b 13 bd
       -0.10257869 -0.07100586 0.00017184867 -0.036021724
000120 10 3c 09 bd e9 f0 3a bc 6e cb 40 3d 4f 34 9e 3d
       -0.033504546 -0.0114099765 0.047069006 0.07724821
000130 e9 2f 4d 3c 59 15 d2 bd e4 f1 c4 bc 60 7f 6b 3d
       0.01252363 -0.10257978 -0.024041124 0.05749452
000140 9b c8 26 be c2 d5 87 3d 99 ef 04 3e 37 cc 27 bd
       -0.16287462 0.06632568 0.12982024 -0.04096624
000150 4f 2f 1e bd aa cd 23 3d 3e 4d a0 3d 66 e7 7e bd
       -0.038619336 0.03999106 0.07827233 -0.062232397
000160 c3 4a b4 bd 6e 30 16 3e ca c5 f0 bd d6 a0 af bd
       -0.08803322 0.14666912 -0.11756475 -0.08575599
000170 68 35 32 bd 12 4e e4 bd 20 46 e6 3d ff 1a 58 bd
       -0.043507963 -0.11147703 0.11243844 -0.05276012
000180 63 80 07 bd b1 e4 f3 3d 5a 6e 68 be 01 a0 3b bc
       -0.033081423 0.11908854 -0.22698346 -0.011451722
000190 35 27 1a be 0d ff e6 3d d9 81 96 3b 0f 07 60 3d
       -0.15054019 0.11279116 0.0045931158 0.05469423
0001a0 36 e9 b5 bd ba 1e 06 be db 98 2e 3e 2e 5e c7 3d
       -0.08882372 -0.13097659 0.17050497 0.0973476
0001b0 39 51 1a 3e 8f 7f 79 bd ea 7c 19 3e 97 a5 a4 be
       0.15070046 -0.060912665 0.14989057 -0.32157585
0001c0 59 a9 89 3d 5b 5a c1 3d 3b 98 29 3e bd e0 b6 3b
       0.067217536 0.09441062 0.16561978 0.00558099
0001d0 43 e9 8a 3d 93 7c 0a 3d 43 e6 cb bc 16 c7 e8 bb
       0.067827724 0.03381021 -0.02489007 -0.007103811
0001e0 93 f3 86 3c f0 9e 08 3c 7b 2f 14 be b5 76 c9 bc
       0.016473567 0.008338675 -0.14471237 -0.024592737
0001f0 50 ae 0a be f5 54 a8 bd b0 36 29 bc fb 02 46 3e
       -0.13543057 -0.08219329 -0.01032798 0.19337074
000200 42 71 cb bc a1 eb 7e bc 07 1b df bd 19 99 cf 3d
       -0.024834279 -0.015559108 -0.10893827 0.10136623
000210 f2 be 9c 3c a7 20 dc 3c 33 34 29 be 9b 0d 29 3e
       0.019134019 0.026871039 -0.16523819 0.16509096
000220 a6 a5 4c bd d8 45 d4 bd 96 19 87 3c fd 26 35 bd
       -0.049962662 -0.10364884 0.016491693 -0.044226635
000230 c2 e5 27 3d bf 4e 49 be e9 67 35 3c 0c 4f 2e 3b
       0.0409906 -0.19658946 0.011072137 0.0026597409
000240 11 7e 89 bd 0f 83 b5 bd 76 92 df bc 41 ba 4d be
       -0.067134984 -0.08862888 -0.027291518 -0.20090581
000250 98 b8 ff bd 22 dd 9b 3c d5 c0 10 3d 79 d5 c6 3d
       -0.1248638 0.019026343 0.03534015 0.097086854
000260 bb 72 70 bc 7a 3c 5b 3e 7c 5d 5a 3b c4 f4 02 be
       -0.014675791 0.21409789 0.0033319881 -0.12788683
000270 c4 d5 0f 3e 8b 5b 61 bd 84 c3 e8 bd 14 5d 12 3e
       0.14046389 -0.055018943 -0.11365417 0.14293319
000280 88 cb 02 be 86 ec 08 3d 31 e9 d3 3d 65 02 49 bd
       -0.12772954 0.03342869 0.10347212 -0.04907455
000290 50 d1 dd 3a 01 7f 4a 3e 61 c8 3c bd b4 49 36 be
       0.0016923342 0.1977501 -0.046089534 -0.17801553
0002a0 be 84 62 3e ab 04 58 be f2 fc dc bb ab 27 c1 bd
       0.2212095 -0.2109553 -0.0067440206 -0.09431394
0002b0 93 15 1a 3c be 76 58 bd b7 b1 23 3e 4d f4 a9 3d
       0.009404558 -0.052847616 0.15985762 0.0829855
0002c0 4c cc 39 bd 18 5c 11 be 0e 0e 9d 3c d4 a2 86 bd
       -0.04536085 -0.14195287 0.01917174 -0.06574026
0002d0 4e 8d 08 3e 65 a4 31 be a8 40 1a 3b f5 d0 ef 3d
       0.13335153 -0.17347868 0.0023537073 0.11709777
0002e0 b1 9a 9f 3b 6f 33 00 bd b6 e8 94 3d 2b a2 2b 3d
       0.0048707356 -0.03129905 0.072709486 0.041902702
0002f0 c9 a5 51 3d 24 01 3b be 09 65 07 be 86 45 4b 3d
       0.051183496 -0.18262154 -0.13222136 0.04962685
000300 af 47 dd 3d 0e 48 72 bd b3 1c 63 3d 0e aa d1 bc
       0.10804688 -0.059150748 0.05544729 -0.025593784
000310 a4 44 da 3c 7f 3e 2e 3e bd 6d e3 3d 63 22 3d 3e
       0.026644059 0.17016028 0.11104915 0.18470149
000320 d2 24 a2 3b 18 92 a6 3d 8f 59 88 3d eb 3f 02 3d
       0.004948237 0.08133334 0.06657707 0.03179924
000330 62 37 16 bd a9 56 15 be 9a 27 89 bd ee 61 72 3e
       -0.03667391 -0.1458384 -0.066970065 0.2367017
000340 20 ba 00 bc 38 06 73 bc 52 b6 f2 3d 02 2f ef bc
       -0.007856876 -0.014833026 0.11851181 -0.02919722
000350 3c 84 e1 bd 2b 78 37 3e 7f fe f2 bd e4 19 df 3a
       -0.1101155 0.17916934 -0.118649475 0.0017021266
000360 26 09 b2 bd 14 f8 4f bd 23 01 ef 3c d4 88 1b 3a
       -0.08693151 -0.050773695 0.029175347 0.000593317
000370 22 06 b0 bd 41 4c e3 bd b5 a0 83 3d 90 c2 75 3c
       -0.0859492 -0.11098529 0.06427137 0.015000001
000380 38 17 cf bc e4 be 78 3d a9 19 1a be f7 37 1d be
       -0.025279626 0.060728922 -0.15048851 -0.1535338
000390 df b9 bb 3d 9b 7a c5 bc 6f 7d ac 3d 6f 35 9a 3d
       0.091663115 -0.024106314 0.08422362 0.07529723
0003a0 8a 51 ad 3d 2b b1 d2 bd 61 c8 8e ba 66 fd 34 bd
       0.08462818 -0.10287698 -0.0010893458 -0.044186972
0003b0 01 0b 84 3d 80 6c 2c 3d 3b ea 7a 3d e2 b2 0e be
       0.06447411 0.04209566 0.061258536 -0.13935426
0003c0 cc 71 c7 3c 7e 9e b5 3d 20 b1 a1 3d 51 c5 3f 3b
       0.024346255 0.088681206 0.07895112 0.0029261897
0003d0 3f 03 75 bd 01 82 cd bd 1a 9e ee 3b f4 ef d8 38
       -0.05981755 -0.10034562 0.007282031 0.000103443774
0003e0 07 ed 94 b9 3e 70 05 bd 63 dc de bc 4c 32 9d 3c
       -0.0002840536 -0.032577746 -0.027204698 0.019189022
0003f0 7e c5 5d 3d fc 62 0a be 86 4d 0d 3c 4e be 26 3e
       0.05414342 -0.13514322 0.00862444 0.16283533

module.lstm.bias_ih_l1 f4 [256]
000000 3d 28 d4 bd 19 a2 a6 3d e7 5e 4d 3d 1e 57 ae bd
       -0.10359237 0.081363864 0.050139334 -0.0851271
000010 2f 8d 19 3e 8c 9a ce 3d 90 bb 26 bd 74 d4 a8 3d
       0.14995264 0.10088071 -0.040706217 0.08243647
000020 36 4b 10 3e ae cb 95 3d 9a bb a8 39 0b 2d 68 3d
       0.1409119 0.073142394 0.0003218323 0.05668358
000030 9a 34 a3 3d 98 70 42 bc 5d b0 4b 3e 14 40 a3 bd
       0.07969017 -0.011867665 0.19891496 -0.07971206
000040 3c af fc bd d3 74 95 bd 8c 79 34 bd 25 3a 14 b9
       -0.12338111 -0.07297673 -0.04406123 -0.0001413604
000050 93 85 53 bd 19 46 67 bd b7 07 3d 3e 1f aa 2b 3e
       -0.05164106 -0.056463335 0.18459974 0.16764115
000060 84 d9 fb 3d a9 03 31 bc 37 3f 19 3e 2f 91 09 3d
       0.12297347 -0.010804095 0.14965521 0.033585723
000070 da 77 bb 3d 57 c7 a1 bd ae 75 1f 39 a7 c4 d5 bd
       0.09153719 -0.07899349 0.00015207261 -0.10437899
000080 2d 33 86 3d b1 73 bf bc f2 44 92 bd 64 a7 b6 bd
       0.0655273 -0.023370596 -0.071420565 -0.08918646
000090 4b 75 3c 3d 27 1e 14 bd 82 4b 50 bc 90 88 ac bc
       0.046010297 -0.036161568 -0.012713315 -0.021061212
0000a0 65 f7 b0 bd 91 1d 95 bd 61 ad a2 bd 04 29 17 be
       -0.08640937 -0.0728103 -0.07943226 -0.1476174
0000b0 96 b1 94 b9 01 17 32 3d ce 25 e4 bd 3b df 1e 3e
       -0.00028361072 0.04347897 -0.11140023 0.15514843
0000c0 a0 87 38 3b f9 1b 71 bc 85 1a 66 bd 1e 7e 48 bd
       0.002815701 -0.014716142 -0.056177635 -0.0489484
0000d0 63 db 04 3e 8d 59 3c 3d 36 9f 12 be 0a b8 d9 bc
       0.12974314 0.04598384 -0.14318547 -0.026577014
0000e0 eb 5b 18 3d 23 15 29 3e 31 7f 9f bc 56 8c cf 3c
       0.037197035 0.1651197 -0.01946983 0.025335472
0000f0 a9 98 61 bd a1 72 48 3d 35 9f 9a bd ba be 5d bd
       -0.05507723 0.048937444 -0.075498976 -0.05413697
000100 c0 6c bf 3c e3 00 f1 3c 80 16 af bd 26 ba 40 bb
       0.023367286 0.029419368 -0.085492134 -0.0029407828
000110 ce 1d dd 3d ca 7c 5b 3d e1 45 32 bc ad 4c 9f 3d
       0.107967004 0.053585805 -0.010880918 0.077782966
000120 98 3b e4 3d 48 d4 5a 3c 2e 4c 0e 3e 0b 50 06 3d
       0.11144179 0.013356276 0.13896248 0.03279118
000130 4c 8a 96 bd be a6 52 3a 49 4d 2c 3a 49 8e 4f 3e
       -0.07350597 0.0008035711 0.00065727957 0.20269121
000140 4d 33 e7 3d d7 21 20 3e 4d b4 af bd fb 3c 27 3e
       0.11289082 0.15637909 -0.085793115 0.16331856
000150 5a 4f c0 bd c4 74 33 3d 53 63 1a 3e de 43 4d bd
       -0.09390135 0.04381253 0.15076952 -0.05011355
000160 0d b8 14 3e d7 e0 ba 3d 66 41 08 3e ef e8 c5 bd
       0.14523335 0.09124916 0.13306198 -0.09663569
000170 c8 1c 1e 3e 01 95 00 3e 25 ce 97 bd 7a ec 8f bb
       0.15440667 0.1255684 -0.07412366 -0.004392204
000180 bc d9 df 3d 28 ac 8a 3d f6 69 5a bd f7 85 fa bc
       0.109302014 0.067711174 -0.05332371 -0.030581458
000190 f9 3f f6 bd ff 0e 0f 3e fd 71 f8 3d 93 45 c0 bd
       -0.120239206 0.13970564 0.121311165 -0.0938827
0001a0 4c 25 ef 3c 79 18 59 bd 7d f9 15 3e 70 f8 e3 3d
       0.02919259 -0.053001855 0.14645953 0.1113137
0001b0 18 9c 3c 3e a5 67 40 bd 44 81 35 bd 0a 7d 35 bd
       0.1841892 -0.046973843 -0.04431273 -0.0443087
0001c0 cc 06 00 be fa 69 7b 3d 48 21 9b bc e6 0c 58 bb
       -0.12502593 0.061380364 -0.018936768 -0.0032966672
0001d0 60 23 da 3d c0 6f e7 3d d4 8c d7 3d 8f 8a af 3d
       0.106512785 0.113006115 0.10524908 0.0857135
0001e0 e7 c0 04 3e 02 1d c8 bd a8 3b 94 3c 48 67 f1 bd
       0.12964211 -0.09771158 0.018094853 -0.117872775
0001f0 4f 2c 8c bd 05 0d 40 3c 8a 43 1d 3e ce 6d d3 bc
       -0.06844389 0.011721854 0.15357795 -0.025809195
000200 3f 57 9c bd 9d cb 7a bd f4 e0 c6 bd 2c c5 a4 bd
       -0.07633828 -0.061229337 -0.09710875 -0.0804542
000210 ea 93 06 3e 41 50 a1 3d 51 a9 ea 3c 36 13 59 3d
       0.13142362 0.07876635 0.02864519 0.052996837
000220 39 22 8e 3c b3 f8 4e bd 1b 6e e2 bd ae 69 00 3e
       0.017350303 -0.050530147 -0.11056157 0.12540314
000230 e5 b6 a7 3c ae 16 99 39 aa 8d 88 3d d7 23 c3 bb
       0.020472953 0.00029199332 0.06667645 -0.0059552
000240 e9 57 09 bc 29 40 ff 3d 20 a2 8d 3d f2 f1 73 bc
       -0.008382776 0.124634095 0.069156885 -0.014889227
000250 54 f8 7c bd 26 0f 86 3d f4 06 2e 3e e9 61 d4 bc
       -0.06176026 0.06545858 0.1699484 -0.025925593
000260 4f a4 19 bd af 5e 5f 3d ff 38 07 be 9d 29 84 3d
       -0.037510213 0.054533657 -0.13205336 0.064532496
000270 77 e2 1d 3d 77 67 2c bd aa 14 d5 3d c4 8f 88 bd
       0.03854605 -0.04209086 0.10404332 -0.06668046
000280 0f 47 fd bd de 9b 36 3e db 66 32 3d a6 a6 99 bd
       -0.12367069 0.17832896 0.043555122 -0.07502489
000290 e6 46 0c be 63 ff 6c 3d b9 5d c3 bd 4d 0a 72 bc
       -0.1369892 0.057860743 -0.095393606 -0.014772964
0002a0 55 39 97 bd ba a4 39 bd 1b ea d6 3c 8d 85 00 bd
       -0.07383982 -0.04532311 0.026234677 -0.031377364
0002b0 7e 3d c3 3c 3f 88 a0 bc ed 5c 5e 3d c5 f2 34 3d
       0.023833033 -0.019596217 0.05428784 0.044176836
0002c0 10 e5 1e bd 02 d5 2b 3d 2a f2 02 be e2 f3 84 3d
       -0.03879267 0.041951187 -0.12787691 0.064918295
0002d0 fb 79 dc bd 44 92 0e 3e a0 3f b1 bd e3 d6 be bd
       -0.107654534 0.13922983 -0.08654714 -0.0931833
0002e0 44 1e af bd 04 75 b2 bb 6f c4 00 be 12 c5 45 3d
       -0.085506946 -0.0054460783 -0.12574933 0.048283644
0002f0 37 05 cf bd f5 1a 1a bd 20 37 eb 3c 65 18 05 bd
       -0.101084165 -0.037623364 0.02871281 -0.032493968
000300 9f 08 db bd e0 20 a7 3d 5b a4 04 bd 2c 38 0a 3e
       -0.10695004 0.08160567 -0.032383304 0.1349799
000310 5d e3 d8 bc 84 5e 04 3d 68 0b ae 3d 1a 79 e5 3d
       -0.026475603 0.0323167 0.08498269 0.11204739
000320 dd fb 9e bd d4 f1 9b 3d d3 a7 60 bd 2b 1b c0 3d
       -0.07762883 0.076144844 -0.05484755 0.09380182
000330 05 fc e6 bd 37 b1 26 3d a3 e2 40 bc 66 5b 50 3e
       -0.11278538 0.04069635 -0.011772784 0.20347366
000340 0c 79 04 bd 86 92 6a 3c 7c e8 a1 3d c6 0a b6 3c
       -0.032342 0.0143171605 0.07905671 0.022221934
000350 bd 3f 35 bd 84 bc b1 bd 92 43 e9 3d 38 ca 52 bd
       -0.04425024 -0.086785346 0.11389841 -0.051462382
000360 41 11 95 3d a7 22 01 3e d3 43 23 3c da 33 86 bd
       0.072786815 0.12610875 0.009964901 -0.06552859
000370 e7 3b c4 3b cf 92 a1 3d a0 9f 15 bd 93 82 7b bc
       0.005988586 0.0788933 -0.036529183 -0.015350956
000380 6b b7 a7 bd d4 14 b5 3d 0d df d8 bc 95 50 00 3e
       -0.08189281 0.08841863 -0.026473546 0.1253074
000390 07 49 80 3d 49 cd 05 be 55 cb 92 3d 9e 8d 48 bc
       0.06263929 -0.13066591 0.07167689 -0.012240795
0003a0 88 3d 0e 3e a3 c6 46 3d 68 29 a2 bd 54 e5 6b bd
       0.1389066 0.04852928 -0.07918054 -0.05759175
0003b0 3a b1 5d 3d da 73 0d be bc 49 f9 3d 92 b8 41 bd
       0.054124095 -0.13813725 0.12172267 -0.04729516
0003c0 e2 92 10 be d6 55 b2 3c 7f 27 9b 3d 9e 31 b4 bd
       -0.14118531 0.021769445 0.07575893 -0.08798526
0003d0 d8 76 22 3d 52 67 e5 38 a9 d2 a0 bd 25 68 00 3d
       0.03966412 0.00010938816 -0.0785268 0.03134932
0003e0 1c c6 cb 3d ba f2 d7 bd 57 38 10 3d ee c1 b5 bd
       0.09949896 -0.10544343 0.03520998 -0.0887488
0003f0 f2 91 2b bd ab ff a2 bd 6f 26 81 bc c8 91 8b 3d
       -0.04188723 -0.07958921 -0.015765397 0.06814915
