.checkpoints/lstm_best_model.pt (torch, 356428 bytes, 13 tensors)

lstm.weight_ih_l0 f4 [256, 19]
0	0x3caa80fd	0.02081346
1	0x3cd89f67	0.026443196
2	0xbb570c04	-0.0032813558
3	0xbea2094a	-0.31647712
4	0x3ea98a24	0.33113205
5	0xbe354e11	-0.17705561
6	0x3c4fe529	0.012688913
7	0x3d144e76	0.03620764
8	0x3d83b03b	0.06430098
9	0x3d8e3549	0.06943757
10	0x3decc54a	0.115610674
11	0x3dd3712a	0.10324319
12	0xbdc77987	-0.097399764
13	0x3e5690f2	0.2095373
14	0xbe23abf6	-0.15983567
15	0x3e6ee25f	0.23328541
16	0xbea3fb8d	-0.32027856
17	0xbe2ac3d2	-0.16676262
18	0x3e6b30c8	0.22967827
19	0x3b347b89	0.0027539453
20	0x3e526ad1	0.2054856
21	0x3e35d892	0.17758396
22	0xbcbc5c05	-0.022993097
23	0x3bc0650c	0.0058714207
24	0x3df70918	0.12062281
25	0x3dcebe16	0.1009485
26	0x3dea0c98	0.11428183
27	0x3e242f17	0.16033588
28	0x3c48813f	0.012237846
29	0x3e20fb81	0.15720941
30	0x3d1f65a6	0.0389153
31	0x3dc9c34f	0.09851705
32	0x3c573554	0.013135273
33	0x3ddcf733	0.10789337
34	0xbbf5f18c	-0.0075056013
35	0x3e3a4685	0.18190964
36	0x3cefbf9d	0.029266173
37	0x3e251a8d	0.1612341
38	0x3e41a621	0.1891103
39	0x3d88dd59	0.06682844
40	0xbb9146c7	-0.004433486
41	0xbc897def	-0.016783683
42	0x3d3804af	0.04492634
43	0x3d0b1f58	0.03396544
44	0x3d425002	0.047439583
45	0x3e0b0aee	0.13578388
46	0xbc97f10d	-0.01854756
47	0x3e536b06	0.20646295
48	0xbbe830d1	-0.0070858975
49	0x3e005409	0.12532057
50	0xbceb975d	-0.0287587
51	0x3d72b8b3	0.059258174
52	0x3d720b69	0.059092913
53	0x3e1287b8	0.14309585
54	0x3dfe872d	0.124281265
55	0x3e144a60	0.14481497
56	0x3d81b203	0.06332781
57	0x3e6c3b20	0.2306943
58	0x3cba06a6	0.022708248
59	0xbc8681ee	-0.016419377
60	0x3c8f2f77	0.017478688
61	0x3e504d73	0.20342045
62	0x3b974242	0.004616053
63	0x3dc3e1fd	0.09564588
64	0x3e2637ab	0.16232173
65	0xbc11d837	-0.008901647
66	0xbd55df69	-0.052215014
67	0x3c9bf6e0	0.019038618
68	0x3d832ab4	0.06404629
69	0x3bda5a2d	0.006663582
70	0x3db90cec	0.09035668
71	0x3cb89e6d	0.02253648
72	0x3d90ee37	0.07076686
73	0x3de014e5	0.10941485
74	0x3d9bec29	0.07613403
75	0x3e2c0473	0.16798572
76	0x3dd41007	0.103546195
77	0x3df71dd7	0.120662384
78	0x3df96eaa	0.121793106
79	0x3d0c7970	0.0342955
80	0x3df12dd3	0.117763184
81	0x3d93c0fc	0.07214543
82	0x3c803526	0.015650343
83	0x3c230d74	0.009951938
84	0x3df866fd	0.121290185
85	0x3d63543f	0.055500265
86	0x3e56535d	0.20930238
87	0x3df3edfe	0.11910628
88	0x3cc3eb6d	0.02391597
89	0x3e5d57f3	0.21615581
90	0x3e56a0e1	0.20959808
91	0x3d4eb797	0.050468054
92	0x3e05b96e	0.13059017
93	0x3e1736f9	0.14767064
94	0x3e53cfd3	0.20684747
95	0x3dfd53da	0.12369509
96	0x3cc72aaf	0.024312345
97	0xbe23d81d	-0.1600041
98	0x3c85eae8	0.016347364
99	0x3d7fa51b	0.062413316
100	0xbd7aa543	-0.061192762
101	0xbdc02141	-0.09381343
102	0x3da5252d	0.08063731
103	0xbb5ac485	-0.0033381295
104	0xbe88eede	-0.2674474
105	0xbd8c00d2	-0.06836094
106	0xbe4db0e8	-0.20087016
107	0x3dd4f2fc	0.10397908
108	0xbd84b61b	-0.06480046
109	0xbe48032e	-0.19532463
110	0xbe20b6cf	-0.15694736
111	0x3c2bae64	0.01047859
112	0x3dcc6ef8	0.09982103
113	0x3e8d3281	0.27577594
114	0xbc99b940	-0.018765092
115	0x3dc36ec1	0.09542609
116	0x3cb81e85	0.02247549
117	0xbc244181	-0.010025383
118	0xbda8a4a2	-0.08234526
119	0x3df6b617	0.1204645
120	0xbe2e7f46	-0.17040738
121	0xbd86cc11	-0.06581891
122	0x3db8f350	0.09030783
123	0xbdcac143	-0.09900143
124	0xbe8281d9	-0.2548969
125	0xbe318f61	-0.17339851
126	0x3d49bcb4	0.049252227
127	0x3d224c88	0.039623767
128	0x3d1cb718	0.03826055
129	0xbe801110	-0.25013018
130	0xbd19eeb5	-0.037581164
131	0x3e0757ca	0.13217083
132	0x3d4f9715	0.050681192
133	0xbd7759b0	-0.060388267
134	0xbe7e612f	-0.2484176
135	0xbd812d40	-0.06307459
136	0xbde45690	-0.11149323
137	0xbddd7190	-0.10812676
138	0xbd8777c8	-0.06614643
139	0x3db6e71e	0.08930801
140	0x3d12b34e	0.03581553
141	0xbdca8882	-0.09889318
142	0x3d524598	0.0513359
143	0xbe8a6b1f	-0.27034852
144	0xbca5ab7f	-0.020223377
145	0x3d0d4c5d	0.034496654
146	0x3e4dee29	0.20110382
147	0x3e1f3cdf	0.15550564
148	0x3d3c8e8b	0.046034377
149	0xbe0efb89	-0.1396314
150	0xbdee2bd1	-0.11629451
151	0x3cedfed8	0.029052183
152	0x3e44d880	0.19223213
153	0x3e05bccb	0.130603
154	0x3d64b187	0.055833366
155	0x3d1a5fb3	0.037688922
156	0x3e24d4d1	0.16096808
157	0x3e17a60b	0.14809434
158	0x3db482e3	0.08814027
159	0x3e2ae566	0.16689071
160	0x3dda7d5e	0.10668443
161	0x3e14d983	0.14536099
162	0x3b9d1698	0.004793953
163	0x3e24ff34	0.16112977
164	0x3d254473	0.04034848
165	0x3b9be34f	0.004757322
166	0x3d53375e	0.051566474
167	0x3e3b6912	0.183018
168	0x3e4471f9	0.19184102
169	0x3df50850	0.11964476
170	0x3dd48648	0.103771746
171	0x3e43bdc5	0.1911536
172	0x3e5994f3	0.21248226
173	0x3d53d1a3	0.051713597
174	0x3dd34af7	0.10317033
175	0xba47a69c	-0.0007616074
176	0x3e5d8574	0.2163294
177	0xbd993e41	-0.07482577
178	0x3e6cd97c	0.23129839
179	0x3d339983	0.043847572
180	0x3dcbc581	0.0994978
181	0xbcd566e8	-0.026050046
182	0xbe8de1cf	-0.2771134
183	0x3c657469	0.014004805
184	0xbea073e7	-0.31338426
185	0xbe450b17	-0.19242512
186	0x3d766297	0.060152616
187	0xbda09d74	-0.07842532
188	0xbcf0e3a6	-0.029405426
189	0xbdd37025	-0.10324124
190	0x3dd5da69	0.10442049
191	0x3d69fb1a	0.057124235
192	0x3e70af6d	0.2350442
193	0x3c975676	0.018473845
194	0xbb15605b	-0.0022793028
195	0x3e19ee51	0.15032317
196	0x3d0527fd	0.03250884
197	0x3d38c9ca	0.045114316
198	0x3dd5b64f	0.10435163
199	0x3e4fc542	0.20290092
200	0x3d20cdbb	0.0392587
201	0x3e2a4d13	0.16630964
202	0x3de2be79	0.11071486
203	0x3e1e85b1	0.15480687
204	0x3e361168	0.17780077
205	0x3cb4b49a	0.022058774
206	0x3daf55b6	0.0856127
207	0xbceb53a7	-0.028726412
208	0x3d18ef64	0.037337676
209	0x3e22e94d	0.1590931
210	0x3df37f3d	0.11889503
211	0x3bd458b7	0.006480302
212	0x3da6f252	0.08151688
213	0x3e47448c	0.19459742
214	0x3e354c7f	0.17704962
215	0xbd0e3d6a	-0.034726538
216	0x3e211947	0.15732299
217	0x3cfa0938	0.030521974
218	0x3c4e367c	0.012586232
219	0x3dd910e8	0.10598928
220	0x3e40a963	0.18814616
221	0x3e2d9115	0.16949876
222	0x3e344261	0.17603447
223	0x3d110801	0.035408024
224	0x3e29fd76	0.16600594
225	0x3df34f0d	0.11880312
226	0x3e268442	0.1626139
227	0x3dcb18af	0.099168174
228	0x3d848a9f	0.064717524
229	0xbdf3332d	-0.118749954
230	0xbdbca2e8	-0.092107594
231	0xbdce3a67	-0.10069733
232	0x3d38a2be	0.045077078
233	0x3e50819e	0.20361945
234	0xbb6e5784	-0.0036368081
235	0xbb029050	-0.0019922443
236	0x3d3448c6	0.044014715
237	0x3dccfa5c	0.1000869
238	0xbd20d2d7	-0.039263573
239	0x3d6c90fe	0.057755463
240	0x3e3931d9	0.18085422
241	0x3e4885f4	0.19582349
242	0x3e5e7a83	0.21726422
243	0x3e8b3588	0.2718928
244	0xbe36eb8e	-0.17863294
245	0x3e0cf1cb	0.13764112
246	0x3deff803	0.11717226
247	0xbc3ff259	-0.011715495
248	0x3d9dd3ef	0.07706439
249	0xbc45abb8	-0.012064867
250	0x3b9bbc72	0.004752689
251	0x3d013a13	0.031549525
252	0x3e35e5de	0.17763469
253	0x3e051aff	0.1299858
254	0x3e16c1c4	0.14722353
255	0x3df6e626	0.12055616

lstm.weight_hh_l0 f4 [256, 64]
0	0x3e0ea73d	0.13930984
1	0xbe09c5e9	-0.13454403
2	0xbeaaa81e	-0.33331388
3	0xbe2d7632	-0.16939619
4	0x3d7b6616	0.061376654
5	0xbe1088a2	-0.14114621
6	0x3e4f5001	0.20245363
7	0x3e291733	0.16512756
8	0x3d59922b	0.053117912
9	0x3e4f9a2f	0.2027366
10	0xbce1d219	-0.027566003
11	0xbe37b407	-0.17939769
12	0x3df9439e	0.121711
13	0xbbfcbc63	-0.007712887
14	0xbe38cda7	-0.180472
15	0x3de27d5a	0.11059065
16	0xbe2481f8	-0.16065204
17	0x3e3512e3	0.17682986
18	0xbdf988c5	-0.1218429
19	0x3d605f50	0.054778397
20	0xbecd335f	-0.40078256
21	0xbdb66283	-0.08905508
22	0xbdfd6df9	-0.12374491
23	0x3e461776	0.19344887
24	0xbeabdfa2	-0.33569056
25	0xbe997c2f	-0.29977557
26	0x3ea6cd8e	0.325787
27	0xbdce6572	-0.10077943
28	0x3e3b7b62	0.18308786
29	0xbd861380	-0.06546688
30	0xbd874452	-0.06604828
31	0x3c43f2d5	0.011959751
32	0xbf1fb2e3	-0.62382334
33	0xbdfca1f2	-0.12335576
34	0xbcdb33b0	-0.026758045
35	0x3ebf356e	0.3734545
36	0x3dd515cc	0.10404548
37	0xbade80d0	-0.0016975645
38	0x3da8c8bf	0.08241414
39	0x3c5ebff6	0.013595572
40	0xbe815272	-0.25258213
41	0xbd961195	-0.07327572
42	0xbd318912	-0.04334361
43	0x3dba12d2	0.09085621
44	0x3e42ae2d	0.19011755
45	0xbe22010d	-0.15820713
46	0xbe333281	-0.17499734
47	0x3e435446	0.19075117
48	0xbdc781b5	-0.097415365
49	0x3e700a8f	0.23441528
50	0x3db9429c	0.09045908
51	0x3c4360ce	0.0119249355
52	0xbd53303f	-0.051559683
53	0xbe082386	-0.13294801
54	0xbd771e80	-0.06033182
55	0x3d8a14e5	0.067422666
56	0xbe756e0e	-0.23967764
57	0xbebe913e	-0.37220186
58	0xbb288847	-0.0025715993
59	0xbd927dd3	-0.07152905
60	0x3dcd9783	0.10038664
61	0xbdb2e73d	-0.087355115
62	0xbe1d5bf1	-0.15367104
63	0x3eb9125f	0.3614683
64	0x3e0d6b21	0.13810398
65	0x3e17faec	0.14841813
66	0x3d390485	0.045170326
67	0x3cc81eab	0.024428686
68	0xbe23e2a9	-0.16004433
69	0xbe37d08e	-0.17950651
70	0xbd8ee5d7	-0.06977432
71	0xbd927dd9	-0.0715291
72	0x3db54410	0.088508725
73	0x3d20682a	0.03916184
74	0x3ddeafd3	0.108733796
75	0xbd9c4bab	-0.0763162
76	0xbdcdf474	-0.10056391
77	0x3cd35acc	0.025800131
78	0x3e34dc21	0.17662098
79	0xbc8d145a	-0.017221618
80	0xbd0eaa22	-0.03483022
81	0xbd1e6a6f	-0.03867572
82	0x3c9d55cb	0.019205948
83	0xbcc24023	-0.023712223
84	0x3d4aced1	0.04951364
85	0xbd3f1cf8	-0.046658486
86	0x3aa895f9	0.0012862078
87	0xbe1fdde8	-0.15611994
88	0x3d193984	0.037408367
89	0x3d905788	0.07047945
90	0x3dabb617	0.0838434
91	0x3e1bc753	0.15212755
92	0x3d50aee6	0.050948046
93	0xbd41ee74	-0.047346547
94	0x3e08400a	0.13305679
95	0x3b3970a0	0.002829589
96	0x3c27e17f	0.010246634
97	0xbba5ad4c	-0.005056059
98	0xbe22b297	-0.15888439
99	0xbe074533	-0.13209991
100	0xbc7656bd	-0.015035328
101	0x3c409553	0.011754352
102	0xbd0dd973	-0.034631204
103	0xbcbdb3fe	-0.023157116
104	0x3dc18001	0.09448243
105	0xbd95af3b	-0.07308813
106	0x3cac11fb	0.021004668
107	0x3d8ea9a8	0.06965953
108	0xbdc9b13d	-0.09848259
109	0x3d24fb35	0.040278632
110	0x3a1d5fe6	0.00060033647
111	0xbd974ea5	-0.07388047
112	0xbbcde31d	-0.0062831775
113	0x3c4022ff	0.011727094
114	0xbd40f699	-0.047110174
115	0x3c9f84e8	0.019472554
116	0xbe244f32	-0.16045836
117	0x3d1064d5	0.03525241
118	0xbd91ac8d	-0.071129896
119	0xbd0b8b72	-0.034068532
120	0x3e1df589	0.15425695
121	0x3db37876	0.087632105
122	0x3d985a94	0.074391514
123	0x3dde5571	0.108561404
124	0xbe270aee	-0.16312763
125	0xbe1a6070	-0.1507585
126	0x3d925e49	0.0714689
127	0xbe29f2bc	-0.16596502
128	0x3d7a751c	0.06114684
129	0x3d86e3d6	0.06586425
130	0xbd16acf4	-0.036786035
131	0x3c1785a0	0.009248167
132	0xbdd91b6f	-0.10600936
133	0xbdfd60e5	-0.12371997
134	0x3d48ebad	0.049052883
135	0x3eacbefd	0.33739462
136	0x3e0e77c9	0.13912882
137	0xbd74cb0a	-0.059763946
138	0x3dbdc907	0.092668585
139	0xbdb2c88a	-0.08729656
140	0x3cc8c2d8	0.024506971
141	0x3dc2b09a	0.0950634
142	0x3e27d4dc	0.16389793
143	0x3e2be3c3	0.16786103
144	0xbe62dc99	-0.22154464
145	0xbe35461a	-0.17702523
146	0x3d6c7440	0.057728052
147	0xbe3c89e3	-0.18411975
148	0xbd75ceaf	-0.060011562
149	0x3a91ca25	0.0011122866
150	0x3dccb0cf	0.09994661
151	0xbd29291e	-0.041298978
152	0x3cc0c0cb	0.02352943
153	0xbc675591	-0.014119522
154	0xbe0a4215	-0.13501771
155	0x3dc0d8e9	0.09416372
156	0xbd470d5f	-0.048596736
157	0x3d374614	0.044744566
158	0x3c815579	0.015787827
159	0x3c5b6989	0.013391861
160	0x3b6fc703	0.0036587126
161	0x3e26b3b2	0.16279486
162	0xbd7f841d	-0.062381852
163	0x3d8cb2ad	0.06870017
164	0xbe71e2af	-0.23621629
165	0xbce68135	-0.028137783
166	0x3cbdee13	0.023184812
167	0x3d9a9c94	0.07549396
168	0xbd959ade	-0.07304929
169	0xbed40e90	-0.4141736
170	0x3baf924f	0.0053580175
171	0x3e3107b9	0.17288102
172	0xbdd6e46c	-0.10492787
173	0x3cb8a618	0.022540137
174	0x3e3bbe6e	0.18334362
175	0xbe430200	-0.19043732
176	0xbd82e85b	-0.063919745
177	0xbc07e026	-0.008293187
178	0x3df21183	0.11819746
179	0xbd1c9794	-0.038230494
180	0xbcfa4ad9	-0.030553268
181	0x3e070cfc	0.13188547
182	0xbd8c7ab4	-0.06859341
183	0x3d43fd61	0.047849063
184	0x3de2d82a	0.11076386
185	0x3d9d5b46	0.07683425
186	0xbe48b54d	-0.19600411
187	0x3a5cbf3d	0.00084208307
188	0xbdc53368	-0.096289456
189	0xbe32c84c	-0.1745922
190	0x3dc7a8e1	0.09749008
191	0x3d21ca70	0.0394997
192	0xbd357bb4	-0.044307426
193	0x3ce1161e	0.027476367
194	0x3c96b07f	0.018394707
195	0x3c382478	0.011239164
196	0xbdbfcdac	-0.09365401
197	0xbe24717e	-0.16058919
198	0xbe32e0ea	-0.1746861
199	0x3d0096d0	0.031393826
200	0x3bf41269	0.0074484837
201	0xbe3bee4e	-0.18352625
202	0xbd3da3b7	-0.04629871
203	0xbd064965	-0.03278484
204	0xbd28eae6	-0.04123964
205	0x3deb0550	0.11475623
206	0xbd919c0e	-0.07109843
207	0xbd580c33	-0.05274601
208	0x3dad04ac	0.08448157
209	0x3d6dca24	0.058054104
210	0x3e13251a	0.14369622
211	0x3e0c2496	0.13685831
212	0x3de447b0	0.11146486
213	0x3e16ffe4	0.14746052
214	0x3d75a4a1	0.059971455
215	0xbe797b58	-0.24363458
216	0x3df16b15	0.117880024
217	0x3d05ab0f	0.032633837
218	0xbd199b3e	-0.037501566
219	0x3dbe9586	0.09305863
220	0xbdb978dc	-0.09056255
221	0x3dd8f164	0.105929166
222	0xbcf312e8	-0.029672101
223	0xbd66eef3	-0.056380223
224	0x3d8e6af0	0.069539905
225	0x3e0c9b4a	0.13731113
226	0xbddb5e22	-0.10711314
227	0x3cdf0d1e	0.027227934
228	0xbd425842	-0.04744745
229	0xbc94cd60	-0.018164337
230	0xbe25b1a4	-0.16181046
231	0x3e84eeb7	0.25963375
232	0xbbf51693	-0.0074794977
233	0x3e0b842f	0.13624643
234	0x3e00ec8f	0.1259024
235	0x3c16b9c4	0.009199563
236	0xbdf891f6	-0.12137215
237	0x3d7f1881	0.062279228
238	0xbd9e7af0	-0.07738292
239	0xbe02b2dd	-0.12763543
240	0x3d8d366b	0.06895145
241	0xbcd197d5	-0.025585094
242	0xbd4e36a5	-0.05034508
243	0xbdddf816	-0.10838334
244	0xbdf097fc	-0.11747739
245	0xbca76416	-0.020433467
246	0x3da52d2f	0.08065259
247	0x3e008a30	0.12552714
248	0xbd08168f	-0.03322464
249	0xbd2c35c1	-0.04204345
250	0x3df140e3	0.11779954
251	0x3da02b2d	0.07820735
252	0x3aa4cc1c	0.0012573036
253	0xbe2b2b9f	-0.16715859
254	0xbc867a13	-0.016415631
255	0x3cdbfc5d	0.026853735

lstm.bias_ih_l0 f4 [256]
0	0xbd8edb50	-0.06975424
1	0x3d8f3f67	0.06994515
2	0x3d749970	0.059716642
3	0x3d30ab9a	0.043132402
4	0x3d296d74	0.04136415
5	0xbc24703c	-0.010036524
6	0x3df61a61	0.1201675
7	0x3e139f27	0.1441618
8	0x3cdc6501	0.026903631
9	0xbd947f14	-0.07250801
10	0x3e2a1847	0.16610824
11	0xbcf945a6	-0.030428719
12	0xbd7c87f8	-0.061653107
13	0x3db52fbf	0.088469975
14	0x3e02b720	0.12765169
15	0xbdd24f9e	-0.10269092
16	0x3ccae3ba	0.024766792
17	0x3d44324a	0.047899522
18	0xbd6fcee7	-0.058546927
19	0x3deee2fb	0.11664387
20	0xbd85a063	-0.06524732
21	0xbdf593e2	-0.11991097
22	0xbccff5e3	-0.025385803
23	0xbd4e2043	-0.050323736
24	0x3dd96a3f	0.10615968
25	0xbd12b56a	-0.03581754
26	0x3cb9e73d	0.02269327
27	0xbce79b07	-0.028272165
28	0x3e2be8e4	0.1678806
29	0x3e9fb5a7	0.31193277
30	0x3d9ec865	0.07753066
31	0xbe0c7997	-0.13718258
32	0x3e5b2e0f	0.21404289
33	0xbd81bfe8	-0.06335431
34	0xbe278d86	-0.1636258
35	0x3c9c9fb4	0.019119121
36	0x3e8bca3c	0.2730273
37	0x3e46a14b	0.19397466
38	0xbd3a11fb	-0.045427304
39	0xbdb5f3cd	-0.08884392
40	0x3d536579	0.051610444
41	0x3d090358	0.033450454
42	0x3e39244f	0.18080257
43	0xbe8ef4bd	-0.27921095
44	0x3d1857bb	0.03719304
45	0xbd4b2a03	-0.049600612
46	0xbd1f7744	-0.0389321
47	0xbd48f553	-0.049062084
48	0xbc9734ca	-0.018457789
49	0x3e147769	0.14498676
50	0xbe85ede6	-0.26158065
51	0x3e2946ad	0.16530867
52	0x3da0d355	0.078528084
53	0xbd81659b	-0.06318208
54	0xbd811aaf	-0.063039176
55	0xbdd78e4d	-0.105251886
56	0x3d726e27	0.05918708
57	0x3dca2c29	0.09871704
58	0xbbd05741	-0.0063580577
59	0x3d3f4dd2	0.046705075
60	0x3c159c47	0.009131498
61	0x3dfeff4f	0.1245104
62	0xbba59e20	-0.0050542504
63	0xbdc1e635	-0.09467737
64	0xbe76a76c	-0.24087304
65	0x3db6d5eb	0.0892752
66	0xbb4cd2fc	-0.0031253686
67	0xbc79e599	-0.015252494
68	0x3cbaeb20	0.022817194
69	0xbd0acf90	-0.033889353
70	0x3dc54b3f	0.09633493
71	0xbd5f64f2	-0.05453963
72	0xbd6cd100	-0.057816505
73	0x3dfeea58	0.12447041
74	0x3e0c382a	0.136933
75	0x3c1706ed	0.00921796
76	0xbde8a6b1	-0.11359919
77	0x3e22ed6f	0.15910886
78	0x3d8161b4	0.063174635
79	0xbdbd1997	-0.092333965
80	0xbba70bce	-0.005097843
81	0xbbc6e4e5	-0.006069767
82	0xbdc18699	-0.094495006
83	0x3e29cc35	0.16581805
84	0x3e236b32	0.1595886
85	0x3ba2cf11	0.004968532
86	0x3e5a7226	0.21332607
87	0x3e57f0d0	0.21087956
88	0x3dbb4199	0.09143371
89	0x3d86043b	0.06543776
90	0x3b5d99f5	0.003381369
91	0xbd5086a5	-0.050909657
92	0xbc750b43	-0.014956298
93	0x3e2534d5	0.16133435
94	0x3b6e1c04	0.0036332617
95	0xbe206647	-0.15664016
96	0x3e9ae439	0.30252245
97	0x3e12b487	0.14326678
98	0x3e224ddb	0.15850012
99	0x3db1507a	0.08657928
100	0x3e560bf0	0.20902991
101	0x3b6afef1	0.0035857523
102	0xbe192eeb	-0.14959304
103	0x3dcca59d	0.09992526
104	0x3d898bd9	0.06716127
105	0x3d4510c3	0.04811169
106	0xbd893312	-0.06699194
107	0x3dc02dc4	0.09383729
108	0x3e33d782	0.17562678
109	0x3cb8c7c2	0.02255619
110	0xbd81c5c5	-0.0633655
111	0x3c9d5f27	0.019210411
112	0xbd7a1896	-0.061058603
113	0x3e3b9efb	0.18322365
114	0xbcdbdfe9	-0.026840167
115	0x3e1b7d8e	0.15184614
116	0x3e109621	0.1411977
117	0xbd43f8c8	-0.04784468
118	0x3d58690a	0.052834548
119	0xbd8644bb	-0.06556078
120	0x3e4e8802	0.2016907
121	0x3c4e5512	0.0125935245
122	0x3e0d3d71	0.1379297
123	0xbc1c0a97	-0.009524009
124	0x3e163090	0.14666963
125	0x3e14ce11	0.14531733
126	0x3e04986b	0.12948768
127	0x3c0d3a52	0.008619862
128	0x3dbc4407	0.09192663
129	0xbd214d5e	-0.039380424
130	0xbd7e1271	-0.062029306
131	0x3d95dd08	0.07317549
132	0x3d7335cb	0.059377473
133	0x3e40f887	0.18844806
134	0x3c8d3280	0.017235994
135	0x3d49990a	0.049218215
136	0xbe035498	-0.12825239
137	0xbcf0fe0a	-0.02941801
138	0xbda4db36	-0.08049624
139	0x3d699ec6	0.057036184
140	0x3d143311	0.036181513
141	0xbdc3f8a1	-0.095689066
142	0xbca03b39	-0.01955949
143	0xbd632e6d	-0.055464197
144	0x3dc3e8ac	0.09565863
145	0xbe15ff1b	-0.14648096
146	0x3cd1151f	0.025522767
147	0xbc94aa1e	-0.018147524
148	0xbd8687e7	-0.0656889
149	0xbac86b1a	-0.0015290708
150	0x3d9607d8	0.07325715
151	0xbdb5496d	-0.088518955
152	0xbd22a027	-0.039703514
153	0xba66ee69	-0.00088093296
154	0x3bc12f9f	0.0058955695
155	0x3d54c658	0.051946968
156	0x3d543e17	0.051817026
157	0x3d206370	0.03915733
158	0x3c83c423	0.016084736
159	0x3d0422cd	0.03225975
160	0x3dc11415	0.094276585
161	0x3ca8b1f4	0.020592667
162	0x3c72dbc6	0.014822906
163	0xbd13b073	-0.036056947
164	0xbd92bcb8	-0.071649015
165	0x3e26d603	0.16292576
166	0xbe224e89	-0.15850271
167	0x3d23b0c4	0.0399635
168	0x3e0479c0	0.12937069
169	0xbd7d4a09	-0.061838184
170	0xbc41fbe0	-0.011839837
171	0x3c24954d	0.010045362
172	0x3db2564e	0.087078676
173	0x3e0ef4fa	0.13960639
174	0xbda94d0e	-0.0826665
175	0x3d9ffac9	0.07811505
176	0x3d7181f0	0.05896181
177	0x3d3d4b50	0.0462144
178	0x3d4541e7	0.048158552
179	0x3d9bb05b	0.076019965
180	0x3daccbc1	0.084373005
181	0x3c3e3957	0.011610351
182	0xbdbf8a65	-0.093525685
183	0x3ccc163f	0.024912952
184	0x3d74d218	0.059770674
185	0xbd49c437	-0.04925939
186	0x3df78368	0.12085611
187	0x3e1ac22f	0.15113138
188	0x3cdb634b	0.026780745
189	0xbdddf435	-0.108375944
190	0x3c24db2f	0.010062023
191	0xbe0307e5	-0.1279598
192	0x3cae60f5	0.021286467
193	0xbc7ff73f	-0.015622913
194	0x3e755642	0.23958686
195	0xbde12070	-0.10992515
196	0x3e13ff0e	0.14452764
197	0x3e0476e4	0.12935978
198	0x3d665f90	0.05624348
199	0x3e59ec58	0.21281564
200	0x3e649532	0.22322538
201	0x3e061be4	0.13096577
202	0x3dbbb58c	0.09165487
203	0x3dc464ca	0.095895365
204	0x3e1ea1f4	0.15491468
205	0xbe113433	-0.14180069
206	0x3d5df6d7	0.054190483
207	0xbbc24e10	-0.005929716
208	0x3e4c09ca	0.19925609
209	0xbdd076b0	-0.10178888
210	0x3e4e1b16	0.2012752
211	0xbc174c6a	-0.009234527
212	0x3d4316eb	0.04762928
213	0x3d1f4214	0.038881376
214	0x3cf4462b	0.029818615
215	0xbd8fb9a8	-0.07017833
216	0x3e09a01b	0.13439982
217	0x3e319d0b	0.17345063
218	0x3e42f1de	0.19037578
219	0xbdaebcb4	-0.08532086
220	0xbddb9e36	-0.10723536
221	0xbda8aa4b	-0.08235606
222	0xbd1fe7da	-0.03903947
223	0x3d287a74	0.041132405
224	0x3df49133	0.11941757
225	0xbdb1f6fe	-0.08689688
226	0xbcebb469	-0.02877255
227	0x3da29345	0.07938246
228	0x3e476092	0.19470432
229	0xbcf9fee5	-0.030517051
230	0xbe24497b	-0.16043656
231	0x3dbbd2fa	0.091711
232	0x3c6503b5	0.013977935
233	0x3da41e7a	0.080136254
234	0xbcff50a2	-0.031166378
235	0x3c1334d0	0.008984759
236	0xbe835ad5	-0.25655237
237	0x3dca65ff	0.098827355
238	0x3e7db18b	0.24774759
239	0x3e12993d	0.14316268
240	0x3d67d99d	0.056604017
241	0xbdca1d8a	-0.098689154
242	0x3dc56c49	0.096397944
243	0x3d8522d5	0.06500784
244	0x3c2bfe4b	0.01049764
245	0xbce7516d	-0.028237069
246	0xbd286239	-0.041109297
247	0xbe3874c5	-0.18013294
248	0x3e2f95ce	0.1714699
249	0x3d78b25b	0.060716968
250	0x3e0ff41b	0.14057963
251	0x3dd8fff0	0.10595691
252	0x3e1bb6bb	0.15206425
253	0x3ac6ea57	0.001517604
254	0xbba8b15b	-0.0051480955
255	0x3e6c8e66	0.23101196

lstm.bias_hh_l0 f4 [256]
0	0xbe46e347	-0.19422637
1	0x3de41211	0.111362584
2	0x3e213dc9	0.15746225
3	0xba61f8d2	-0.0008620146
4	0x3e1c6fa0	0.15276957
5	0x3de5f7f0	0.11228931
6	0x3de621d2	0.112369195
7	0x3e0d5253	0.13800935
8	0xbda8861b	-0.082287036
9	0xbdf3079f	-0.11866688
10	0x3d984445	0.074348964
11	0xbdd84252	-0.105595246
12	0xbe097015	-0.13421662
13	0x3e57bc6d	0.21067972
14	0x3e2964bf	0.16542338
15	0xbdd5b063	-0.10434034
16	0x3e1177c1	0.14205839
17	0x3d388bcd	0.0450552
18	0xbdb0f32d	-0.08640132
19	0x3d45bcff	0.048275944
20	0x3ca1fe43	0.019774562
21	0xbd1e3d4a	-0.03863267
22	0x3d697673	0.056997728
23	0x3dbb074e	0.09132253
24	0x3c2dd912	0.010610836
25	0x3e098295	0.1342872
26	0x3e135116	0.143864
27	0x3e14cad2	0.14530495
28	0x3e791898	0.24325788
29	0x3ebb35a5	0.36564365
30	0x3cbd7ccc	0.023130797
31	0xbe3c79cb	-0.18405835
32	0x3e8a0dff	0.26963803
33	0xbdbf5cab	-0.09343847
34	0xbd88d25a	-0.066807464
35	0xbdbd0751	-0.09229911
36	0x3e430651	0.19045378
37	0x3e2e3dd6	0.17015776
38	0xbe3a0251	-0.18164946
39	0x3d084fee	0.033279352
40	0x3e1769d8	0.1478647
41	0xbc0be768	-0.008539058
42	0x3e0a6fc6	0.135192
43	0xbe8e011c	-0.2773522
44	0x3e25817d	0.16162677
45	0x3d72149c	0.059101686
46	0xbd8246bc	-0.06361148
47	0x3e085e87	0.1331731
48	0x3d88e5c9	0.06684453
49	0xbd1275b4	-0.03575678
50	0xbe0b0c54	-0.13578922
51	0x3e56345f	0.20918415
52	0x3e025032	0.12725905
53	0x3da34fd8	0.07974213
54	0xbce038d3	-0.027370846
55	0xbe39a380	-0.18128777
56	0x3a9b7622	0.0011860768
57	0x3da50729	0.08058006
58	0x3de3e215	0.11127106
59	0x3d9c8bea	0.07643874
60	0x3c4e1490	0.012578145
61	0x3d4cbf8e	0.04998737
62	0xbcc31adb	-0.023816517
63	0xbd8ae17d	-0.0678129
64	0xbe53e661	-0.20693351
65	0x3e06dea9	0.13170876
66	0x3db72e61	0.08944393
67	0x3d943f27	0.07238608
68	0x3e160967	0.14652024
69	0x3e10ed0f	0.1415293
70	0xbdabcb4d	-0.08388386
71	0x3dfd10de	0.12356733
72	0xbd121272	-0.035662122
73	0xbd7a9663	-0.061178576
74	0x3d92f24f	0.07175123
75	0x3d4988d8	0.04920277
76	0xbd33207a	-0.043732144
77	0xbd600f4d	-0.054702092
78	0xbc32157b	-0.010869379
79	0x3d8c614c	0.068544954
80	0x3c96c538	0.018404588
81	0x3c972503	0.018450266
82	0xbd9295a6	-0.071574494
83	0x3df9a49a	0.121895984
84	0x3c860f0a	0.016364593
85	0x3e220e00	0.15825653
86	0x3e639202	0.22223666
87	0x3d971a3f	0.07378053
88	0xbd8e7012	-0.069549695
89	0xbd8ba51e	-0.06818603
90	0xbc045a61	-0.008078189
91	0x3dbf8cdd	0.093530394
92	0x3e0823fe	0.1329498
93	0x3e032809	0.12808241
94	0x3acc6301	0.001559347
95	0x3d3ee8e8	0.046608835
96	0x3e7af2d5	0.24506696
97	0x3e307111	0.17230631
98	0x3e25526b	0.16144721
99	0x3d2b9736	0.041892253
100	0x3d2ba8df	0.041909095
101	0xbdd156c9	-0.10221631
102	0xbdedd582	-0.11612989
103	0x3c9cfc37	0.019163234
104	0x3d846119	0.064638324
105	0xbe04a378	-0.12952983
106	0x3b9abb14	0.0047220085
107	0xbc73422a	-0.014847318
108	0x3d8b01dc	0.06787464
109	0x3d9cd79b	0.07658311
110	0x3e300011	0.17187525
111	0xbd468d02	-0.04847432
112	0x3e2fa683	0.17153363
113	0x3e7f9267	0.24958192
114	0xbd943ff3	-0.0723876
115	0x3df6d820	0.12052941
116	0x3df5608a	0.11981304
117	0x3dd2e561	0.10297657
118	0xbe0bdd57	-0.13658653
119	0x3d128a1f	0.035776254
120	0x3e403a03	0.1877213
121	0x3e0df04a	0.13861194
122	0x3deac121	0.11462618
123	0x3b7c1396	0.0038463823
124	0xbd4bec06	-0.049785636
125	0x3e2cc872	0.16873339
126	0xbd6488a8	-0.055794388
127	0xbd21f608	-0.039541274
128	0x3e051972	0.12997988
129	0x3dd3b892	0.10337938
130	0x3dcb3005	0.099212684
131	0xbc46b162	-0.012127252
132	0x3cf236e7	0.029567195
133	0x3cea723f	0.02861893
134	0x3df37ebd	0.11889408
135	0x3e138485	0.14406021
136	0xbdc728e5	-0.09724597
137	0x3b700f30	0.0036630146
138	0x3e1db9e8	0.15402949
139	0x3d5688a9	0.052376423
140	0xbdbe984d	-0.09306393
141	0x3dd04f1b	0.10171338
142	0xbd14e8dd	-0.03635489
143	0x3e069914	0.13144332
144	0x3df0ced2	0.11758198
145	0x3d130bb8	0.035899848
146	0x3d1a016f	0.037599023
147	0x3e2da3fa	0.16957083
148	0x3d973877	0.07383817
149	0x3d8f148a	0.069863394
150	0x3dd7b8d5	0.10533301
151	0xbd730127	-0.05932727
152	0x3d765714	0.060141638
153	0xbc6fe284	-0.014641408
154	0x3db4af28	0.08822471
155	0x3d4b0ff5	0.049575765
156	0x3d6ae69e	0.05734884
157	0x3d6c2e72	0.05766148
158	0x3db61976	0.08891575
159	0xbe1dd1ad	-0.15412016
160	0xbcfe47ee	-0.031040158
161	0x3bf87b6f	0.007583074
162	0xbdeeee2e	-0.11666523
163	0xbd962d71	-0.07332886
164	0xbce1d59f	-0.027567683
165	0x3d6a376c	0.05718176
166	0xbba563e0	-0.0050473064
167	0xbd89dc7c	-0.06731507
168	0xbd8918cd	-0.066941835
169	0x3c572913	0.013132351
170	0x3dbb6f66	0.09152107
171	0x3d9938ac	0.074815124
172	0x3d5a52e1	0.053301696
173	0xbda87efa	-0.08227344
174	0x3d8aa8f6	0.06770508
175	0xbd1fd8cd	-0.039025117
176	0xbd539b1e	-0.051661603
177	0x3de1386b	0.10997089
178	0xbe334887	-0.17508136
179	0x3d6df6d2	0.058096714
180	0xbe0dd1cf	-0.13849567
181	0xbc84a109	-0.016190069
182	0xbc850dcc	-0.01624193
183	0xbc548b0f	-0.012972607
184	0xbd8305f5	-0.063976206
185	0x3d60d285	0.054888267
186	0x3d229fd2	0.039703198
187	0xbcbd3f9d	-0.023101622
188	0xbd41e9c0	-0.047342062
189	0x3d88407d	0.06652925
190	0x3dbefe74	0.09325877
191	0xbcc8f000	-0.024528503
192	0xbdc1f3e2	-0.09470345
193	0x3d2414d7	0.040058937
194	0x3e97713f	0.29578587
195	0x3d07633f	0.033053633
196	0x3cc726af	0.024310438
197	0x3e4fa4a6	0.20277652
198	0xbce538a4	-0.02798111
199	0x3e879133	0.26477966
200	0x3e894942	0.26813704
201	0x3c520745	0.012819116
202	0x3d3efc39	0.046627257
203	0x3e53c688	0.20681202
204	0x3e073bbf	0.13206385
205	0xbd38c3e3	-0.045108687
206	0xbe2d48db	-0.16922323
207	0xbc792fb5	-0.015209128
208	0x3e3c7d6a	0.18407217
209	0x3d4b979c	0.049705133
210	0x3d8349ca	0.064105585
211	0x3e4ef831	0.20211865
212	0x3e448e81	0.19194986
213	0x3dad948b	0.08475598
214	0x3ce0b8d2	0.02743188
215	0x3d06a476	0.032871686
216	0x3e9181c5	0.2841932
217	0x3e1ef76d	0.15524073
218	0x3e265b6a	0.16245809
219	0xbe7acfab	-0.24493282
220	0x3a9bc00e	0.0011882798
221	0xbe8e63ce	-0.2781052
222	0x3e0d093c	0.13773054
223	0x3e1420ba	0.14465609
224	0x3e1b7d9b	0.15184633
225	0xbd53f44d	-0.051746655
226	0x3da69900	0.08134651
227	0x3dee5e0f	0.11639034
228	0x3e124067	0.1428238
229	0xbc956389	-0.018235939
230	0xbdc6a761	-0.09699894
231	0x3dcf2fcd	0.10116539
232	0x3e05d23a	0.13068476
233	0xbbf63722	-0.0075138966
234	0x3da7ffbf	0.082030766
235	0x3dcf7136	0.10129015
236	0xbe7e73fa	-0.24848929
237	0x3e23bacc	0.15989226
238	0x3df1ee8e	0.11813079
239	0x3cd1fd6a	0.025633533
240	0x3e6b1b96	0.22959742
241	0x3d19f2f9	0.037585232
242	0x3e4a6f84	0.19769102
243	0x3d5f3fab	0.054504078
244	0xbce40164	-0.027832694
245	0xbe0aa55a	-0.13539639
246	0x3dac2511	0.08405507
247	0xbcad2283	-0.02113462
248	0x3e84dae9	0.25948265
249	0x3c8bf3f9	0.017084109
250	0x3de9ec7f	0.11422061
251	0x3d5b02b6	0.053469382
252	0x3cef64ac	0.029222809
253	0x3ba3c1fa	0.004997489
254	0xbd40dc35	-0.047085006
255	0x3d6288e0	0.055306315

lstm.weight_ih_l1 f4 [256, 64]
0	0xbdcfc589	-0.10145099
1	0xbced3d7b	-0.02895998
2	0xbe5b2d9b	-0.21404116
3	0xbd97b244	-0.07407048
4	0x3e078c75	0.13237174
5	0xbe38f58d	-0.1806242
6	0xbe41e6c8	-0.18935692
7	0x3dc5e050	0.09661925
8	0xbe510db9	-0.20415391
9	0xbdbc147e	-0.09183596
10	0xbc8169b0	-0.015797466
11	0x3daa5f81	0.08318997
12	0xbdd0cedf	-0.101957075
13	0xbe1d6d17	-0.15373646
14	0xbe4d18a7	-0.20028935
15	0x3e4075c9	0.18794931
16	0x3e958931	0.2920623
17	0x3cbc78f6	0.023006897
18	0x3e9f08fd	0.31061545
19	0x3e019fad	0.12658568
20	0x3e2f7d28	0.17137587
21	0xbe29529a	-0.16535416
22	0x3e5d0367	0.21583329
23	0xbf0922ce	-0.5356873
24	0xbd2f721b	-0.04283343
25	0xbd868c33	-0.0656971
26	0x3dac1746	0.084028766
27	0x3d20a36a	0.039218344
28	0xbe7d0299	-0.24708022
29	0x3e1531cf	0.14569782
30	0xbe08ca09	-0.1335832
31	0x3ccae621	0.024767937
32	0x39dd8fc5	0.0004225952
33	0xbe6dce7b	-0.23223297
34	0x3e838aae	0.25691742
35	0x3dba1747	0.09086471
36	0x3e9e25d0	0.30888224
37	0xbdfca32a	-0.123358086
38	0x3e87278b	0.26397356
39	0x3f2a8a57	0.6661734
40	0x3d41d2ba	0.047320105
41	0xbe8a005b	-0.26953396
42	0xbeb6ba61	-0.3568907
43	0xbe47560e	-0.19466421
44	0xbda76e3a	-0.08175321
45	0x3c9d04d6	0.019167345
46	0xbd9ea47f	-0.07746219
47	0x3dec0487	0.11524301
48	0xbdb9bc64	-0.09069136
49	0x3e75461b	0.23952524
50	0xbd85b2f1	-0.06528271
51	0x3e7a70fe	0.24457166
52	0x3dd7e2e9	0.105413266
53	0xbdc4e9d3	-0.09614911
54	0x3e0e05d8	0.13869417
55	0x3c61f0bf	0.0137903085
56	0x3e61b18d	0.22040386
57	0x3e922b73	0.28548774
58	0x3e829f49	0.2551215
59	0x3e43c2e6	0.19117317
60	0x3deda2e8	0.116033375
61	0x3dca7fa5	0.098876275
62	0xbe70ac44	-0.23503214
63	0x3e56220a	0.20911422
64	0xbe790c5a	-0.24321118
65	0xbe72f2c0	-0.23725414
66	0xbe95e4d0	-0.29276133
67	0xbeb837e5	-0.35980144
68	0x3e43518c	0.19074076
69	0x3f464e89	0.77463585
70	0x3f08f1d4	0.53494
71	0x3f23f333	0.6404297
72	0x3f6585d0	0.89657307
73	0x3f33b611	0.70199686
74	0xbe17d81f	-0.14828537
75	0x3f989185	1.1919409
76	0x3f4e02cd	0.80473024
77	0xbe19cef9	-0.1502036
78	0x3d9e10e6	0.07718067
79	0x3ece27e6	0.40264815
80	0xbf023d0e	-0.5087441
81	0x3d8840f0	0.06653011
82	0xbf5c0cb8	-0.8595691
83	0xbf6c6c62	-0.9235288
84	0xbf24292d	-0.6412533
85	0xbe0b9f30	-0.13634944
86	0xbf3b44c3	-0.731518
87	0x3f0eb5bc	0.55746055
88	0xbf275e98	-0.65378714
89	0xbefa7bae	-0.48922485
90	0x3f225878	0.6341624
91	0xbdbc9fdc	-0.09210178
92	0x3f26b666	0.6512207
93	0xbd955468	-0.0729149
94	0xbddc8a0e	-0.10768519
95	0x3b3c2ee6	0.0028714477
96	0xbe86875d	-0.2627515
97	0x3cff9848	0.031200543
98	0x3e1c6245	0.15271862
99	0x3e90d2a7	0.28285715
100	0xbe41eca3	-0.18937926
101	0x3d6439f5	0.055719335
102	0x3e0b160b	0.13582627
103	0xbefc6505	-0.49295822
104	0xbefd2d76	-0.49448746
105	0xbe0f95c4	-0.14021975
106	0xbd7bbcb0	-0.061459243
107	0xbc61ec6d	-0.013789278
108	0x3f305f81	0.6889573
109	0xbf64f9a4	-0.8944342
110	0xbd170a5e	-0.03687512
111	0x3dcc9454	0.09989229
112	0x3f41adb9	0.75655705
113	0x3ed5a626	0.41728324
114	0x3f5be343	0.8589365
115	0x3f6b6b6c	0.9196079
116	0xbacb06a7	-0.0015489653
117	0xbe368a66	-0.17826232
118	0x3e5bb5a4	0.21456009
119	0x3cfab893	0.03060559
120	0xbedffcf3	-0.43747672
121	0xbf293197	-0.66091293
122	0xbf6c058a	-0.9219595
123	0xbf637d4c	-0.8886306
124	0x3e1ed5cf	0.15511249
125	0x3e7bc416	0.2458652
126	0xbe00fa62	-0.12595513
127	0x3e3fe4d0	0.18739629
128	0x3ea83830	0.32855368
129	0x3d6add22	0.057339795
130	0xbe26f84b	-0.16305654
131	0x3ac79364	0.0015226421
132	0x3dfa8553	0.12232461
133	0xbdb1a0df	-0.08673262
134	0x3e07915f	0.13239048
135	0x3e6cc07b	0.231203
136	0xbceadef3	-0.028670764
137	0xbe1279e9	-0.14304318
138	0x3ce990ca	0.028511424
139	0x3c12f1e3	0.008968803
140	0x3bd9e25b	0.006649298
141	0xbd95bf91	-0.07311929
142	0x3c8669f5	0.016407946
143	0xbe3464c8	-0.1761657
144	0x3e6f1ce0	0.23350859
145	0xbdd6d4ef	-0.104898326
146	0x3e8150d1	0.2525697
147	0xbc72a731	-0.014810369
148	0x3dbd1a13	0.09233489
149	0x3d8725fb	0.06599041
150	0x3c78e089	0.015190252
151	0xbe18976c	-0.14901513
152	0x3d6c20aa	0.05764834
153	0xbe0ba08d	-0.13635464
154	0x3e253c0b	0.16136186
155	0xbd9d53ba	-0.07681985
156	0x3d850c59	0.06496496
157	0x3e1d77ac	0.15377682
158	0x3d751a21	0.05983937
159	0x3c5f64d5	0.01363488
160	0x3eb92171	0.36158326
161	0x3e3ce60f	0.18447135
162	0xbd794f98	-0.060866922
163	0xbda6e03a	-0.081482366
164	0xbea9f862	-0.33197314
165	0x3e29bac1	0.16575147
166	0x3c57c07c	0.01316845
167	0x3c946fb3	0.018119669
168	0x3ba9d5e2	0.0051829675
169	0x3d8eea11	0.069782384
170	0xbc8ca66c	-0.0171692
171	0x3eb7e98b	0.35920367
172	0xbe5bec41	-0.21476842
173	0x3d31e52c	0.043431446
174	0xbdebcebb	-0.1151404
175	0xbe59e1ae	-0.21277496
176	0xbdde86fc	-0.1086559
177	0x3ea48266	0.32130736
178	0x3dcb723c	0.09933898
179	0x3e8dbe40	0.27684212
180	0xbe024a24	-0.12723595
181	0x3e0efde5	0.1396404
182	0xbd97627e	-0.07391833
183	0x3e630a4d	0.22171898
184	0x3d0d6d45	0.034528036
185	0x3da1c33d	0.07898567
186	0x3dc0c008	0.09411627
187	0x3de4576b	0.11149486
188	0xbe02bff2	-0.12768534
189	0xbd2ceefd	-0.042220104
190	0xbdc5c900	-0.09657478
191	0xbc1140fa	-0.008865589
192	0xbe29374c	-0.16525
193	0xbe31d177	-0.17365061
194	0xbedb70bb	-0.42859444
195	0x3b106647	0.0022033618
196	0x3dcd236b	0.10016521
197	0xbc848997	-0.01617889
198	0xbcba5567	-0.022745801
199	0x3e570ace	0.21000215
200	0x3e1d654c	0.15370673
201	0xbd732789	-0.059363876
202	0xbe48cb2c	-0.19608754
203	0x3cfd69c6	0.030934226
204	0x3e1d6237	0.15369497
205	0xbe78f99e	-0.24313971
206	0xbe823927	-0.2543423
207	0x3e528402	0.2055817
208	0x3dd49efb	0.103818856
209	0x3e4281fd	0.18994899
210	0xbd5d5c75	-0.054043252
211	0xbbe49fa0	-0.0069770366
212	0xbe2480bc	-0.16064733
213	0xbe5fddbb	-0.21861927
214	0xbdbf010f	-0.09326374
215	0xbcd06179	-0.025437104
216	0xbea3d2eb	-0.31996855
217	0xbebc2222	-0.3674479
218	0x3ec7f71d	0.3905572
219	0xbdfcb41f	-0.12339043
220	0x3e184d00	0.14873123
221	0xbd3f95a8	-0.046773583
222	0xbe4e60b3	-0.20154075
223	0x3e0e7a7c	0.13913912
224	0xbeb1283e	-0.34601015
225	0xbd503f8d	-0.050841857
226	0x3e1b590a	0.15170684
227	0x3eac1ee0	0.33617306
228	0x3f02d635	0.51108104
229	0xbd4220ae	-0.047394447
230	0x3d72c0cd	0.0592659
231	0xbc5c2f17	-0.0134389615
232	0xbd11cfc0	-0.035598516
233	0xbe2238b8	-0.15841949
234	0xbec7e1b9	-0.390394
235	0xbe457f02	-0.19286731
236	0x3ce157b6	0.027507644
237	0xbe9776b8	-0.29582763
238	0xbe7b5f05	-0.24547966
239	0x3ea2a32e	0.3176512
240	0x3e186a27	0.14884244
241	0x3cfad075	0.030616978
242	0x3e3fe790	0.18740678
243	0x3db5bfcc	0.08874473
244	0x3e18bfc1	0.14916898
245	0xbe41f659	-0.1894163
246	0x3e28504e	0.16436884
247	0x3db275d7	0.087138824
248	0x3c97b272	0.018517707
249	0xbdfd2268	-0.12360078
250	0x3da52266	0.080632016
251	0xbd9eec27	-0.07759886
252	0x3dc0a65b	0.0940673
253	0x3e30c14b	0.17261235
254	0xbd77093e	-0.06031155
255	0x3edbfce7	0.42966387

lstm.weight_hh_l1 f4 [256, 64]
0	0xbe8a9232	-0.27064663
1	0xbe0c0348	-0.13673127
2	0x3e8560d6	0.26050442
3	0xbe2a66df	-0.16640805
4	0xbed570cd	-0.41687623
5	0xbe4b170a	-0.19833007
6	0xbe18cce6	-0.14921913
7	0x3e7470eb	0.238712
8	0xbe602ecc	-0.21892852
9	0x3e4ab8d5	0.1979707
10	0x3dabead6	0.08394401
11	0x3e939638	0.28825545
12	0xbe62b735	-0.221402
13	0x3e321ba7	0.17393361
14	0x3a8ff127	0.0010981903
15	0x3ce4d40b	0.027933141
16	0x3da5f36a	0.08103068
17	0xbeb1665d	-0.3464841
18	0x3e0b8b9a	0.13627473
19	0xbde92f26	-0.11385946
20	0xbe9b4feb	-0.3033441
21	0xbe88e7b3	-0.26739272
22	0x3e74e703	0.23916249
23	0x3c834170	0.016022414
24	0x3e808b33	0.251062
25	0xba911573	-0.0011069014
26	0xbe2eb298	-0.17060316
27	0xbd00c2d4	-0.031435803
28	0x3db9df3c	0.09075782
29	0x3ba52df9	0.0050408808
30	0x3d4bfb7e	0.04980039
31	0xbea9e491	-0.33182195
32	0xbded1bb5	-0.1157755
33	0x3e5255cc	0.20540541
34	0x3c430407	0.011902816
35	0xbeb4f071	-0.35339692
36	0xbeb841d5	-0.35987726
37	0xbe0e5841	-0.13900854
38	0x3e2a702a	0.1664435
39	0xbe3c3888	-0.1838094
40	0x3b027b35	0.0019909863
41	0xbead4440	-0.33841133
42	0x3dac036c	0.0839909
43	0xbd9a02b0	-0.07520044
44	0xbde76ebc	-0.11300418
45	0xbce19309	-0.027535932
46	0xbe8d1ef2	-0.27562672
47	0x3df5191c	0.1196768
48	0xbeae2c53	-0.34018192
49	0xbda3eaa6	-0.0800374
50	0xbe8c2b45	-0.27376762
51	0xbd905f3a	-0.07049413
52	0xbddf321c	-0.108982295
53	0x3e3c115a	0.18365994
54	0xbe32e4bc	-0.17470068
55	0xbe21ad1d	-0.15788694
56	0x3dda641e	0.10663627
57	0xbe14404a	-0.1447765
58	0xbcedd9a2	-0.02903444
59	0xbcd4eff9	-0.025993334
60	0xbbf4d4df	-0.0074716653
61	0x3d200f90	0.03907734
62	0xbcfa06a4	-0.030520745
63	0x3ea899fa	0.32929975
64	0x3c9f16b5	0.019420007
65	0xbdbd7c67	-0.092522435
66	0x3c9d93cf	0.01923552
67	0x3e56b815	0.20968659
68	0x3e4656a6	0.19368991
69	0xbe7c3e9d	-0.2463326
70	0xbe334331	-0.175061
71	0xbd22c5ec	-0.039739534
72	0x3e4298c7	0.19003592
73	0xbe1ab19d	-0.15106817
74	0x3d986f2a	0.07443078
75	0x3d833d87	0.0640822
76	0xbe2282cf	-0.15870212
77	0xbd3108de	-0.043221347
78	0xbe25c4eb	-0.161884
79	0x3e78db50	0.24302411
80	0xbe6a07f2	-0.22854593
81	0x3c8915c6	0.016734015
82	0xbf0310ab	-0.5119731
83	0xbc8f83d6	-0.017518919
84	0x3ec12426	0.37722892
85	0x3dbedb1c	0.093191355
86	0xbb674007	-0.0035285966
87	0xbed3729a	-0.41298372
88	0x3e858fcf	0.2608628
89	0xbe6f8a6e	-0.2339265
90	0xbe0110db	-0.12604086
91	0x3ee6a986	0.4505121
92	0x3ded50bf	0.11587667
93	0x3eb5af05	0.35485092
94	0x3e1489df	0.14505719
95	0xbd8835b2	-0.066508666
96	0x3e3f4040	0.18676853
97	0x3ddf822f	0.109135024
98	0xbe95d27d	-0.29262152
99	0x3ee9cf03	0.4566575
100	0xbe5a18b0	-0.2129848
101	0x3ea10ba7	0.31454203
102	0xbe8738c3	-0.26410493
103	0x3ea5e3b5	0.3240029
104	0xbece34cc	-0.40274656
105	0xbcb2ec76	-0.021841269
106	0xbe9e08e4	-0.30866158
107	0xbe0621d8	-0.13098848
108	0xbd921f62	-0.07134892
109	0x3d53903d	0.05165123
110	0xbec5974e	-0.38592
111	0xbe46c393	-0.19410543
112	0xbda35c89	-0.07976634
113	0xbdbd8557	-0.09253948
114	0x3e8ee9a4	0.2791263
115	0xbef2d749	-0.47429875
116	0xbeac79e6	-0.3368675
117	0xbeb6e390	-0.3572049
118	0xbda7f144	-0.08200315
119	0xbe11b83e	-0.14230439
120	0x3ed1f7e3	0.41009435
121	0xbe7fb805	-0.24972542
122	0x3ef7722a	0.48329288
123	0xbe0e0ab8	-0.13871276
124	0xbd4d1299	-0.050066564
125	0xbb99e144	-0.004696043
126	0xbcaedc59	-0.021345304
127	0xbe160adc	-0.1465258
128	0x3e06097b	0.13089554
129	0xbf07e35a	-0.53081286
130	0xbe378eae	-0.17925522
131	0xbd47876d	-0.048713136
132	0xbd68cf66	-0.056838416
133	0x3dd62d78	0.10457891
134	0x3d3eb0f8	0.04655549
135	0x3ecb1e0b	0.39671358
136	0x3dfeb944	0.1243768
137	0xbce64460	-0.028108776
138	0x3db38a7b	0.087666474
139	0x3ca9b17c	0.020714514
140	0xbdbd0a8b	-0.092305265
141	0xbe54549d	-0.20735402
142	0x3d40b7e2	0.047050364
143	0x3ee58731	0.44829705
144	0x3e3f8dd3	0.18706445
145	0xbe3f47ad	-0.18679686
146	0xbe34d9df	-0.17661236
147	0xbf16918c	-0.58815837
148	0x3d973103	0.07382395
149	0x3cc68b41	0.024236323
150	0x3c971b0c	0.018445514
151	0xbe959d5f	-0.29221627
152	0x3f1c36df	0.61021227
153	0xbe20c16f	-0.15698789
154	0xbe97bb4a	-0.29635078
155	0xbe16d892	-0.14731053
156	0x3d77e279	0.060518716
157	0x3bf2056d	0.0073859007
158	0x3db73dcf	0.08947336
159	0x3e403015	0.18768342
160	0x3c8deb96	0.01732425
161	0xbe0bacd3	-0.13640146
162	0xbdbdb1e9	-0.09262449
163	0xbd9dd1b4	-0.07706013
164	0xbe6ce91d	-0.231358
165	0xbcaac222	-0.020844523
166	0xbe35c1d2	-0.17749718
167	0x3e0528e0	0.13003874
168	0xbecc2917	-0.398751
169	0xbd4aa243	-0.04947115
170	0x3e8b5e4e	0.27220386
171	0x3e2ceacd	0.16886444
172	0xbd950a17	-0.07277315
173	0xbc60697c	-0.013697024
174	0x3d9c4b03	0.07631495
175	0xbd3359c0	-0.043786764
176	0xbb3a3867	-0.0028414966
177	0x3d07f5d8	0.03319344
178	0xbdfa2d85	-0.122157134
179	0xbe8ff2f5	-0.2811505
180	0x3d26e965	0.040749926
181	0xbe3f10de	-0.18658778
182	0xbebbfee3	-0.367179
183	0x3cddaf1e	0.027061041
184	0x3df01116	0.11722009
185	0xbdd8c59e	-0.105845675
186	0xbc46457a	-0.012101525
187	0xbd0f39d4	-0.03496726
188	0xbe318aff	-0.17338179
189	0x3da835d9	0.082133956
190	0x3c862661	0.016375722
191	0xbe852006	-0.26000994
192	0xbcaa72e3	-0.020806735
193	0xbe36287e	-0.17788884
194	0x3d3b981e	0.045799367
195	0x3df3f541	0.11912013
196	0xbe94070c	-0.28911626
197	0x3da17930	0.07884443
198	0xbe5c5e1e	-0.21520278
199	0x3dab8f4f	0.08376943
200	0xbe26d066	-0.16290435
201	0x3dd1a1f7	0.102359705
202	0x3dbc2088	0.09185892
203	0xbc83dec4	-0.016097434
204	0xbca04a36	-0.019566637
205	0x3e8eacc7	0.27866194
206	0xbc449590	-0.011998549
207	0x3e2edcc7	0.17076407
208	0xbd2c6968	-0.04209271
209	0xbe75a4e6	-0.23988685
210	0xbdfb73fc	-0.12277982
211	0x3de7999d	0.11308596
212	0x3ddb54ec	0.10709557
213	0x3cc722ad	0.024308527
214	0x3e4cae17	0.19988285
215	0x3e8db961	0.27680495
216	0x3e6162a6	0.22010288
217	0x3eb59e90	0.35472536
218	0xbd9b7da8	-0.075923264
219	0xbcb95c3c	-0.022626989
220	0x3df78b0b	0.12087067
221	0x3dace4b6	0.08442061
222	0x3c9dbbba	0.019254554
223	0xbeec816f	-0.461925
224	0x3df10498	0.11768454
225	0x3e52c1ad	0.20581694
226	0x3e125281	0.14289285
227	0x3ec83d43	0.3910924
228	0xbe83aced	-0.2571787
229	0x3cd80e8c	0.026374124
230	0x3d9ed5b4	0.077556044
231	0xbe6d09d1	-0.23148276
232	0xbe138c5c	-0.14409012
233	0x3e6e9388	0.23298466
234	0x3da49ad7	0.08037346
235	0x3de33552	0.110941544
236	0xbe3bd351	-0.1834233
237	0xbdafbd22	-0.08580996
238	0xbe460f09	-0.19341673
239	0x3e1ca9ac	0.152991
240	0xbe799013	-0.24371366
241	0x3d18715f	0.037217494
242	0x3d2bf4f7	0.041981664
243	0x3df38e6a	0.11892398
244	0xbd052dbc	-0.03251432
245	0x3e449778	0.19198406
246	0xbd0babb1	-0.034099285
247	0xbf00f042	-0.50366604
248	0xbdd83ac1	-0.105580814
249	0xbec6d2ac	-0.38832605
250	0xbf01a673	-0.50644606
251	0x3ece52cf	0.40297553
252	0xbee310b1	-0.44348672
253	0xbd440a17	-0.047861185
254	0x3ecccafb	0.39998612
255	0x3eb6cf53	0.3570505

lstm.bias_ih_l1 f4 [256]
0	0xbdd81cdb	-0.10552379
1	0xbe2cf920	-0.16891909
2	0x3d8f4e5b	0.06997367
3	0xbdaab705	-0.083356895
4	0xbe117d30	-0.14207911
5	0xbe515565	-0.20442732
6	0xbcf263b8	-0.029588565
7	0x3d448a29	0.047983322
8	0xbac9e42e	-0.0015403086
9	0xbdd107f7	-0.10206597
10	0x3d75e0c1	0.060028795
11	0x3d9f24ae	0.07770668
12	0xbe1f02fa	-0.15528479
13	0xbe051f98	-0.13000333
14	0xbd33f313	-0.043932986
15	0x3cc240c1	0.023712518
16	0xbdb615df	-0.0889089
17	0x3dc88804	0.09791568
18	0xbc306fd0	-0.010768846
19	0x3d0b088b	0.033943694
20	0x3aaee2e8	0.001334277
21	0xbd1bd2b9	-0.038042758
22	0x3d6b7b7d	0.057490814
23	0xbda53a79	-0.080677934
24	0xbdccd475	-0.100014605
25	0xbda08307	-0.078374915
26	0x3d97cafc	0.07411763
27	0x39e20741	0.00043111484
28	0xbdd04a51	-0.10170425
29	0xbec710ad	-0.3887991
30	0xbe656e81	-0.22405435
31	0xbe8570b3	-0.26062545
32	0x3c7466d4	0.014917094
33	0xbd7f52fe	-0.062335007
34	0xbd6b6dfb	-0.057477932
35	0xbe46ca25	-0.1941305
36	0x3de38e80	0.11111164
37	0xbe5ad947	-0.21371947
38	0x3de53f54	0.111937195
39	0x3d14cd34	0.03632851
40	0xbcefb280	-0.02925992
41	0xbe4ae1bc	-0.19812673
42	0x3daf1cf5	0.08550445
43	0x3c02df15	0.007987757
44	0x3eb2529b	0.34828648
45	0xbd1fcda6	-0.03901448
46	0x3c52d72b	0.012868683
47	0xbd4c6d81	-0.04990912
48	0xbd1f217b	-0.03885029
49	0x3b09d416	0.0021030954
50	0xbd59f14a	-0.053208627
51	0xbd456ed8	-0.048201412
52	0x3d9ed188	0.07754809
53	0x3d8ef33e	0.069799885
54	0x3c8f95ca	0.01752748
55	0xbd65739f	-0.056018468
56	0x3b0dfa07	0.002166392
57	0x3dacfaad	0.0844625
58	0x3cc6bd52	0.024260197
59	0xbc832f30	-0.016013712
60	0xbde1f176	-0.11032383
61	0xbd91d4f1	-0.071206935
62	0xbd0739e3	-0.03301419
63	0xbcfa9c5a	-0.030592132
64	0x3d7a641d	0.06113063
65	0x3ecae7b3	0.39629897
66	0xbdd5c102	-0.10437204
67	0x3e7686c2	0.24074844
68	0xbc77ea1f	-0.015131502
69	0xbe08ac59	-0.13346995
70	0x3dafb6e0	0.085798025
71	0x3e0b32a3	0.13593535
72	0xbd100d91	-0.035169188
73	0xbd6fa880	-0.058510303
74	0x3cac993b	0.02106916
75	0x3e11c972	0.14237002
76	0x3e372b13	0.17887525
77	0x3cca9e35	0.024733642
78	0x3c959a9b	0.018262198
79	0x3de75f84	0.11297515
80	0x3de280a2	0.11059691
81	0xbdcbcf52	-0.099516526
82	0x3e396b68	0.18107378
83	0xbd0868f8	-0.03330323
84	0xbd723d86	-0.059140705
85	0x3e6b2b7f	0.22965811
86	0x3e1802e1	0.14844848
87	0x3de9bac1	0.114125736
88	0x3d843565	0.06455497
89	0x3cc5d277	0.024148209
90	0xbc2e2b4d	-0.010630441
91	0x3d89a8c6	0.06721644
92	0x3e609aca	0.21934047
93	0x3ee109e2	0.43952852
94	0x3e7ab074	0.24481374
95	0x3dbe9e80	0.09307575
96	0x3e4c744f	0.19966243
97	0x3e3f74c2	0.18696883
98	0x3be4cc96	0.0069823964
99	0x3ea5dc9f	0.32394883
100	0x3d7788ec	0.060433313
101	0x3dc51dd0	0.09624827
102	0x3e2c426e	0.16822216
103	0xbd0035f5	-0.031301457
104	0x3d0d15c4	0.034444585
105	0x3e2bbf69	0.16772236
106	0xbdc71473	-0.09720697
107	0x3c871aaa	0.016492207
108	0x3e5a6d55	0.2133077
109	0xbd3caa5d	-0.04606091
110	0xbb26547e	-0.002537995
111	0x3e9b16d2	0.30290848
112	0x3e0fd2ee	0.14045307
113	0x3e1f2881	0.15542795
114	0x3dccc2d4	0.09998098
115	0xbc76440e	-0.015030874
116	0x3c8bb7b9	0.01705538
117	0xbae7b3a6	-0.0017677441
118	0xbe13750d	-0.1440012
119	0x3db2c54d	0.087290384
120	0x3dd76907	0.10518079
121	0xbdcabcbf	-0.09899282
122	0xbe093c14	-0.13401824
123	0x3e92dae8	0.28682637
124	0x3e2d8e57	0.1694883
125	0xbda3c048	-0.07995659
126	0x3dbc4986	0.09193711
127	0xbdcf3df3	-0.10119238
128	0x3af6b537	0.0018822317
129	0x3de9565f	0.11393427
130	0xbd8438cf	-0.06456148
131	0x3d4d01c1	0.0500505
132	0xbd3ae78f	-0.045630988
133	0xbce9719f	-0.028496562
134	0xbd02c4c2	-0.031925924
135	0xbe10e101	-0.14148332
136	0x3d70a20e	0.058748297
137	0x3d57ab7d	0.05265378
138	0x3ca88ac2	0.020573977
139	0xbd9770e2	-0.073945776
140	0xbc4d704b	-0.01253898
141	0x3d2b96ba	0.04189179
142	0xbd310af4	-0.043223336
143	0xbd27aea4	-0.040938035
144	0x3d868767	0.06568795
145	0x3e268628	0.16262114
146	0xbea533bf	-0.32266042
147	0x3dd92812	0.10603346
148	0xbc5f086f	-0.013612851
149	0x3d28aca6	0.041180275
150	0xbe185cc7	-0.14879142
151	0xbc89aebe	-0.016806956
152	0xbe1af014	-0.15130645
153	0x3dd049a5	0.101702966
154	0x3b2c132c	0.0026256545
155	0x3d8e2592	0.0694076
156	0x3cf86f15	0.030326406
157	0x3cff1410	0.031137496
158	0x3e0ea049	0.13928331
159	0x3e7e5a0d	0.24839039
160	0xbc11eef0	-0.008907065
161	0xbdf73049	-0.120697565
162	0xbcd6cc32	-0.026220415
163	0x3d92a320	0.0716002
164	0x3e8bec55	0.27328745
165	0xbdec0914	-0.11525169
166	0xbeab2f4e	-0.33434528
167	0x3e2f5f00	0.17126083
168	0xbe142189	-0.14465918
169	0x3e16d23e	0.14728639
170	0x3cd8635c	0.026414566
171	0x3d26c168	0.04071179
172	0x3ea775f9	0.32707193
173	0x3da799d8	0.0818364
174	0x3cfded87	0.03099705
175	0xbdda845a	-0.10669775
176	0xbc37f7bd	-0.011228499
177	0x3df79c91	0.120904095
178	0xbdba756e	-0.09104429
179	0x3e34958a	0.1763517
180	0x3e1638d7	0.1467012
181	0x3cd98183	0.026551014
182	0x3da375b1	0.07981432
183	0x3d9b01b1	0.07568682
184	0x3e1de8ce	0.15420839
185	0x3db47ada	0.088124946
186	0x3d5efe21	0.054441575
187	0xbca28d05	-0.019842634
188	0x3df5f34f	0.12009298
189	0x3d4b4948	0.049630433
190	0x3d4e6e6c	0.050398275
191	0xbd9dbcb8	-0.07702011
192	0xbd343ef5	-0.044005353
193	0x3ebb3dd0	0.36570597
194	0x3e57dbe7	0.2107998
195	0x3d4e4a21	0.050363664
196	0xbdd61579	-0.10453314
197	0xbc567665	-0.013089751
198	0x3d927072	0.071503535
199	0xbb19198c	-0.0023361174
200	0x3c64b024	0.013958011
201	0x3c9d6bf9	0.019216524
202	0xba91a067	-0.0011110426
203	0x3cf22d51	0.029562624
204	0xbd657a00	-0.05602455
205	0x3cba0f01	0.022712233
206	0xbcd3fdce	-0.02587786
207	0xbd38fa77	-0.045160737
208	0x3d6e98ac	0.058251068
209	0xbe23ae76	-0.1598452
210	0x3e2a4c64	0.16630703
211	0x3db5f32f	0.08884274
212	0xbc44b204	-0.012005333
213	0xbdd705e9	-0.10499174
214	0xbdcede62	-0.1010101
215	0x3e40037a	0.18751326
216	0xbd288c41	-0.04114938
217	0xbdba4503	-0.09095194
218	0x3da84005	0.08215336
219	0x3db82a6e	0.08992468
220	0x3da11ca2	0.078667894
221	0x3ead77aa	0.3388036
222	0xbd0cd696	-0.034384333
223	0x3b3956fc	0.0028280606
224	0xba969070	-0.0011487138
225	0x3b10822d	0.0022050247
226	0x3d784bd9	0.06061921
227	0x3e5e40e6	0.21704444
228	0xbd89e21d	-0.06732581
229	0x3e95a1cc	0.29225004
230	0x3d4bb0c6	0.04972913
231	0x3dd4cd05	0.10390667
232	0x3e44b016	0.19207796
233	0x3dc86788	0.09785372
234	0x3dac9f58	0.0842883
235	0xbdfa2c7b	-0.12215515
236	0xbdf3a5bc	-0.11896846
237	0xbdd27fbf	-0.10278272
238	0xbcee1ea1	-0.02906734
239	0x3c773bc4	0.015089933
240	0xbd94a9dc	-0.072589606
241	0xbc6d79dc	-0.014494386
242	0x3be144d4	0.00687466
243	0x3d7a3c53	0.061092686
244	0xbc3f8ea7	-0.011691726
245	0x3a4d8430	0.0007839827
246	0xbe1fa334	-0.15589601
247	0xbd8021de	-0.0625646
248	0xbd8717a4	-0.06596306
249	0xbd151974	-0.036401227
250	0x3dd31bc2	0.10308029
251	0xbce8e40d	-0.028429056
252	0x3a25dbcc	0.0006327003
253	0x3c8ac521	0.016939702
254	0x3d245803	0.040122997
255	0xbc8d1de0	-0.01722616
